graph_transformer/saved_models/GraphCAM_PANDA_3class.pth (torch, 973052 bytes, 46 tensors)

module.cls_token f4 [1, 1, 64]
00000000: 3c37 54bb dc99 823d 0521 153e c770 29bd
00000010: a4c0 79bc 8209 42bc 5e18 dc3c b706 8cbb
00000020: d5d4 e53d c627 043c 2741 97bc dacf ddbb
00000030: 2831 2c3d a9ee 8f3d e9f1 29bc 796b 04bc
00000040: 4ed4 f53d 6ccc 4bbc 1726 f4be 9066 863d
00000050: b215 1a3e aafa 93bd 2fee 0abd 107e 5f3d
00000060: 1a37 d9ba 29c5 9ebd 0719 3d3d 08d7 933d
00000070: 7fc4 f7ba dca0 9b3c 112f b13b 40df d33d
00000080: 837e 6c3c 3c61 56bd 01b3 8b3d 6242 27be
00000090: 95da 4c3c c1e3 393d 043f 0d3d 7f55 a53d
000000a0: 9387 cebb c6d9 3dbc 1a58 8bbd e0fa 6a3e
000000b0: ff6f b23d be80 9bbd d2f8 c03c b170 4b3c
000000c0: 161f 32bd bc1f debd 282d 413c d996 0e3c
000000d0: 507b e4bd da86 babd 198d 16bd e5bd 42be
000000e0: 1ad9 593d 123f b2bd 5d7c bd3c 6888 13bc
000000f0: 0887 04be 48b9 f1bc f27a 123d c1c1 80bc
-0.0032381555 0.063770026 0.14563377 -0.04136732 -0.015243683 -0.011843087 0.026867088 -0.0042732614
0.11222235 0.008066123 -0.018463684 -0.0067691626 0.042039067 0.07027943 -0.010372617 -0.008082264
0.120033845 -0.012438875 -0.4768531 0.06562531 0.15047339 -0.07225545 -0.033918556 0.054563582
-0.0016572208 -0.07752449 0.046166446 0.07218748 -0.0018903165 0.018997602 0.005407222 0.10345316
0.01443446 -0.052338824 0.06821252 -0.16333917 0.012503286 0.04538322 0.034483925 0.08072948
-0.006302783 -0.011587566 -0.068039134 0.22947264 0.08712768 -0.07592915 0.023556147 0.012417004
-0.043486677 -0.108458966 0.011790551 0.008702957 -0.111563325 -0.09107752 -0.036755655 -0.19017752
0.05318556 -0.08703436 0.02313059 -0.00900469 -0.12942135 -0.029507294 0.03576178 -0.015717389

module.transformer.blocks.0.norm1.weight f4 [64]
00000000: 8be4 093f fea9 453f 752a 853f 4d49 de3e
00000010: d1a4 f43e 85c8 333f 4041 1f3f bb29 5a3f
00000020: 80c4 193f dc25 2f3f 6acd 703f 8a6e 153f
00000030: 989e 133f d90f 3d3f e2ce 043f 5cf8 123f
00000040: e5b3 313f eb15 1b3f ef34 8b3f 7593 593f
00000050: ee5a 433f 0d50 573f bf90 e53e defd 013f
00000060: eca4 1e3f ca5e 293f 37da 9c3f 8bbb f93e
00000070: 37e5 cb3e 76b7 063f e9e1 8b3f 8a1b 1c3f
00000080: d3eb bc3e e700 ed3e 2c43 1d3f a3bd 2a3f
00000090: 2b6d d63e f0fc 603f 1e46 4a3f aafc 393f
000000a0: fd6a 853e b63b da3e eba4 223f 3d16 4b3f
000000b0: da37 5d3f 5270 443f 0188 853f 844c 013f
000000c0: d645 163f 524b 1c3f 745c ce3e 0bf2 963e
000000d0: 5b6e d23e 1b70 0e3f 37fa de3e 5bd2 7b3f
000000e0: 5977 3a3f 0983 3e3f 3044 a33e 2315 8d3f
000000f0: 81e5 703f cd44 1d3f ce81 ca3e e7d7 3a3e
0.53864354 0.7721251 1.0403582 0.434153 0.47781995 0.70227844 0.6220894 0.85219926
0.6006546 0.68417144 0.94063437 0.58371794 0.5766387 0.73852307 0.5187818 0.57410216
0.6941512 0.6058032 1.0875529 0.84990627 0.7631062 0.8410652 0.44836995 0.50777996
0.619704 0.6616026 1.2254094 0.48775896 0.39823315 0.5262369 1.0928317 0.6097952
0.3689867 0.4628975 0.6143062 0.6669561 0.41880164 0.8788595 0.7901324 0.7265116
0.26058188 0.4262368 0.63532895 0.7933081 0.8641335 0.7673389 1.043213 0.5050738
0.5870031 0.6105243 0.4030491 0.2948154 0.4109982 0.5563981 0.43550274 0.9836785
0.7283836 0.74418694 0.3188796 1.1022075 0.94100195 0.61433107 0.39552158 0.18246423

module.transformer.blocks.0.norm1.bias f4 [64]
00000000: 90e1 403d b188 723d e6cc 6e3c d831 923c
00000010: 6b47 b43c 55fe 883c 9124 64bc f0b4 39bc
00000020: 212c d13c 1c45 953b 6ecb 1abc e2ed 0abd
00000030: d60c e8bc 5ef2 123d 11fe 1b3d 3d69 0abc
00000040: 0774 f73b fdae 1ebd 6081 b6bd a92f fa3c
00000050: 7b4d 803d 3366 8f3a c8cc d6bc 7b72 e73c
00000060: bc82 7b3c ab3b 9f3b 9f63 94bc 9ebe 123d
00000070: 8bb9 8c3c aaf1 0c3d 63e5 f23c 6b0f cd3c
00000080: 3d0d e4bc d990 2cbd 6511 2fbb 9970 3bbd
00000090: 6924 3e3d d90f 813c 29fb 31bb 9966 a8bc
000000a0: 2af0 59bd 7842 be3c 1ee4 1dbd fdc5 aa3d
000000b0: 0bd4 daba 7014 e9bc 26f1 7abc d4d6 98bc
000000c0: c41d d8bc 09da 2dbd db74 3a3d 8f64 933c
000000d0: 6e75 a5bb 91f2 68bd e565 4fbb 2b3d 0abd
000000e0: 5167 4dbc 87f3 a1bc 6fac 363d a469 bfbb
000000f0: ae35 25bd becd 183d a1c6 073d bbfd 233d
0.047090113 0.05921239 0.014575219 0.017846033 0.022006711 0.016722837 -0.013924734 -0.011334643
0.025533738 0.0045553576 -0.0094479155 -0.03391827 -0.028326433 0.03587567 0.038084093 -0.008447942
0.0075516733 -0.0387411 -0.08911395 0.030540304 0.06264778 0.0010940492 -0.026220694 0.02825283
0.015350994 0.004859408 -0.01811391 0.035826318 0.017178318 0.034410156 0.029650396 0.025031766
-0.027838344 -0.042130325 -0.0026713249 -0.04576168 0.046421442 0.015754627 -0.002715776 -0.020556735
-0.053207554 0.023225054 -0.038547628 0.083385445 -0.0016695274 -0.028452128 -0.015316283 -0.018657126
-0.02638138 -0.042444263 0.0455216 0.017992286 -0.005049399 -0.056871954 -0.0031646427 -0.03374974
-0.01253684 -0.019769443 0.04459804 -0.0058414508 -0.040334396 0.037305586 0.03314841 0.040036898

module.transformer.blocks.0.attn.qkv.weight f4 [192, 64]
00000000: 7e75 d6bb c54e 9c3a 74a4 eb3c 6943 36bb
00000010: 50af c33b 7607 64bb 597f 25bb 4826 863b
00000020: 2c93 3539 4edd ccbb cd59 00bd 8f55 f93b
00000030: afe0 b039 5588 e43a 402d 723b 9d57 4b3a
00000040: 5e04 513c 2df2 d2b9 9a0e a5bb ce1f 07ba
00000050: 981f 81bc 992d 8c3c 8abe fc3b fde4 bf39
00000060: 16d6 4f3b 3c14 19bb f058 65bb 1d2b 03bc
00000070: 78a3 bd3b 3719 083a 21ec 103a 17d8 813a
00000080: ed4a 74ba 4b40 123a ab6d 9e3a 9c09 b3bb
00000090: 3518 f23a 8f4e b0bb 2ce5 8bbc 5d6b df3b
000000a0: d157 a6b9 b827 1cbb cfe6 babb 50be 24bc
000000b0: 7681 26bb 316a 843a 024f 7ebb da36 51bb
000000c0: 6bc4 89bb f9ab 9fbb 5b7d c8bb 09d3 dcba
000000d0: 7d9b e43b ae58 ed3a 632e 2ebb ef36 e4b8
000000e0: de08 1bbc d09b e7bb 260e 6d3b 040a cb3c
000000f0: bda7 8e3c f0ed e039 6def 5ab9 a19f 253b
00000100: a8dd dd3a 129d 73bb 5655 f2bb e2ec 6bbb
00000110: 1a65 16bc ee58 ffbb f698 6138 ba9d 5eba
00000120: 7f53 82bb b86f 1dbc 7a03 8f3c 39b9 233b
00000130: 0a73 10bb e167 293c 0107 16bb edda f3bb
00000140: 969b e2bb 2c2b 273b c909 08bc 1387 01bc
00000150: 657e f1bb 40a4 e7bb f9e2 713a c3aa 24bb
00000160: 6e69 d13b bbf8 07bc ae61 953c 625c a739
00000170: 7f19 f7ba 7ef6 24bb 3341 e83b 6063 26bb
00000180: 7fc6 783a a977 6dba dc28 60bb 5082 753b
00000190: 8914 efbb 9bd2 113c cf11 f23b 6dfc 753a
000001a0: 713f 443a 34c9 d6ba bb80 483c 38b7 eb3a
000001b0: 37f7 e6ba e938 e63b 1561 853b 5bea 743b
000001c0: 2aff ef3b 805e 763a 69c8 ddba 8991 b73a
000001d0: c82d a1bb 2093 ee3b c06d 053b 593e 9a3c
000001e0: 8b46 b13b 725d c7bb 60f4 67ba a012 47bc
000001f0: 4832 2f3b febf dcbb 5b85 a43b 8364 e1b8
00000200: e2c8 783d 1700 b6bc e4c9 b3bd 3e89 2f3d
00000210: e918 97bd c3c2 9a3d ee55 94bd a929 af3c
00000220: adb0 d8bd 79e1 b33c 57d8 a0bc 165e 48bd
00000230: cebf a9bd 733d 77bd fee4 8e3a d33e 08bd
00000240: c22c 76bd cc22 0dbd 2cd7 693e 5495 83bc
00000250: 958b 6bbd 0874 f8bc 8b08 683c 2076 a53b
00000260: fafd 953d cfdb 033e 962f bbbd e42b dfbc
00000270: e36d b73c a330 bd3d 71e7 ac3d 2889 f7bd
00000280: 7fcd 5a3d b011 a73d a76c 8fbd 5db3 bf3d
00000290: 6713 6fbd f902 09be ecc9 03be 7dc8 cbbd
000002a0: 7163 cdbc 8922 0cbd 2444 0e3e c7a1 6abd
000002b0: 1fdf 013c 9ce1 913d 885c 30bd 0d2b fcbc
000002c0: ec28 9f3d a461 b23d 8bf9 e5bc 3aee 15bd
000002d0: a382 733d 26a1 b63d 1484 a83d 5507 223e
000002e0: e19d 31bc 148b dd3d cf1f 00bb f305 87bd
000002f0: 6f41 6b3b 640f 91bd cffa f039 fcf3 c83a
00000300: fcd3 68bd 0626 6e3c 47cb 6e3d 52a8 9fbc
00000310: 54ed 423d 7a1d 89bd 32c3 3f3d 0c83 18bd
00000320: 1f50 7f3d 7899 b4bc c730 c53c 6afb 113d
00000330: 9533 ab3d 2d62 353d ae32 d7b9 0bc3 133d
00000340: 8360 3e3d bb39 3e3d 23ee 19be 417f 813c
00000350: cb40 9a3c d152 0d3d f4f9 18bc 0880 eebb
00000360: 18be 94bd c95a b9bd 326f be3d 0ad8 163b
00000370: 6ee3 25bd 59a7 b7bd f6ea 1fbd bae2 b53d
00000380: 31d5 4abd 9676 7abd 9617 a73d 95ad 4ebd
00000390: c4c5 0e3d 6300 ed3d e7cd a33d 5e6a be3d
000003a0: 6984 e33c c5c0 053d 40bd 01be bfeb 2f3d
000003b0: 5658 86bc 199f 33bd f74f 083d 91fa ef3c
000003c0: 6e9d 2ebd eeef 8cbd 1bdc bf3c a7bb 033d
000003d0: 08ce 55bd c1d6 7dbd ed7a 4fbd a3b7 91bd
000003e0: 1fb1 de3a 6fe4 85bd 18be 69bb 9860 4e3d
000003f0: 3919 173c 6983 623d 119a 57b8 9586 debb
-0.006544768 0.0011925331 0.02876494 -0.0027811176 0.0059718266 -0.0034794486 -0.0025252907 0.004093919
0.00017316331 -0.0062519675 -0.03133564 0.0076090763 0.00033736738 0.001743565 0.003695324 0.0007756891
0.012757389 -0.00040234756 -0.005037141 -0.00051545806 -0.015762135 0.017111586 0.0077131437 0.00036600968
0.0031713299 -0.0023358008 -0.0034995638 -0.0080058845 0.0057873093 0.00051917456 0.000552835 0.0009906319
-0.0009319026 0.00055790384 0.0012087127 -0.005463792 0.0018470349 -0.0053804587 -0.017077051 0.0068182186
-0.00031727416 -0.0023827385 -0.005703784 -0.01005514 -0.0025406755 0.0010102448 -0.0038804417 -0.0031923563
-0.004204323 -0.0048727957 -0.006118459 -0.0016847561 0.0069765435 0.0018108094 -0.0026577942 -0.000108821194
-0.009462563 -0.007068135 0.0036171763 0.02478505 0.017413968 0.00042901887 -0.00020879293 0.0025272148
0.0016927021 -0.0037172479 -0.0073954267 -0.0035999347 -0.009179378 -0.0077925837 5.3786636e-05 -0.0008492131
-0.0039772387 -0.009609155 0.017457712 0.0024982227 -0.0022041225 0.010339708 -0.0022892358 -0.0074418695
-0.00691552 0.002550791 -0.008303114 -0.007905739 -0.0073698037 -0.0070691407 0.0009227242 -0.0025126196
0.006390742 -0.008299048 0.018235054 0.00031921553 -0.0018852203 -0.0025171335 0.0070878505 -0.0025388822
0.00094900274 -0.0009058663 -0.0034204042 0.0037461706 -0.007296149 0.00890031 0.007387377 0.00093836227
0.000748626 -0.0016386868 0.012237723 0.0017983681 -0.0017621283 0.007025827 0.004070411 0.0037371132
0.007324119 0.0009398237 -0.0016920689 0.0014005165 -0.0049187876 0.0072807223 0.0020359606 0.018828558
0.0054100207 -0.0060841376 -0.00088483654 -0.012150437 0.002673285 -0.0067367544 0.00502078 -0.00010747558
0.06073845 -0.02221684 -0.08778742 0.042855494 -0.07377798 0.07556679 -0.07242952 0.02138217
-0.10580573 0.0219581 -0.019634409 -0.048917852 -0.08288537 -0.060361337 0.0010901985 -0.03326304
-0.060101278 -0.034457013 0.22835988 -0.016062416 -0.057506163 -0.030328766 0.014162193 0.005049482
0.07323833 0.12876819 -0.09139936 -0.027242608 0.022391265 0.09237792 0.084425814 -0.12086707
0.053418633 0.081576705 -0.07003146 0.09360383 -0.058368113 -0.1338004 -0.12869996 -0.099503495
-0.025071831 -0.034212623 0.13893181 -0.05728319 0.007926731 0.0712311 -0.043056995 -0.030782247
0.07771477 0.0871003 -0.028073093 -0.036604144 0.059450757 0.089174554 0.08228317 0.1582311
-0.010840864 0.10817543 -0.001955021 -0.065929316 0.0035897156 -0.07083014 0.00045963234 0.0015331502
-0.05684279 0.014535433 0.05829933 -0.019489441 0.047589615 -0.06695075 0.046817012 -0.03723435
0.06233227 -0.022045836 0.02407111 0.035640158 0.08359448 0.04428308 -0.00041045755 0.03607468
0.04647876 0.046441775 -0.15032248 0.01580775 0.018829724 0.034502808 -0.009336937 -0.007278446
-0.0726282 -0.09050519 0.092985526 0.0023016953 -0.040500097 -0.08967466 -0.039042436 0.08881135
-0.04951972 -0.06114825 0.081587955 -0.05045851 0.034856573 0.115723394 0.07998257 0.09297632
0.027773099 0.032654542 -0.1266985 0.042949434 -0.016399544 -0.0438529 0.033279385 0.029294284
-0.042630605 -0.068817005 0.023420384 0.03216138 -0.05219844 -0.061972383 -0.05065434 -0.07115104
0.0016990042 -0.06537711 -0.0035666283 0.050385088 0.009222322 0.055301104 -5.140348e-05 -0.006790946

module.transformer.blocks.0.attn.proj.weight f4 [64, 64]
00000000: c49c 323c c2be f63b f283 dd3b ffed b8bb
00000010: 0d0f 853b 1b62 88bc 2369 693c 4c7c 3fba
00000020: 1062 f4bc 98fd 773c 22da 27bd 8c08 923c
00000030: 2f36 ad3c 0b9c 8d39 3061 413c 7a58 0cbb
00000040: 6e53 703c 564a 523d 4f88 27bb 7237 f6bc
00000050: c27c 4e3c 9c04 59bc 57ba 233d 856b 983b
00000060: 7bbd a03c 806e 7a3c 68d4 88bc 6e42 beba
00000070: 2a23 71bb 9825 093b 46c3 633c 20a6 c8bc
00000080: 3249 103d 2f79 b33a dd72 2d3c e60b 743a
00000090: 180b cebc d17a 5fbb ac2c 083c a0a8 cf3b
000000a0: e822 f03b dfb1 20bc 519a 29bd 07f5 b7bb
000000b0: 372b 873a d512 3ebd d0cd bfbb cb7f 2c3b
000000c0: 7eb7 263d d650 de3c 2585 a73c d1bf 933c
000000d0: 9c8b 593b 4731 dc3a 508e 183d 2106 193c
000000e0: 4c25 b1bc df91 96bb bc42 063d 310e 05ba
000000f0: 7f8e 12bd 7cf7 c2bc 2bf9 bcbc ed09 023d
00000100: 5fa0 963c a9be f23b 5051 823c 4e91 3b3c
00000110: 3ff4 4ebd 7602 cebc 3a17 073a 0c1c 393c
00000120: 6efb 933d 6446 703b 19a5 5f3d a190 26bd
00000130: 95c2 80bc 2f72 babc fb75 13bd 3134 393c
00000140: f974 34bd f063 babb 8369 e0bc ec2c 853b
00000150: dbc5 9dbc 60a4 d5ba c4df 69bc ec5d a13b
00000160: 99b2 a13c b7bc 443d efc3 80ba 9430 923c
00000170: 747f f4bb 94cd 2b3c 5cc0 a7bc 722e 363d
00000180: d583 1ebc f01d 8abc d120 8c3c 5c4f 363c
00000190: ae5b 1e3c 8e24 01bd 0023 6dbb 89b8 c43a
000001a0: b331 65bc 8d44 ab3c b559 ec3c aef0 c63c
000001b0: 978a 13bc d73b ed3c dc6a 6f3c fadd 04bc
000001c0: c305 53bd 0ee3 ccbc 1912 07bd b02e 68bd
000001d0: 7f07 4cbc 32f0 82bc 14f5 babc c7c2 223c
000001e0: 0596 c83c 8847 0a3c c55e 26bc 8177 7c3b
000001f0: fb87 173d 9e0b 4a3a b76b c83c 77c8 16bd
00000200: 6bad 7cbb 3d6e 43bc 83b3 403d 534a d0bb
00000210: 8cb9 283d 13a9 bebb 7542 ccbb 5ea4 e33b
00000220: f13a 0f3c 235e 583c 1433 3a3d d307 953d
00000230: ab39 4ebd 3a70 073c 0c30 88bc 6fb9 2f3b
00000240: 1bb7 5dbd 76c6 09bd ee09 64bd ca5b b83c
00000250: f4f2 6d3c e24a 623b 58b1 263c 5af8 4c3c
00000260: 1552 a13c ad0b 0ebd 2fbc 06bc 89b8 043d
00000270: 17e6 81bd 5583 82ba fc5c b43c 60b1 bcbb
00000280: 9cb0 27bc 93bb b93c 6797 823b bc31 cc3c
00000290: e56c 823c 4b75 cb3c 4d8a a53c 1a7b 9a3c
000002a0: dfe3 3abd 5d76 663c aa47 003d 11a6 853c
000002b0: 2359 55bc ee2b 873c 1851 4d3d 139c fcbb
000002c0: c3db 1bbc c65f 1c3c a920 1c3c b2ae 39bb
000002d0: 8d4b b3bb c39c 40ba d7ea 4cbc b048 dfbc
000002e0: dc37 06bd b7ae 8a3c f18b b4ba 47cc d83a
000002f0: bca8 843c 3883 813d ccb8 e83b 15dc 6dbc
00000300: 1182 53bd a386 5dbc 89d4 703d 3ee4 89bb
00000310: 36bf d53b 76d2 303c 2078 aabb bd8a d53c
00000320: e90d 15bd c044 1c3c 9a38 193d f1d7 593d
00000330: b000 0cbd 3aed b43b f14b 5ebc 71d9 873a
00000340: b03f d13b 1b98 a4bc 8f78 f23c 8d11 953b
00000350: b8b5 7e3c e01f 003c dab5 26bd 803b faba
00000360: a34e c43c 1936 31bc 7db6 12bd 241c 863d
00000370: f818 f6bc b324 62bc 17f4 473b 1335 193c
00000380: ef7b 06bd 9709 823c e7e2 263c d150 4e3c
00000390: df1b 6fbb 40da 283c 3f55 133d 5e87 efbc
000003a0: 6b58 abbc ec3f 55bc ca3f 4c3d 66a3 7abc
000003b0: 2c76 653b 3a75 333d 1667 7d3c 6821 d6bc
000003c0: 3c11 a03c f42e 44bb 2dee 8dba 845d 14bc
000003d0: 92c9 eaba 4fde 863b 93fa 233c 5cab 5ebc
000003e0: 40f5 943c cce1 a83b d8fc 523b 5d8d 143b
000003f0: 0dba c3bb d722 c23b 5b69 5f3a d5c8 d33a
0.010901634 0.0075300643 0.006760114 -0.0056436057 0.004060632 -0.016648343 0.014246258 -0.00073045935
-0.029831916 0.015136145 -0.040979512 0.017826341 0.021144 0.00027009877 0.011802956 -0.002141504
0.014668329 0.051340424 -0.0025563424 -0.030055735 0.012602987 -0.013245728 0.03997263 0.004651489
0.019621601 0.015285134 -0.016702846 -0.0014515647 -0.003679464 0.0020926949 0.013901537 -0.024493277
0.035226054 0.0013692732 0.010586468 0.00093096343 -0.025151774 -0.0034100304 0.008311432 0.0063372403
0.00732838 -0.009808033 -0.041406933 -0.0056139263 0.0010312562 -0.04640468 -0.005853392 0.0026321288
0.040702336 0.027138155 0.02044923 0.018035801 0.0033194786 0.0016799354 0.037245095 0.00933984
-0.02162423 -0.004595026 0.032778487 -0.0005075662 -0.035780426 -0.02379965 -0.023068031 0.031747747
0.018387018 0.0074079824 0.015907913 0.011448218 -0.0505259 -0.025147658 0.00051533023 0.011298191
0.07225691 0.003666305 0.05460081 -0.040665273 -0.015717784 -0.022759525 -0.036001187 0.011303947
-0.044056866 -0.005688183 -0.027394062 0.004064193 -0.019259384 -0.0016299598 -0.014274541 0.0049245264
0.019738482 0.048031535 -0.0009824018 0.01784543 -0.0074614827 0.010486025 -0.020477466 0.044477887
-0.009674986 -0.016859978 0.017105492 0.011127319 0.009665413 -0.031529002 -0.0036184192 0.0015008609
-0.0139889 0.020906711 0.02885137 0.024284687 -0.00900521 0.028959198 0.01461288 -0.008109564
-0.051519167 -0.025010612 -0.032976244 -0.05668515 -0.012452959 -0.015983675 -0.02282194 0.009934134
0.024485597 0.008439906 -0.010154431 0.0038523378 0.036994915 0.00077074196 0.024465425 -0.036812272
-0.0038555514 -0.011928138 0.047046196 -0.0063565164 0.041192576 -0.005818495 -0.0062335082 0.0069470843
0.00874208 0.013206038 0.04545887 0.07276883 -0.050347965 0.008266503 -0.016624473 0.0026813408
-0.0541297 -0.033636533 -0.055673532 0.022504706 0.014523257 0.0034529497 0.010174118 0.0125103835
0.01969246 -0.034679104 -0.008223577 0.03240255 -0.06342714 -0.0009957353 0.022016995 -0.0057584494
-0.010234978 0.02267245 0.0039853337 0.024926059 0.015921066 0.024836203 0.020207549 0.018857528
-0.04562747 0.014066306 0.031318344 0.016314538 -0.01302174 0.01650044 0.050126165 -0.007709035
-0.0095128445 0.009544319 0.009529271 -0.0028332886 -0.005471653 -0.0007347578 -0.012507162 -0.02725634
-0.032768115 0.016929014 -0.0013774616 0.0016540372 0.01619374 0.06323856 0.0071021076 -0.014517804
-0.051637713 -0.013520869 0.05879644 -0.004208117 0.0065230383 0.010792365 -0.0052023083 0.026067132
-0.03639022 0.009537876 0.037407495 0.053184453 -0.034180343 0.0055214437 -0.0135679105 0.0010364485
0.006385766 -0.02009206 0.029598502 0.0045492114 0.015546255 0.0078201 -0.04070077 -0.0019091219
0.023963278 -0.010816121 -0.035818566 0.06548336 -0.030041203 -0.013802695 0.003051048 0.009351033
-0.032833036 0.015873713 0.010185934 0.01259251 -0.0036485118 0.010305941 0.03596997 -0.029239353
-0.020916184 -0.013015728 0.04986552 -0.015297746 0.0035013063 0.043812968 0.015466472 -0.026138976
0.019539468 -0.0029935213 -0.0010828428 -0.009055499 -0.0017912856 0.0041158567 0.010008472 -0.01359066
0.01818335 0.00515387 0.0032194164 0.0022667267 -0.0059731067 0.0059245634 0.0008522474 0.0016157875

module.transformer.blocks.0.attn.proj.bias f4 [64]
00000000: f724 3c3d d707 823c f586 d8bc ea9b b53b
00000010: 8a4f 90bd 06cc 0a3e 76fd e4bd eae3 1e3d
00000020: 4f6a 15bc 0a97 1abd 9f1f 333d c442 b03d
00000030: c70b 613c 683c 9a3d e566 69bd 297e 2c3b
00000040: bbad 75bd 5100 10bc 4082 c8bc a157 0dbd
00000050: 78c1 4e3c 7457 f03c a1f7 a33c 5646 2e3e
00000060: c1d1 9a3c 5f97 81bc c28c 683d 61ab 4a3d
00000070: b60d 42bd 3092 b83d 9663 a53d 6fa4 68bd
00000080: fe8e 593d de18 8b3d c2f4 6abd 38a0 45bc
00000090: bf89 e43c 6983 4fbc 4c88 4ebc 172c 0dbd
000000a0: 45b9 b5bc e529 283e c458 ae3d 8ba9 a33d
000000b0: 00b1 1d3e cb7f d5bc 5e87 273c 3a75 58bd
000000c0: f2d8 813d d733 1fbd 072b bfbd f42a 44bd
000000d0: a78e 44be f469 043d a41f 863d b917 3abd
000000e0: 6b7c c2bd e0b4 453d 5893 533b a37b 49bd
000000f0: d1fa 7dbd a1f0 143d b50c dbbc e772 88be
0.04593369 0.015872879 -0.02643154 0.005542268 -0.07046421 0.13554391 -0.11181156 0.038791575
-0.009119584 -0.0377417 0.043731328 0.086064845 0.013735718 0.07531053 -0.056982893 0.0026320315
-0.059980135 -0.008789138 -0.02447617 -0.034507398 0.012619369 0.029338576 0.02001554 0.17019019
0.018898847 -0.01581925 0.056774862 0.049479846 -0.047376357 0.09012258 0.08075635 -0.05679744
0.053114884 0.067918524 -0.057362325 -0.012062125 0.027897714 -0.012665608 -0.012605738 -0.034465875
-0.02218307 0.16422231 0.085130244 0.07991322 0.15399551 -0.026061913 0.010225145 -0.05284617
0.06340207 -0.038867798 -0.09334379 -0.047892526 -0.19195043 0.032327607 0.06549004 -0.04543278
-0.09496387 0.0482682 0.0032283869 -0.049190175 -0.062006775 0.036362294 -0.026739458 -0.26650164

module.transformer.blocks.0.norm2.weight f4 [64]
00000000: dc88 8e36 a03d aeb3 04a6 04b7 0626 1334
00000010: 35f5 6e3e 77e9 6b3c 3ae6 91b7 159b ad39
00000020: 26c5 2e3e 9f79 323f e5ec d83d 454c ae3b
00000030: 54dc 633d 40c9 b13e a719 18b6 c820 7734
00000040: f303 8739 beb6 2fb2 7ad1 ad3e 24e7 923c
00000050: b88c 0c3c 13f3 5b39 1f3e 812f 1c78 103d
00000060: 8704 bd3e 01b8 8f3c 79a3 383e 9abc 9e37
00000070: 3eb4 5fb5 c574 a9b5 ee7e 873b 4644 da3d
00000080: 96b6 fdb6 6722 1fb1 271a ba35 8327 083d
00000090: cdba acb0 1c7d 373e 29d6 763e dc85 433c
000000a0: ba4c 05b3 47b9 db38 098c a43e 4301 1e3e
000000b0: 57df 843e 0789 b731 52c7 32b7 33df 833e
000000c0: 3299 f63d 6a1c 343d a8c5 923d 3ec3 923c
000000d0: d2b4 bab9 be5c 023c ccf3 6738 3db8 693e
000000e0: fd00 343c 5444 6439 493d 1fac dcdc 9f3e
000000f0: 23d4 49b7 2a19 d23d 6faa d1b0 05ac c13d
4.2478623e-06 -8.113716e-08 -7.906467e-06 1.3704275e-07 0.23335727 0.014398924 -1.7392555e-05 0.00033112676
0.17067394 0.6971683 0.10592059 0.0053191506 0.055630043 0.34723854 -2.2664697e-06 2.3015593e-07
0.0002575215 -1.0227891e-08 0.3394888 0.017932482 0.008578472 0.0002097602 2.3509103e-10 0.035270795
0.36917517 0.017543795 0.1803111 1.8922892e-05 -8.333626e-07 -1.2625466e-06 0.0041350042 0.106575534
-7.5612434e-06 -2.31571e-09 1.3865691e-06 0.033240806 -1.2567739e-09 0.17918819 0.24105133 0.01193377
-3.1036258e-08 0.00010477244 0.32138088 0.15430169 0.25951645 5.341579e-09 -1.0656035e-05 0.25756225
0.120409384 0.04397241 0.07166606 0.017915364 -0.00035611406 0.007956682 5.5301745e-05 0.22824188
0.010986564 0.00021769229 -2.262928e-12 0.3122319 -1.20299255e-05 0.10258706 -1.5255192e-09 0.09456638

module.transformer.blocks.0.norm2.bias f4 [64]
00000000: 4557 2435 f29b 01b3 18b0 8f36 c393 a134
00000010: 1e0a 9e3c 5d96 83bb 9477 89b4 78da 96b8
00000020: b22a 4c3c 2476 81bc d484 d6bb f3f8 f2ba
00000030: 8c69 58bb 7feb b2bb c34c 8b34 429c cd32
00000040: 3343 ba39 430b a2b1 b591 8e3c 6a9d df3a
00000050: d076 bfba 921c 3e36 b0f2 242d 4028 4abc
00000060: 06e7 5a3c 2f77 6bbb 561b 3b3c cd47 0637
00000070: dffc ebb4 6257 c735 26c9 2dbb d16b 65bc
00000080: 6ca9 03b6 9a23 4431 42f7 a434 b317 99bb
00000090: 92f6 d4af 14b7 febb 051f 0f3c a29a c1ba
000000a0: c635 23b3 34d9 eeb8 477e ac3b 144c 173a
000000b0: c4bc a6bc e6e2 2d32 7074 9738 f196 333c
000000c0: 3429 2cbc 9066 ddbb c84d 373c 1bbf b83b
000000d0: 482b 7139 c2f6 f1ba c3c0 e038 f7d5 01bc
000000e0: b62c 343b f63c 5d38 77d9 57ac da05 27b9
000000f0: c519 dcb7 eef2 053c 3373 edb0 54f0 9e3c
6.1221755e-07 -3.0176984e-08 4.282232e-06 3.0096098e-07 0.019291934 -0.0040157274 -2.5605243e-07 -7.19325e-05
0.012461351 -0.015803404 -0.006546596 -0.0018537327 -0.0033021895 -0.005460202 2.594662e-07 2.3936199e-08
0.00035526752 -4.716101e-09 0.017403463 0.0017060463 -0.0014607552 2.8328836e-06 9.376208e-12 -0.012338698
0.013360744 -0.0035929193 0.011420092 8.00374e-06 -4.395615e-07 1.4852087e-06 -0.00265176 -0.014002756
-1.9619138e-06 2.854199e-09 3.0727284e-07 -0.0046720146 -3.8737774e-10 -0.0077732895 0.008735423 -0.0014770816
-3.80003e-08 -0.000113891816 0.005264077 0.00057715294 -0.020353682 1.0121516e-08 7.221929e-05 0.01096128
-0.01050787 -0.006756611 0.011187978 0.005638016 0.00022999675 -0.001846038 0.00010717057 -0.007924548
0.002749247 5.274728e-05 -3.0674055e-12 -0.00015928541 -2.6238044e-05 0.008175595 -1.7276761e-09 0.019401707

module.transformer.blocks.0.mlp.fc1.weight f4 [128, 64]
00000000: be22 cf35 230b 03b0 7970 b535 6d4c 5a33
00000010: d002 92bc 8ffc fc3a 434c c535 1524 8d38
00000020: 3f38 18bc 0036 ab3c 6d75 543b cdb7 283a
00000030: cf8d 85bb 1ff6 6fbc 6e40 1035 d979 35b3
00000040: 1229 6237 abd7 4631 0937 f33a a968 053b
00000050: 1994 c338 0fbe 2fb7 e5ad ae2c a89d 53bb
00000060: ad7e 5e3c 07ce 253b 8c38 7c3c 0c4c 01b6
00000070: 8ec1 b7b3 b072 1cb4 c403 bfb9 9880 b7bb
00000080: a3bb 9cb4 4adc 94b0 4b93 ed33 6bcc 7939
00000090: b337 ff2e 5344 60bc d228 f43b 034e c0ba
000000a0: 14d5 b631 9d18 ffb6 803f ac3c edc5 593b
000000b0: a5c4 5b3c 5d96 24b1 a141 9837 cd83 c93b
000000c0: 64d5 d33b 9cf0 a13b 1d80 833a 7072 0abb
000000d0: 2e31 9738 2479 0d3a 5744 15b8 1460 40bc
000000e0: 0307 deba 3a34 2237 47f1 c7aa 125b d1bb
000000f0: 0e5e ba36 53aa bbbb 9cdd 16b0 4a6d 0c3b
00000100: 8f65 e72f d077 2c2e 3185 cdb1 1e51 74af
00000110: 0554 8a38 400e 1ab7 9bf3 b632 2eeb 8fb4
00000120: 2cc9 f2b7 306a 6ab8 7ff4 4a38 359d bab5
00000130: e771 b5b6 4153 5c39 950e 2331 fe85 9b2e
00000140: b622 00b6 0117 032d e171 6bb7 5e87 c7b6
00000150: 1799 62b6 6d85 9cb2 45fb f7a9 5a01 5a36
00000160: c9a6 7e39 3b73 4fb7 b8cb 0eba 6d05 8832
00000170: d699 932f 6d41 9b31 31d5 25b4 7336 6fb8
00000180: ea08 96b1 764b d1ac 6230 8230 c747 04b6
00000190: 05a4 88aa 8857 e438 9ea8 0539 6052 4db6
000001a0: cc2b a1ad d959 6f33 7ca6 c839 8f96 4038
000001b0: f391 c538 f389 07ad 1e2f 0db2 7757 1cb7
000001c0: cde5 0eb8 e5b8 0eb8 98f0 e6b6 2422 7836
000001d0: 2e3e 1ab5 7855 9cb5 e73b 0435 d574 90b6
000001e0: 3097 0636 8cdf 6233 45b8 8da6 2261 a536
000001f0: 0663 c52f ecd9 b4b6 00f0 fb2a d4e8 68b8
00000200: 0d9c f5b3 0c6b d3ac 36df 2eb4 dc70 c7b1
00000210: 65fd 843a 3be4 ecb8 ca2e 70b4 6e57 b7b6
00000220: a63b 253a 3815 1ebb 22de 96b9 9371 09b8
00000230: d81a 9539 75cd 683a c43c bcb3 2ccf a031
00000240: 2d51 9836 4065 48af 946a 60b8 56e6 29b9
00000250: 9c5c ae36 ccb8 b335 3edd 1dab 9027 8539
00000260: e155 a4ba c1a1 6db9 bc38 adba 2590 3934
00000270: 7f5d 9531 f2ac 7332 14ae 3538 561e cb39
00000280: 8c9d 2d32 c343 592e 9fe6 25b2 962d 9ab8
00000290: 3d38 21ad e04d 813a 2c32 8639 4e66 e738
000002a0: f1c5 fbaf 4cde 9134 e631 dfba 8c2d 3ab9
000002b0: 3252 8aba b71f 8a2f 8970 efb5 4441 9439
000002c0: db97 d2b9 4760 a0b9 369a cd38 678a 1139
000002d0: c76b 22b7 3dbb 05b8 a3c1 9335 69a2 993a
000002e0: f0d1 ad38 c71d c2b5 1047 4828 d81a 9238
000002f0: 71ab 4fb5 6efa 083a 8e4d b72e ded1 0eb9
00000300: 4697 feb2 e681 c82c 5e77 2db3 36aa 15b0
00000310: d381 273a d325 99b7 516b 95b3 6848 82b5
00000320: 14f8 9339 da26 01bb 797d f4b8 b88f 15b6
00000330: caa8 e538 5232 3039 0242 21b2 e1c3 9630
00000340: 40a7 4236 8110 91ae 606e ccb8 47ca e6b7
00000350: f5dc 8a36 dda4 dc34 a1b3 55aa 927a ef38
00000360: 5f59 81ba 5228 1bb8 ef72 2eba bf45 6533
00000370: 39b6 5830 36c5 87b1 0317 4937 100d 0d39
00000380: c269 c331 6d7a d92d 5b08 b6b1 bbee 76b6
00000390: c551 3fac 5c39 9039 d4d2 9538 aa9b c137
000003a0: b6c1 dcae 02e6 2734 487e adba 274a e6b8
000003b0: d24c dbb9 0a0a bead 3750 e2b4 4f2e 013a
000003c0: 3330 dfb8 b3ea 89b8 f78f e737 5649 e837
000003d0: 35df 0bb6 a43a 12b7 6333 10b4 0103 263a
000003e0: ae2e 3d37 a26e 4334 3d91 a227 cd2a 2db8
000003f0: 616a 8eb3 11ba 8539 763a e52d 571a d6b8
1.5432813e-06 -4.767335e-10 1.3518285e-06 5.082659e-08 -0.017823607 0.0019301343 1.4699839e-06 6.730125e-05
-0.009290754 0.020899773 0.0032418624 0.000643608 -0.004075743 -0.014646082 5.373794e-07 -4.2253166e-08
1.3480212e-05 2.8935385e-09 0.001855583 0.0020356572 9.32591e-05 -1.0475064e-05 4.9646836e-12 -0.0032290015
0.013580007 0.0025299804 0.015394341 -1.9266763e-06 -8.556809e-08 -1.4570355e-07 -0.00036433164 -0.0056000464
-2.9193788e-07 -1.0831027e-09 1.1062965e-07 0.00023822642 1.16059516e-10 -0.013688165 0.007451155 -0.0014671687
5.3211213e-09 -7.6024576e-06 0.021026373 0.0033229545 0.013413583 -2.3950613e-09 1.8150373e-05 0.006149745
0.006464647 0.004942013 0.0010032688 -0.002112534 7.2094015e-05 0.00053967745 -3.5588015e-05 -0.011741657
-0.0016939346 9.668112e-06 -3.551692e-13 -0.0063890303 5.5541814e-06 -0.0057270913 -5.488461e-10 0.0021427446
4.2090817e-10 3.9214687e-11 -5.9814274e-09 -2.222049e-10 6.596003e-05 -9.182433e-06 2.1298368e-08 -2.680694e-07
-2.8942326e-05 -5.5888842e-05 4.8388258e-05 -1.3903833e-06 -5.4074803e-06 0.0002101185 2.372791e-09 7.072386e-11
-1.909369e-06 7.451596e-12 -1.4033606e-05 -5.946421e-06 -3.3765734e-06 -1.8221465e-08 -1.1012592e-13 3.2485318e-06
0.0002428546 -1.2364991e-05 -0.00054472266 1.5834951e-08 2.684845e-10 4.5185318e-09 -1.5444381e-07 -5.703275e-05
-4.366588e-09 -5.948515e-12 9.472496e-10 -1.9711313e-06 -2.4272264e-13 0.00010888191 0.00012746683 -3.059533e-06
-1.832303e-11 5.572824e-08 0.00038271013 4.5916586e-05 9.420877e-05 -7.704492e-12 -8.217993e-09 -9.318689e-06
-3.4069457e-05 -3.4027635e-05 -6.882543e-06 3.6974752e-06 -5.7459954e-07 -1.164778e-06 4.9261e-07 -4.3051355e-06
2.0055559e-06 5.282304e-08 -9.833787e-16 4.928691e-06 3.5904452e-10 -5.3897875e-06 4.475309e-13 -5.552995e-05
-1.1437087e-07 -6.0088653e-12 -1.6286216e-07 -5.804493e-09 0.0010146318 -0.00011295868 -2.2368764e-07 -5.464003e-06
0.0006303139 -0.0024121534 -0.0002877573 -3.276912e-05 0.00028439495 0.0008880713 -8.7654854e-08 4.6801656e-09
4.539403e-06 -1.8225865e-10 -5.350502e-05 -0.00016202903 5.1963852e-06 1.3390322e-06 -5.608464e-13 0.00025397213
-0.0012537801 -0.0002266234 -0.0013215761 1.7281907e-07 4.3471e-09 1.4183785e-08 4.3315886e-05 0.0003874178
1.0105747e-08 4.9400272e-11 -9.656701e-09 -7.351783e-05 -9.164278e-12 0.0009865128 0.00025595853 0.00011033994
-4.579728e-10 2.7170097e-07 -0.0017028421 -0.0001775531 -0.001055306 2.5124589e-10 -1.783964e-06 0.00028277386
-0.00040167462 -0.0003058931 9.803886e-05 0.00013879836 -9.681046e-06 -3.188405e-05 1.1008709e-06 0.0011721376
8.288387e-05 -1.4462793e-06 1.11176395e-14 6.9668225e-05 -7.736299e-07 0.0005225305 8.335653e-11 -0.00013620357
-2.9638283e-08 5.6987635e-12 -4.0388265e-08 -5.444777e-10 0.000638989 -1.8256635e-05 -6.957874e-08 -9.706828e-07
0.00028222858 -0.0019706995 -0.00011658198 -2.2286386e-06 0.0001095101 0.00016803414 -9.386442e-09 1.0969609e-09
2.9005605e-06 -6.596768e-11 -9.748037e-05 -2.751233e-05 4.1384433e-06 4.1098147e-07 -1.8980522e-13 0.000114192386
-0.0009868554 -3.699243e-05 -0.00066546997 5.338165e-08 7.8839296e-10 -3.9514374e-09 1.1985891e-05 0.00013451674
5.68727e-09 2.4724412e-11 -5.297847e-09 -3.6795816e-06 -2.7188124e-12 0.00027508556 7.1441435e-05 2.307988e-05
-1.0038852e-10 1.5636763e-07 -0.0013236487 -0.000109810666 -0.0004182817 -2.1604957e-11 -4.2154144e-07 0.000492786
-0.000106424464 -6.576385e-05 2.7604385e-05 2.7690705e-05 -2.0842538e-06 -8.7159315e-06 -1.342974e-07 0.0006332845
1.1276146e-05 1.8201038e-07 4.51215e-15 -4.1286276e-05 -6.6317405e-08 0.00025506367 2.6060248e-11 -0.00010209221

module.transformer.blocks.0.mlp.fc1.bias f4 [128]
00000000: bad8 94bc 3db8 b1b8 109c 933a 7d8d 0d3a
00000010: 4da1 5e3b da30 81bc 4133 d0b9 4d03 3abc
00000020: 7147 7abc d992 7eb9 d81d 2db9 28f1 89bc
00000030: 9348 e7b8 1735 91b9 4631 3b3c df45 7639
00000040: 3d14 da3a 9750 21ba ec2c 453b 4e0c d7bb
00000050: 7851 0c3c 08b7 b239 0c8f 9638 345a b33a
00000060: e81f 87ba 8b29 00ba 2b86 f1b9 3d15 cf3b
00000070: eae4 bab9 3fb1 d9b9 b9c7 aa3a 0afa 08b8
00000080: 71fe f8b7 4075 fb3b 786f 81bc dfa0 e739
00000090: 5f3b 3aba 72cf 73b9 45dc 043c 6402 dcba
000000a0: 0d02 bb38 1eb9 b9b8 7c59 9539 b15b 67bc
000000b0: b256 883a 3a02 a23b ad4e 19bb c28c 833b
000000c0: d97f f3bb 2423 8f3b 7636 b4ba ddf0 5cb9
000000d0: 3a87 4eb8 af6e cf39 f804 11bc 8cd7 b3ba
000000e0: d8bd 143c cf94 eb39 9120 a7bd 71b1 083c
000000f0: 61b5 7db9 064d 68ba aa41 50b9 3a46 a1ba
00000100: 05b0 85ba 184d d53b 0a6b 3839 a27d 0d3a
00000110: 4b7b 023b d927 7a3b 0ad6 c2b9 9716 2538
00000120: 77ad 47bb f684 3db9 9c66 433b c1db 4bb9
00000130: 1579 963a cdb4 e938 89ba d139 0501 663b
00000140: 669f 2739 e3f1 2639 b618 95bb e00a fd39
00000150: 2119 abba e7f4 ad3b b3ca 71bb 9c41 5fbc
00000160: a762 9ebb c29b f4b8 ab54 3aba 5fcf 93bd
00000170: bf32 3e3a 4a51 09b9 7d25 4db9 03f4 2b3a
00000180: 9364 c339 d256 c039 b9e5 28ba 7d2b b7bb
00000190: dcd0 4db9 0c05 243a e115 70b8 9152 2139
000001a0: e432 16bd 5d85 043b 90e2 1c3a d1f3 fab6
000001b0: 197c 4eba 09af 8b3b e5c0 8c3a c55a 9bbc
000001c0: c933 e438 5626 c63b 251d 78bb 18d3 a9b7
000001d0: 90ed f33a be67 e237 d918 2d39 ca50 82b8
000001e0: 23de 2abd eac2 e4bc 218d 7bb9 24ae f33a
000001f0: cdda 623a 8773 543b 3a6e 9bb9 deb8 cab8
-0.01816975 -8.474335e-05 0.001126172 0.00053998065 0.0033970654 -0.015770365 -0.0003971104 -0.011353326
-0.015275822 -0.00024278033 -0.00016509683 -0.016838625 -0.00011028456 -0.0002769611 0.011425322 0.00023486417
0.0016638112 -0.00061536714 0.003008659 -0.006562746 0.008564346 0.00034087175 7.179202e-05 0.0013683499
-0.0010309191 -0.0004889003 -0.00046067065 0.0063196705 -0.0003564724 -0.00041521524 0.0013029493 -3.2657794e-05
-2.9682387e-05 0.0076738894 -0.015800223 0.00044179612 -0.0007104184 -0.00023251565 0.008109157 -0.001678538
8.917237e-05 -8.855968e-05 0.00028486166 -0.014120982 0.0010401814 0.004944113 -0.0023392842 0.0040145824
-0.007431012 0.0043682028 -0.0013749141 -0.00021070564 -4.9240167e-05 0.00039564582 -0.008851282 -0.0013720854
0.009078465 0.00044933564 -0.081605084 0.008343087 -0.00024195529 -0.0008861575 -0.00019860888 -0.0012304254
-0.0010199553 0.0065094344 0.00017587483 0.0005397444 0.0019909914 0.0038170724 -0.00037162035 3.9360104e-05
-0.0030468383 -0.00018073976 0.0029815799 -0.00019441453 0.0011480177 0.000111439826 0.00040002566 0.0035095823
0.00015985742 0.00015921103 -0.004550065 0.00048264023 -0.0013053754 0.0053087357 -0.00368945 -0.013626482
-0.0048335376 -0.00011663839 -0.00071079534 -0.07217287 0.00072554866 -0.0001309562 -0.00019564289 0.0006559493
0.00037268232 0.0003668578 -0.0006442923 -0.005589901 -0.0001962813 0.00062568556 -5.7240835e-05 0.00015384915
-0.036669627 0.0020221092 0.0005984688 -7.4789646e-06 -0.00078767684 0.004262809 0.0010738639 -0.01896418
0.00010881533 0.0060470505 -0.0037859168 -2.0244668e-05 0.0018610228 2.6989608e-05 0.00016507822 -6.213931e-05
-0.041715752 -0.027924974 -0.000239898 0.0018591327 0.00086538197 0.0032417492 -0.0002964603 -9.666545e-05

module.transformer.blocks.0.mlp.fc2.weight f4 [64, 128]
00000000: 05d7 693a 9859 5d38 c085 c9b9 6c54 91b8
00000010: 8ab1 fdb9 a3fd eebb 8761 9fb8 d62f 983b
00000020: 74a7 6cbb 5771 abb8 5686 d3b8 8b87 823a
00000030: 35a7 73b7 dcdf a738 a7bc bfba d5fa 9b38
00000040: 7eb0 25ba b0c9 ce38 510e 08bb 0fac a43a
00000050: 2727 84bb b560 55b9 454b ed37 d29a 02ba
00000060: f270 f439 88bd 1339 5f0e 2039 b28d 64bb
00000070: c07f c9b7 8cc5 d437 1044 00ba 1aff 26b7
00000080: a466 b0b7 8ead 08bb 1ae8 853a 8f15 0bb9
00000090: 8df5 2739 da22 a9b8 52cd 59bb 2d81 2b3a
000000a0: ac6f 98b7 5a95 9436 73ed cfb8 2f09 28bc
000000b0: 320c f4b9 b8ac 42bb d53a c939 0b78 94ba
000000c0: 647b 84bb add2 9bba 4acd fb39 71e1 1f38
000000d0: dd1d 7936 6a1d beb8 3593 a43a db1d 063a
000000e0: fa5a 84bb 1ba5 1a38 7077 de3c 03b5 84bb
000000f0: 8f85 9239 a092 90b9 ff34 ef37 a290 c539
00000100: bfa4 d239 b212 e63b 04dc 3fb7 4f83 d5b8
00000110: fb4a 41ba 58a2 723a 9b2f 9538 ee69 84b8
00000120: 33bd c73a 5290 e237 19d8 7eba a208 3d37
00000130: 811c cd39 5b7e aa37 f168 1139 aadb dcba
00000140: 20cf 2434 6e59 f6b0 c397 52ba e6e8 9ab9
00000150: e05c 043a a003 9eba 5da1 19ba d953 a53b
00000160: 7bfc 9e3a 08a9 2cb7 5faa 9139 e49f bf3c
00000170: b341 a1b9 0b55 0ab7 6dbd 2bb8 60ab 8eb9
00000180: 68b8 ebb8 71b2 9638 dfb6 6a39 9fd8 39ba
00000190: b957 3338 2863 82b9 c398 0cb8 5351 f8b8
000001a0: cddd ce3c 9a8e 03ba 03b5 a137 5020 2a38
000001b0: 64e4 9239 04d1 81ba b9ac 43b9 710a 32bc
000001c0: 2b24 e737 0bbf 53bb 3d92 7fb8 0d62 a0b6
000001d0: 0f67 ff39 31e4 8538 cac8 53b7 b201 ef37
000001e0: b6a8 2fbc 3bf1 be3b 5076 4138 ad02 b139
000001f0: e904 c8b9 8a8e 96ba 7571 50b8 0478 f236
00000200: 109e 7b3b d417 9bb7 aa66 88b9 4add 0eb9
00000210: ebb9 1eba 2929 e93a a694 e0b7 575d 503b
00000220: 0102 6db9 a4c8 90b7 c033 c3b6 89b5 5f3b
00000230: 40e9 09b7 63df b338 bd0e 34bb 70aa 23b7
00000240: 8fce 04ba 6097 bc38 0caa ceb9 b8aa b23a
00000250: 1fba 15bb 22b9 cdb8 22ac 3b37 50df a7b9
00000260: 5247 9f39 02ba ac38 8067 d438 937f 20bb
00000270: 5db6 7537 0864 9439 dc58 89b9 b10d 7337
00000280: 41e1 cab7 58f3 d9ba 3d6d 5d3b a702 31b8
00000290: e92b 5c39 7c78 eeb7 7345 07bb b54f 5c3a
000002a0: 2c9a cbb7 4abc 9a37 658b e5b7 0f3f b13b
000002b0: f61e 7eb9 e1c8 4bba fe4b 5638 8d5f 84ba
000002c0: b317 c23a 2908 4aba 5e86 043a 662b 1839
000002d0: 1393 9437 3b9f 8eb8 58ab 8d3a 2cda c739
000002e0: b9fc 20bb a85f 8eb9 12d0 94bc ce40 2dbb
000002f0: 0276 b638 69b2 6639 282e 6a38 1272 d839
00000300: 2602 023a e221 05bc 8036 1eb8 5eb4 3fb9
00000310: 179e 24ba 3dc8 c737 b163 6238 32b9 06b6
00000320: 1223 4639 773d f437 cc90 31ba bb6d a737
00000330: f3bf 30b8 90ac f636 5cc0 8b38 6b13 44ba
00000340: f9a3 17b7 dfcf 09b8 676e b7b9 4520 41b7
00000350: 1799 ea39 b930 aaba 32ae c738 db93 843b
00000360: 7d04 543a 43d0 67b7 d62f 4339 0ceb 88bc
00000370: a68c 83b9 d8e3 7ab8 6d2e 87b7 3a34 86b8
00000380: 919e 6738 1ac8 c035 ddbb 503b 03c2 a838
00000390: 21b8 0e39 d0c7 18b9 7045 15b8 08c3 3ab7
000003a0: 2722 8abc 5635 f0b9 75a9 dab8 5e3c 4db7
000003b0: 8160 2339 c848 60ba f14b 52b9 9e05 883b
000003c0: f172 f1b7 89be 15bb 20d0 90b9 401b 93b7
000003d0: dfa6 bcb8 fe17 f437 564a ffb7 ae6f 6db7
000003e0: 98dd 923b 231b 403a 29f2 e138 ad9f 84b8
000003f0: 75e9 afb9 86ab 32ba 0fea e235 95d3 8637
0.0008920285 5.2773947e-05 -0.0003843736 -6.9298636e-05 -0.00048388197 -0.0072934194 -7.599877e-05 0.0046443744
-0.0036110552 -8.1750266e-05 -0.00010086286 0.0009958608 -1.452286e-05 8.0048776e-05 -0.0014628366 7.437697e-05
-0.000632055 9.860413e-05 -0.0020760486 0.0012563484 -0.0040329876 -0.00020349289 2.8287652e-05 -0.00049821765
0.00046623457 0.00014089618 0.00015264143 -0.0034874496 -2.4020555e-05 2.536436e-05 -0.00048929546 -9.9537665e-06
-2.102863e-05 -0.00208554 0.0010216266 -0.00013264104 0.00016017836 -8.0650396e-05 -0.0033233953 0.0006542381
-1.8171813e-05 4.4281305e-06 -9.9147575e-05 -0.010256096 -0.00046548393 -0.0029705 0.0003838154 -0.001132728
-0.0040430296 -0.0011888348 0.00048027403 3.8118513e-05 3.7121274e-06 -9.065385e-05 0.0012556078 0.0005116143
-0.0040391656 3.6870228e-05 0.027156562 -0.0040498986 0.000279468 -0.00027575064 2.8515698e-05 0.00037682528
0.00040177067 0.0070212716 -1.14357135e-05 -0.000101810896 -0.00073735387 0.00092557585 7.113741e-05 -6.3139814e-05
0.0015238881 2.7008504e-05 -0.0009721532 1.1267288e-05 0.00039121884 2.0324418e-05 0.00013867371 -0.0016850133
1.5349042e-07 -1.7924273e-09 -0.00080334785 -0.00029546692 0.000504924 -0.0012055524 -0.0005860532 0.005045396
0.0012129688 -1.0291355e-05 0.00027783492 0.023391671 -0.00030757263 -8.245242e-06 -4.0945994e-05 -0.00027212035
-0.000112400216 7.185795e-05 0.00022384104 -0.0007089469 4.2758624e-05 -0.0002486941 -3.352087e-05 -0.00011840709
0.025252247 -0.00050185027 1.9276986e-05 4.056125e-05 0.00028017454 -0.000990421 -0.00018660993 -0.010866747
2.7554188e-05 -0.0032309915 -6.0932933e-05 -4.779786e-06 0.00048714175 6.384438e-05 -1.262333e-05 2.849181e-05
-0.010721376 0.0058270968 4.6124973e-05 0.00033762064 -0.0003815063 -0.0011486572 -4.969673e-05 7.2261337e-06
0.0038393773 -1.8488536e-05 -0.00026016432 -0.00013624612 -0.00060549256 0.0017788756 -2.67721e-05 0.0031793916
-0.00022602828 -1.7259568e-05 -5.8174774e-06 0.0034135303 -8.220144e-06 8.576994e-05 -0.0027474605 -9.75524e-06
-0.000506618 8.9927344e-05 -0.00039418077 0.00136312 -0.0022846533 -9.8096454e-05 1.1186146e-05 -0.00032019103
0.0003037998 8.236246e-05 0.00010128226 -0.0024490103 1.4645598e-05 0.0002830329 -0.00026196882 1.44871165e-05
-2.4185169e-05 -0.0016628308 0.0033787035 -4.220256e-05 0.00020997193 -2.8427916e-05 -0.002064076 0.0008404211
-2.4271278e-05 1.844591e-05 -2.7363838e-05 0.0054091285 -0.00024234861 -0.0007773769 5.109235e-05 -0.0010099277
0.0014808088 -0.00077069044 0.00050554227 0.00014512017 1.7711462e-05 -6.8007466e-05 0.0010808511 0.00038118789
-0.0024564697 -0.0002715562 -0.018165622 -0.0026436332 8.700417e-05 0.00022000972 5.5832934e-05 0.0004128372
0.00049594266 -0.008125754 -3.7720893e-05 -0.00018282371 -0.0006279661 2.3815892e-05 5.3975444e-05 -2.0075354e-06
0.00018895816 2.9115688e-05 -0.00067735906 1.9959049e-05 -4.2140437e-05 7.35146e-06 6.663866e-05 -0.00074797
-9.038479e-06 -3.285694e-05 -0.00034986736 -1.151121e-05 0.0004474602 -0.0012984491 9.521506e-05 0.004045946
0.0008087827 -1.3817163e-05 0.0001861447 -0.016713642 -0.00025091058 -5.981684e-05 -1.6114873e-05 -6.399346e-05
5.522237e-05 1.4363352e-06 0.0031850256 8.047002e-05 0.00013610769 -0.00014570286 -3.5589037e-05 -1.1131873e-05
-0.016861988 -0.00045816106 -0.00010426614 -1.22330075e-05 0.00015580842 -0.0008555767 -0.00020055451 0.0041510602
-2.8782963e-05 -0.0022849164 -0.00027620886 -1.7536455e-05 -8.995621e-05 2.9098239e-05 -3.0432984e-05 -1.4152303e-05
0.0044819824 0.00073282624 0.00010773942 -6.3239924e-05 -0.0003355254 -0.000681572 1.6906432e-06 1.607257e-05

module.transformer.blocks.0.mlp.fc2.bias f4 [64]
00000000: cf68 253d 1dbe 903c 6c06 21bd b5f0 13bd
00000010: 53b9 9abd 8803 f63d 32db 83bd 7d37 283d
00000020: 7f78 28bd 317e 763c 9a06 8f3d 8703 8e3d
00000030: fc34 25bd b87c eb3d 190a 9bbd 3a08 6b3b
00000040: ad89 76bd 8dd1 8abc 5b06 53bd faaf b4bc
00000050: d543 f23b e5cf ba3b f136 bc3c eb61 573e
00000060: ba3b 973d adc4 0fbc 5001 4c3c 4132 813d
00000070: fbac 5dbd 31f0 833d 8103 783d 3cc5 6abb
00000080: 71cb 0f3d 4cbb 793d 803f 5ebd 1259 2abc
00000090: 646b c93c 48a9 80bc f49b 453d 17dc 3dbd
000000a0: d6ba 47bc 3c9c 393e 5a01 c33d e8ed 423d
000000b0: 61e9 233e da66 a7bc cab1 87bb 54f3 fbbc
000000c0: a7bb ce3c c885 01bd 794f a2bd 113a 6fbc
000000d0: dd51 79be 2986 1a3d 358f 8e3d ffcc 51bd
000000e0: 3fcf d5bd 7c78 29bd a298 473a 1e1f aabc
000000f0: dcd7 a2bc 858e 60bd 19aa 98bc 13bc 91be
0.040383156 0.017668778 -0.039312765 -0.036118228 -0.07554879 0.12012392 -0.064382926 0.041068543
-0.04113054 0.015044735 0.06983681 0.069342665 -0.040333733 0.114983976 -0.07570285 0.0035863058
-0.06018989 -0.016945625 -0.051519733 -0.022056568 0.00739334 0.0057010525 0.022975417 0.21033446
0.07384439 -0.0087749185 0.012451485 0.06308413 -0.054120045 0.06442297 0.060550217 -0.0035823127
0.035106126 0.060969636 -0.054259777 -0.010397213 0.02458734 -0.01570572 0.04824443 -0.046352472
-0.012190541 0.18126005 0.09521742 0.047590166 0.16006996 -0.020434786 -0.004141067 -0.030755676
0.025235964 -0.031621724 -0.079253145 -0.014601246 -0.24347635 0.0377256 0.06960908 -0.05122089
-0.1043992 -0.04137467 0.00076139916 -0.020766791 -0.01987832 -0.054823417 -0.018635796 -0.28463802

module.transformer.blocks.1.norm1.weight f4 [64]
00000000: f1ef 2a39 e211 0cb9 b2fe 633e 16b3 953d
00000010: d200 5339 bba4 f43d 9e99 a93e 63af e1b6
00000020: 28f4 5436 6f90 083f dfaa f43e 3614 9b3e
00000030: dc5c 4c3a aacf bf3e fe4d 3f3e 02f2 b2b6
00000040: f002 c03b e2b9 4b3b b0c6 893e dbdd 863e
00000050: 8f15 97b4 2975 7239 d22b 573d 42a0 efba
00000060: 34eb 1a3f 1688 d93e 90f0 393f 092f cc3e
00000070: 5a3b 8a3d 08f8 fc3d a54c 4b38 21b2 373e
00000080: 64b9 333e 87bf 3d36 d420 d8b7 a820 d43d
00000090: 0ea7 e0b7 6479 c13e 1351 e1b8 a2e5 ad3d
000000a0: 18ed 4036 13ac 0d3d 7fe2 f93e ca95 033f
000000b0: 2a9c 133b 0e3e 4135 2bbf e23e 4c80 f73e
000000c0: 6dc1 c43e aada 133f e371 ec3e 9e29 543e
000000d0: 7d35 263b df78 d737 c4b4 a53e b5c8 f03e
000000e0: adce 5c3e a49b b13d b6fc 8ab4 3869 e53e
000000f0: 0fec 993e facf c83e 3058 1c37 306f 0c3e
0.00016301849 -0.00013358102 0.22265127 0.073095486 0.00020122834 0.11945482 0.33125013 -6.7259402e-06
3.173258e-06 0.5334539 0.47786614 0.30288857 0.00077958195 0.37463123 0.18682095 -5.332987e-06
0.005859725 0.0031086137 0.269094 0.26341137 -2.8141628e-07 0.00023122564 0.052532025 -0.0018282013
0.6051514 0.42486638 0.72632694 0.39879635 0.06749602 0.12351996 4.8470352e-05 0.17939045
0.1755119 2.8274678e-06 -2.5764493e-05 0.10357791 -2.6780672e-05 0.37787926 -0.00010743937 0.084910646
2.8748236e-06 0.03458793 0.48805615 0.51400435 0.00225235 7.1988404e-07 0.44286475 0.4834007
0.38428822 0.5775553 0.4618064 0.20719 0.0025361471 2.5686282e-05 0.32364476 0.47028127
0.21563216 0.08672264 -2.5888374e-07 0.44806838 0.3006291 0.39221174 9.318857e-06 0.1371429

module.transformer.blocks.1.norm1.bias f4 [64]
00000000: ccc9 01b9 607b 78b8 05c6 c23c ab64 1d3c
00000010: 3bb9 5d38 1918 26bc e8d8 873b ab60 8a36
00000020: 8f4b 44b8 e652 2e3d 30cb c4bc 947b 573b
00000030: 1c91 b037 cc0f 92ba f989 b43c 10c9 1e36
00000040: 78fe 69b9 4617 5ebb 73cc bc3c b8c7 943c
00000050: cd34 8136 a20c 8eb9 f26e e7bb d878 5c3a
00000060: 9c25 99bb 70c9 743c c518 bb3b f1bf 1ebd
00000070: bc3c 1b3c f7ec 82bb bf5b 7bb8 4459 a13c
00000080: e3b4 5fbb b861 0439 24bd 35b9 3379 89bb
00000090: 1417 beb7 d225 043d 5b83 abb9 cc3c 3cba
000000a0: 95a5 59b7 0ef7 92bc a4c0 253c 543f 9e3c
000000b0: 2af4 daba 814f 2a35 921e 2bbc 6f50 eebc
000000c0: 6894 6dbc c37a 1bbb 21c4 babc 43f3 bfbc
000000d0: f651 603b 8a0f a937 5957 fdbb 94b8 c43c
000000e0: 7c83 0f3c a009 8eb8 3ed8 5db4 7f2e 1bbc
000000f0: cd4c 75bb 47df 0dbd de32 98b6 ba14 4e3d
-0.00012377574 -5.924271e-05 0.023776064 0.009606521 5.2863015e-05 -0.010137581 0.0041457303 4.123974e-06
-4.680041e-05 0.042559527 -0.024022669 0.0032880055 2.1048407e-05 -0.0011143624 0.022038447 2.3660868e-06
-0.00022315409 -0.0033888384 0.023046708 0.01816164 3.8506464e-06 -0.00027093763 -0.0070627863 0.0008410341
-0.004673673 0.014940605 0.00570974 -0.03875727 0.009474929 -0.0039955336 -5.992851e-05 0.019695885
-0.0034134916 0.00012624904 -0.00017331966 -0.0041953563 -2.2660512e-05 0.03226263 -0.0003271353 -0.00071806903
-1.29727605e-05 -0.01794007 0.01011673 0.019317307 -0.0016704847 6.344563e-07 -0.0104443 -0.029091088
-0.014500715 -0.0023724295 -0.0227986 -0.023431426 0.003422854 2.0153606e-05 -0.00773136 0.024013795
0.008759376 -6.7728804e-05 -2.0660897e-07 -0.009471535 -0.003742981 -0.034636762 -4.5358747e-06 0.050312735
