graph_transformer/saved_models/improved_weights.pth (torch, 973653 bytes, 47 tensors)

module.cls_token f4 [1, 1, 64]
0	0x3c6a63fb	0.014306064
1	0x3c94ce09	0.018164651
2	0x3e52e60f	0.20595573
3	0xbb6e6ea5	-0.0036381867
4	0xbb4f16e5	-0.003159934
5	0xbe153e99	-0.1457466
6	0x3d62deff	0.055388447
7	0x3bec0abd	0.0072034285
8	0x3b7704eb	0.003769214
9	0x3d0e390a	0.034722365
10	0xbd2e05e7	-0.042486098
11	0xbca63d9a	-0.020293046
12	0x3b908492	0.004410335
13	0xbc4836a2	-0.012220057
14	0x3c286d6b	0.0102799935
15	0xbc39026f	-0.011292084
16	0x3b8c3ff0	0.004280083
17	0x3cb93708	0.022609249
18	0x3baa4b68	0.0051969774
19	0x3b9fcd5c	0.0048767757
20	0x3b8da5d7	0.004322748
21	0xbb5916fd	-0.0033125274
22	0xbbc9982e	-0.0061521744
23	0xbe05c142	-0.13062003
24	0x3c3c4597	0.011491201
25	0xbd12fbeb	-0.03588478
26	0xbbb2923b	-0.005449561
27	0x3d329fdb	0.04360948
28	0x3c74af98	0.014934443
29	0x3d66743c	0.056263193
30	0xbca94e98	-0.02066736
31	0xbe2b74f6	-0.16743836
32	0x3c0c7948	0.008573838
33	0x3b8af0f1	0.0042401482
34	0x3baf7558	0.0053545646
35	0x3bab4b8d	0.005227512
36	0x3bbf4212	0.0058367336
37	0x3a9a84ac	0.0011788807
38	0x3bb0096a	0.005372216
39	0x3b886587	0.0041624936
40	0xbe46abee	-0.19401523
41	0xbc890082	-0.016723875
42	0x3a8f4a01	0.0010932089
43	0xbdb0129b	-0.08597299
44	0x3b845522	0.004038469
45	0x3c85fbbc	0.016355388
46	0xbc1efe06	-0.009704119
47	0x3b8a2f4c	0.004217064
48	0x3bc689aa	0.0060588913
49	0xbc40e0f0	-0.011772379
50	0x3dfb86ad	0.12281547
51	0x3b94674e	0.0045289164
52	0x3e95589f	0.29169175
53	0x3ba944f2	0.0051656896
54	0x3e13a36f	0.14417814
55	0x3b16ab31	0.0022990222
56	0x3eff85fb	0.49906906
57	0xbe564c44	-0.2092753
58	0xbe3dbbed	-0.18528719
59	0x3c163d22	0.009169849
60	0x3d139768	0.036033064
61	0xbb6ddd05	-0.0036295068
62	0x3cb9c8b4	0.02267871
63	0xbb585f3f	-0.0033015755

module.transformer.blocks.0.norm1.weight f4 [64]
0	0x3ec02814	0.37530577
1	0x3f21eedf	0.63255113
2	0x3f3e50c0	0.74341965
3	0x3dbf3839	0.093368955
4	0x39674d84	0.00022058754
5	0x3fae537f	1.3619231
6	0x3f305cd1	0.68891627
7	0x3b7e92f3	0.0038844913
8	0x3b0c2ed1	0.002139021
9	0x3eb96805	0.36212173
10	0x3ee408da	0.44538003
11	0x3fab1de3	1.3368496
12	0x386f1a29	5.7006404e-05
13	0x3e828291	0.2549024
14	0x3dc85376	0.09781544
15	0x3e0d6dd7	0.13811432
16	0xba42ba32	-0.0007428258
17	0x3e846aa7	0.2586262
18	0x3b3c1d99	0.0028704165
19	0x37cc76f7	2.4374092e-05
20	0xb81a5836	-3.6798614e-05
21	0x3f2aa704	0.66661096
22	0x3e4d150e	0.20027563
23	0x3f174075	0.5908273
24	0x3f7fe4bd	0.999584
25	0x3ef5b134	0.47986758
26	0x3f0ad0ee	0.5422505
27	0x3eb8d7fd	0.36102286
28	0x3e9e5b62	0.30929095
29	0x3f0ad24d	0.54227144
30	0x3ea698e4	0.3253852
31	0x3f340bf4	0.7033074
32	0xb9ae0de3	-0.00033198213
33	0xba4cdc7a	-0.0007814836
34	0x39b80267	0.00035097005
35	0x3924a991	0.00015703427
36	0xba323e34	-0.000679943
37	0x3f27f13f	0.6560249
38	0xb7dfb5e5	-2.6668373e-05
39	0xb89f50c6	-7.596756e-05
40	0x3f36da64	0.7142699
41	0x3e93e2ab	0.2888387
42	0x3d80c97c	0.0628843
43	0x3f850271	1.039137
44	0xb883bbcb	-6.281546e-05
45	0xb802994e	-3.113719e-05
46	0x36c2fd36	5.811128e-06
47	0x3a170d44	0.00057621696
48	0xb7949354	-1.771158e-05
49	0x3be29181	0.006914318
50	0x3f8920f1	1.0713178
51	0xba89ae19	-0.0010504156
52	0x3f8f00de	1.117214
53	0xb893e3af	-7.0519156e-05
54	0x3f543e67	0.8290772
55	0x3d63f63b	0.055654746
56	0x3f9c5587	1.2213601
57	0x3f580428	0.8438134
58	0x3f70ec45	0.9411052
59	0xb7354597	-1.0804643e-05
60	0x3f12836c	0.57231784
61	0x3d87ca3f	0.06630372
62	0xb70001aa	-7.629782e-06
63	0xb9813ef6	-0.00024651707

module.transformer.blocks.0.norm1.bias f4 [64]
0	0xbd76f4b5	-0.060291965
1	0xbc297ebe	-0.010345159
2	0x3e4a978e	0.19784376
3	0xbc2fdcec	-0.010733824
4	0xb99ffbbe	-0.00030514406
5	0xbe35330b	-0.17695253
6	0x3d1b784c	0.03795652
7	0xb9e1081d	-0.0004292139
8	0x392f0d3c	0.0001669423
9	0x3cbec587	0.023287548
10	0xbd5576e4	-0.052115336
11	0xb9c20f06	-0.00037013757
12	0xb786f5a8	-1.6088437e-05
13	0x3d218f62	0.03944338
14	0xbe25bed1	-0.16186072
15	0xbc48731c	-0.012234475
16	0x3a58c12e	0.0008268532
17	0x3ccbba6c	0.024869166
18	0x3a171446	0.0005763214
19	0x387be7d7	6.005898e-05
20	0xb887ff3e	-6.484844e-05
21	0x3be9ceb2	0.0071352357
22	0x3dd7cea8	0.105374634
23	0xbde710dc	-0.112825125
24	0x3dd2804f	0.10278379
25	0xbc86c108	-0.016449466
26	0xbe2d9e4e	-0.1695492
27	0x3d80af0f	0.0628339
28	0xbe2d25ea	-0.16908994
29	0x3e0cbcf1	0.1374395
30	0xbd0c0430	-0.03418368
31	0xbddbb757	-0.10728329
32	0xb88ba6b0	-6.6590845e-05
33	0x38eab768	0.000111921516
34	0x3a2ce18f	0.000659489
35	0x3a8f9bd8	0.0010956479
36	0x3a922266	0.0011149168
37	0xbde32c43	-0.11092427
38	0x38204e3f	3.8219845e-05
39	0x37dfc9fb	2.6677726e-05
40	0xbe20d18a	-0.15704933
41	0x3e708ce6	0.23491248
42	0x3bf54679	0.0074852076
43	0xbdfc150e	-0.12308703
44	0x3b3394f4	0.0027402015
45	0xb92df399	-0.00016589313
46	0xb8191ebd	-3.650667e-05
47	0x39530e65	0.0002012789
48	0xb8a95fb1	-8.076372e-05
49	0x3ae018c6	0.0017097227
50	0x3e0781cc	0.13233107
51	0x3af19b08	0.0018433044
52	0x3dd7be89	0.105343886
53	0x3828ca82	4.024292e-05
54	0x3d9885b7	0.07447379
55	0x3d0a36ec	0.033743784
56	0x3e5e2afe	0.21696088
57	0xbe23a0fb	-0.15979378
58	0xbe2838e5	-0.16427954
59	0x389aae22	7.375727e-05
60	0x3dafd10c	0.085847944
61	0xbc822bab	-0.015889963
62	0xb8573384	-5.1307972e-05
63	0x3909f9d7	0.00013158411

module.transformer.blocks.0.attn.qkv.weight f4 [192, 64]
0	0xba82db3e	-0.0009983552
1	0xbb118d6c	-0.0022209538
2	0x3b19a11a	0.0023441971
3	0xb79b9562	-1.8547002e-05
4	0x37996b2b	1.8288925e-05
5	0xbba23ac9	-0.0049508554
6	0x3b86bf00	0.0041121244
7	0xb86f785a	-5.7094127e-05
8	0xb73c2d9c	-1.12162925e-05
9	0x3ad16c09	0.0015977632
10	0x3b526569	0.0032103902
11	0x3beffc69	0.007323791
12	0x36f093b1	7.169751e-06
13	0x3a13ec56	0.0005642822
14	0xbb50330b	-0.0031768705
15	0xb9b86031	-0.00035166883
16	0xb919009d	-0.00014591446
17	0x3af36220	0.0018568672
18	0xb8756e85	-5.851548e-05
19	0xb688eb9b	-4.080544e-06
20	0x368c960a	4.189792e-06
21	0xbb2cbb93	-0.002635692
22	0x3aa3c1cd	0.001249367
23	0xba458095	-0.0007534114
24	0x3b9d7639	0.004805353
25	0xbb07fd29	-0.002075026
26	0xbb6df9eb	-0.0036312293
27	0x38cb190a	9.684458e-05
28	0xbb8de4d9	-0.0043302593
29	0x3bab281b	0.005223287
30	0xbb5e52ad	-0.003392379
31	0x3b4f889b	0.0031667117
32	0x37758747	1.4634635e-05
33	0xb668f872	-3.4715308e-06
34	0xb8a2a30c	-7.755132e-05
35	0xb9233594	-0.00015564851
36	0xb8df1cbc	-0.00010638821
37	0xbc1d2b67	-0.009592867
38	0xb6a4ec88	-4.9151167e-06
39	0xb650a239	-3.1088841e-06
40	0xbb26d683	-0.0025457449
41	0x3b89412c	0.0041886773
42	0xb9088b39	-0.00013021835
43	0x3b2e658b	0.0026610817
44	0xb973bc20	-0.00023244368
45	0x37957a3e	1.7819108e-05
46	0x366b772f	3.5087103e-06
47	0xb7c516db	-2.3494873e-05
48	0x37094b26	8.183333e-06
49	0xb897a106	-7.230234e-05
50	0x3b71b09f	0.0036878956
51	0xb94cbf08	-0.00019526121
52	0xbb6a8bf5	-0.0035788987
53	0xb686b073	-4.0140526e-06
54	0xbb0136d1	-0.001971651
55	0x399576ab	0.0002850791
56	0x3beef0f7	0.007291909
57	0x3a9222ff	0.0011149346
58	0xbb78babe	-0.0037953104
59	0xb6cf9f26	-6.187608e-06
60	0x3ab436ab	0.0013749202
61	0xb9b0a641	-0.00033693205
62	0x36c15700	5.7619764e-06
63	0xb793e431	-1.7630025e-05
64	0xbc9c8e31	-0.01911077
65	0x3c541346	0.012944048
66	0x3bd7710a	0.0065747546
67	0x3bafb92b	0.00536265
68	0x37a24288	1.9342886e-05
69	0xbc90948f	-0.017648963
70	0x3c52a179	0.012855881
71	0x38bd721e	9.033478e-05
72	0x38a38127	7.796502e-05
73	0x3c3827d1	0.011239962
74	0xbc92ce00	-0.017920494
75	0x3c89066e	0.016726699
76	0x37a29abf	1.9383964e-05
77	0xba2e120b	-0.0006640262
78	0xbb2df90d	-0.002654615
79	0x3b891206	0.0041830568
80	0xb9b96bdf	-0.0003536632
81	0x3c5d6391	0.013512508
82	0xb9a573b8	-0.0003155747
83	0xb76aa362	-1.3985527e-05
84	0x3748f1ab	1.1977197e-05
85	0x3c7c96fe	0.015416859
86	0xbaa604f5	-0.0012666272
87	0x3c1b1a35	0.009466697
88	0xbbb441a8	-0.005500991
89	0xbbd500ed	-0.0065003545
90	0xbd1bfbab	-0.038081806
91	0x3c2770bb	0.010219748
92	0xbbf2effe	-0.007413863
93	0xbc37ab51	-0.011210279
94	0x3ae73948	0.0017640973
95	0xbce54e0c	-0.027991317
96	0x3801b5d0	3.0925323e-05
97	0xb7c92933	-2.3980252e-05
98	0xb8bc81c2	-8.988708e-05
99	0xb94ef851	-0.00019738196
100	0xb90699f9	-0.00012836595
101	0x3aa52c13	0.0012601636
102	0xb6dbafb5	-6.5471636e-06
103	0xb6a775b1	-4.990689e-06
104	0x3d03dbd1	0.032192055
105	0x3c68c5e3	0.014207336
106	0xba6f36ef	-0.0009125312
107	0xbb3a20ad	-0.0028400824
108	0xba2b891d	-0.0006543564
109	0x36eac39c	6.9965154e-06
110	0x36d95cc7	6.4779047e-06
111	0xb7256969	-9.859309e-06
112	0x37b11415	2.1109396e-05
113	0xb9074ad4	-0.00012902479
114	0xbc88860f	-0.016665487
115	0xb99f4eff	-0.000303857
116	0x3d3760e4	0.044770136
117	0xb6ceb46b	-6.160282e-06
118	0xbd301862	-0.042992003
119	0xb9067557	-0.00012822948
120	0xbdcd6949	-0.10029847
121	0xbc2b5410	-0.010457054
122	0x3d519785	0.05116989
123	0xb6d7ac40	-6.427552e-06
124	0xbcec518b	-0.028847476
125	0x3b858c88	0.0040755905
126	0x36b40e7b	5.366104e-06
127	0xb5b5056f	-1.3487132e-06
128	0xbaa2c52d	-0.0012418382
129	0xbb55d994	-0.0032630907
130	0x3a878216	0.0010338451
131	0xb7e5909d	-2.7366268e-05
132	0x37bcd9d3	2.2512779e-05
133	0xbbcc4246	-0.0062334863
134	0x3b8b3cf4	0.0042492095
135	0x38a03814	7.63984e-05
136	0xb526de6c	-6.2163485e-07
137	0x3b14d62c	0.0022710664
138	0x3b801046	0.00390819
139	0x3c084d38	0.008319192
140	0x36ee1e36	7.0964697e-06
141	0x3b11cd5f	0.0022247655
142	0xbb5479f0	-0.0032421313
143	0xb97e5a32	-0.00024256928
144	0xb97e6faa	-0.00024264926
145	0x3b1df272	0.0024100807
146	0xb902dd4a	-0.00012480203
147	0xb73061ac	-1.05131585e-05
148	0x3759a58c	1.2972752e-05
149	0xbaaef7f9	-0.0013349048
150	0x3aa865e6	0.0012847751
151	0xba304c4b	-0.0006725236
152	0x3c015415	0.007893582
153	0xbb66b77f	-0.0035204587
154	0xbb938d78	-0.0045029484
155	0x3a411bc3	0.00073665025
156	0xbb79b5ca	-0.003810274
157	0x3b846342	0.0040401528
158	0xbb85427f	-0.004066765
159	0x3b9ab0db	0.00472079
160	0x37139215	8.795895e-06
161	0xb7a5faf3	-1.978639e-05
162	0xb8b7ceec	-8.764662e-05
163	0xb923ca5e	-0.00015620279
164	0xb934cc79	-0.0001724231
165	0xbc23278a	-0.009958157
166	0xb6868f1c	-4.0101713e-06
167	0xb6684d8f	-3.461584e-06
168	0xbafe74d2	-0.0019413477
169	0x3b493617	0.0030702406
170	0x38b633f8	8.688116e-05
171	0x3aa6aa10	0.0012715477
172	0xb9e50123	-0.0004367913
173	0x37d9621f	2.5914107e-05
174	0x36cc4837	6.0880807e-06
175	0xb78b3d01	-1.6598498e-05
176	0x378210e2	1.550507e-05
177	0xb8ee3b1e	-0.00011359736
178	0x3b158d77	0.0022819915
179	0xb950ab02	-0.00019900131
180	0xbbff384c	-0.0077886935
181	0xb6b674fd	-5.437642e-06
182	0xbb20d2de	-0.002453975
183	0x3a54bc16	0.0008115185
184	0x3bcd568c	0.0062664207
185	0x39d56bfb	0.00040706978
186	0xbc0351ca	-0.0080151055
187	0xb7663603	-1.3721644e-05
188	0x3b766e4c	0.0037602363
189	0xba5ac035	-0.0008344681
190	0x36c99886	6.008023e-06
191	0xb735ddf7	-1.0840121e-05
192	0xbd269fb9	-0.040679667
193	0x3d060b65	0.03272571
194	0xbdc88d26	-0.09792547
195	0x3c829d7c	0.015944235
196	0x38209e96	3.8294667e-05
197	0x3d4f882e	0.05066698
198	0xbc6ebc2f	-0.014571234
199	0xba099aff	-0.00052492315
200	0x37dc9c75	2.62989e-05
201	0x3c7c05d7	0.015382252
202	0xbcc15e4b	-0.023604533
203	0x3ce7a410	0.028276473
204	0xb859c6b2	-5.192188e-05
205	0x39143de0	0.0001413743
206	0x3bd55082	0.0065098414
207	0x3c3f4a8c	0.011675488
208	0x3a5d4c89	0.00084418856
209	0x3cad9e48	0.021193638
210	0x3ab1d071	0.0013566149
211	0x3819dd52	3.6684163e-05
212	0xb7898aac	-1.6396247e-05
213	0x3d095043	0.03352381
214	0xbbe3b51f	-0.0069490816
215	0x3e001ad3	0.12510233
216	0x3b680d44	0.0035408298
217	0x3b39ff22	0.002838083
218	0xbd5a0d2c	-0.053235218
219	0xbbd37540	-0.0064531863
220	0xbacb8626	-0.001552765
221	0xbcefe2ea	-0.029283006
222	0x3c41169a	0.011785174
223	0x3d5c917d	0.053849686
224	0x3720a853	9.575934e-06
225	0x38c1b39e	9.2364135e-05
226	0x38878224	6.461542e-05
227	0xb6956892	-4.4527196e-06
228	0x38b355a3	8.551336e-05
229	0x3be2e224	0.0069239307
230	0xb660fd90	-3.3526194e-06
231	0x36a3a51c	4.877e-06
232	0x3e498a17	0.19681583
233	0x3c827b37	0.015927894
234	0xbb5805b8	-0.0032962393
235	0x3d9a9ceb	0.07549461
236	0x3972b527	0.00023146403
237	0x38079fe6	3.2335425e-05
238	0xb76c7bf6	-1.4095558e-05
239	0xb75dbd07	-1.3216638e-05
240	0xb92c8669	-0.0001645327
241	0x38a2b3f0	7.758278e-05
242	0xbdd65991	-0.10466302
243	0x39d197c8	0.00039976672
244	0xbdf50d40	-0.11965418
245	0x37284f58	1.0032054e-05
246	0xbe3cd097	-0.18438946
247	0x3b84210c	0.00403226
248	0xbec99296	-0.3936965
249	0x3df2ce13	0.11855712
250	0x3e42bc73	0.190172
251	0x37027490	7.775743e-06
252	0xbd7c4d48	-0.06159714
253	0x3ad66717	0.0016357627
254	0x378e24d6	1.6944872e-05
255	0xb6cb08a2	-6.0508764e-06

module.transformer.blocks.0.attn.proj.weight f4 [64, 64]
0	0x3d62c955	0.055367786
1	0xbcba919e	-0.022774514
2	0x3d135bb6	0.035976134
3	0xbcc61904	-0.02418185
4	0x3ce4dde8	0.027937844
5	0x3cfa539b	0.030557444
6	0x3c5bf8f5	0.013426055
7	0x38085936	3.250801e-05
8	0x3daf14ad	0.085488655
9	0xbbe66f91	-0.0070323427
10	0xbd468f35	-0.048476417
11	0x3c457d32	0.012053775
12	0x3daf40d3	0.08557286
13	0x3d975697	0.073895626
14	0xbdaeb9f3	-0.08531561
15	0x3ba87249	0.005140577
16	0xbc0a51f4	-0.008442391
17	0x3c2400ae	0.010009928
18	0x3d4abdd3	0.049497437
19	0xb9ee2d6a	-0.00045428734
20	0xbb576e68	-0.0032872204
21	0xbcba089f	-0.022709189
22	0xbcc09d2f	-0.023512451
23	0x3d01974c	0.03163843
24	0x3c01f566	0.007932043
25	0xb8981df3	-7.253503e-05
26	0x3da5221a	0.08063145
27	0x3a1f4834	0.0006076128
28	0x3b9ac890	0.004723616
29	0x3d8107ee	0.063003406
30	0xbb9790c8	-0.0046254136
31	0x3da1f1bf	0.079074375
32	0xbac61b63	-0.0015114363
33	0x3b66156e	0.0035107988
34	0xbd9167de	-0.07099889
35	0x3b961f08	0.004581336
36	0xba91a3b4	-0.0011111409
37	0x3cbea8cb	0.023273846
38	0xbab9b7f3	-0.0014169201
39	0xbc8b9faf	-0.017043917
40	0xbcf2c18c	-0.029633306
41	0xbcb2411b	-0.02175956
42	0xba83f230	-0.0010066684
43	0x3c979c85	0.018507252
44	0xbb4ba697	-0.0031074637
45	0xbd25fe82	-0.04052592
46	0x3a115654	0.0005544175
47	0x3d50a161	0.050935153
48	0xbb04f859	-0.0020289628
49	0x3d016646	0.031591676
50	0xbc69bb2d	-0.014265818
51	0xbcc673ce	-0.024225142
52	0x3d7c5ba7	0.061610844
53	0xbce30ce1	-0.027716102
54	0x3c60c22e	0.013718171
55	0x3aedc939	0.0018141634
56	0x3c5c46dd	0.0134446295
57	0x3c2cfa67	0.010557747
58	0xbd01e844	-0.031715646
59	0x3c358b30	0.011080548
60	0x3b9b8e3e	0.004747181
61	0x3b93a86e	0.0045061624
62	0x3b4918f7	0.0030685046
63	0xbc9b2616	-0.01893906
64	0x3e30f469	0.17280735
65	0x3bd98814	0.006638536
66	0x3d3e12c2	0.046404608
67	0x3bb0fac6	0.0054009883
68	0xbd6d6587	-0.057958152
69	0x3e028255	0.1274503
70	0x3b1362be	0.0022489275
71	0x3aaf6300	0.0013380945
72	0x3d0427a8	0.03226438
73	0xb9a56f51	-0.0003155419
74	0xbc89728c	-0.016778253
75	0x391a32d6	0.00014705522
76	0x3dd29dd9	0.10284013
77	0xbe1bad5c	-0.1520285
78	0xbbbf4630	-0.0058372244
79	0x3d4fa30a	0.050692596
80	0x3c022b7d	0.007944939
81	0xbbee667e	-0.0072754016
82	0x3cfe95a0	0.031077206
83	0xbab1b494	-0.0013557845
84	0x3b2a3cfb	0.0025976289
85	0x3c8e6063	0.017379945
86	0xbdaf11c0	-0.085483074
87	0xbe351015	-0.17681916
88	0x3d412d9c	0.047162637
89	0x3c473b0e	0.012160076
90	0xbec39c57	-0.38205215
91	0x3c214d92	0.009845154
92	0xbb2b136e	-0.002610411
93	0xbe4a31da	-0.1974558
94	0x3b4d9ef3	0.0031375259
95	0xbe8fb9f0	-0.28071547
96	0x3b40b73b	0.002940609
97	0x3b05acca	0.002039718
98	0xbe8432a6	-0.25819892
99	0x3bbe864b	0.005814349
100	0xbcb86403	-0.022508627
101	0x3e514fde	0.20440623
102	0xbb11854b	-0.0022204693
103	0xbcc5aaf8	-0.024129376
104	0x3da80d45	0.08205656
105	0xbe7b914b	-0.24567144
106	0x3b2b6eb2	0.002615851
107	0xbea260d6	-0.31714505
108	0xbb6e9c25	-0.0036408987
109	0x3e515c10	0.20445275
110	0x3b1e68fb	0.002417146
111	0x3eacbb08	0.33736444
112	0x3b1cd9b3	0.002393347
113	0x3e44cd8d	0.19219036
114	0xbe9181a6	-0.28419226
115	0xbd729341	-0.059222464
116	0x3e5b503f	0.2141733
117	0x3e94d375	0.2906758
118	0xbe68e178	-0.2274226
119	0xba8b3d21	-0.0010623076
120	0xbdbc221c	-0.09186193
121	0x3d5371d8	0.05162224
122	0xbdeaa19f	-0.11456608
123	0xbb3cabb6	-0.002878887
124	0xbc058d7f	-0.008151411
125	0xbe0f2985	-0.13980682
126	0x3a873fa9	0.0010318655
127	0xbe483a1c	-0.19553417
128	0x3cf6a1af	0.030106394
129	0xb9d0d277	-0.0003982966
130	0x3cc8bcb3	0.024504041
131	0xb8c548b5	-9.407235e-05
132	0x3d2b7384	0.04185821
133	0x3d00032f	0.031253036
134	0x3d05a021	0.032623414
135	0xba32ae58	-0.00068161404
136	0xbd9256cf	-0.07145464
137	0xbac23d3e	-0.0014819277
138	0x3ce65cdb	0.028120449
139	0x3bd218cb	0.006411647
140	0xbd5f4740	-0.05451131
141	0xbbab3d12	-0.005225786
142	0x3d2a07f5	0.041511495
143	0xbcbb7a05	-0.022885332
144	0x3c2f0936	0.010683348
145	0xbaf35c50	-0.001856694
146	0xbd813498	-0.063088596
147	0xbc117718	-0.008878492
148	0x3b4c5d37	0.003118349
149	0xba3260b0	-0.00068045687
150	0x3c7f56e7	0.015584684
151	0xbcb1366a	-0.021632392
152	0x3ce575ea	0.028010327
153	0x3bc04d37	0.0058685797
154	0xbb42cc86	-0.0029723956
155	0xb8eea161	-0.000113787835
156	0xbb408770	-0.0029377602
157	0x3be18ddd	0.0068833665
158	0x3b5208a1	0.00320486
159	0xbb9a77c0	-0.0047139823
160	0x3bbfde7c	0.0058553796
161	0x3b72cc0a	0.0037047886
162	0xbd979954	-0.07402292
163	0x3bdf975b	0.006823463
164	0xbd5a08a8	-0.05323091
165	0x3cc98bb1	0.024602743
166	0xbb9f2671	-0.0048568775
167	0x3d579c2b	0.052639168
168	0x3d711370	0.058856428
169	0x3c7a794d	0.015287709
170	0xbbbcccd8	-0.005761724
171	0xbcd40235	-0.025879959
172	0xbba08c11	-0.0048995097
173	0x3cbf492f	0.023350326
174	0xbbe7fff3	-0.007080072
175	0xbd67564b	-0.05647878
176	0x3c1b64f2	0.009484516
177	0xbd2f88e4	-0.04285516
178	0x3ca28356	0.019838016
179	0x3d4aa44e	0.0494731
180	0xbc087181	-0.008327843
181	0xbd5ecf10	-0.05439669
182	0xbc193ba4	-0.009352598
183	0xbb1bcf6c	-0.0023774756
184	0x3c827a6d	0.015927518
185	0x3c30e7d9	0.010797464
186	0x3bf8e4f3	0.0075956522
187	0xbbdde8c9	-0.006772135
188	0x3d446d7a	0.047955967
189	0x3d214b0d	0.039378215
190	0x3b41f121	0.0029593187
191	0x3d84507e	0.06460665
192	0xbddb2492	-0.107003346
193	0x3bdaf57c	0.006682096
194	0xbd4df095	-0.050278265
195	0x3bdf781f	0.0068197395
196	0xbc9213fd	-0.017831797
197	0xbde4a4c7	-0.11164241
198	0xbcf125a8	-0.029436901
199	0xb826fba8	-3.9811857e-05
200	0x3c196ea0	0.009364754
201	0xbb000b84	-0.0019538114
202	0x3da500ff	0.080568306
203	0xb9a34b79	-0.00031146014
204	0xbd6ee3fd	-0.058322895
205	0x3c80e5be	0.01573455
206	0x3d404226	0.046938084
207	0xbd28c6ee	-0.04120534
208	0x3aff52e6	0.0019479662
209	0xbba36e63	-0.0049875244
210	0xbc99a9fb	-0.01875781
211	0xbbbe5100	-0.005807996
212	0x3bac2cb7	0.005254354
213	0x3b88eb6b	0.0041784546
214	0x3c60b505	0.013715033
215	0x3c9300ce	0.01794472
216	0xbc9872bc	-0.018609397
217	0xba4ec1b5	-0.0007887141
218	0x3cee50a3	0.029091185
219	0xbb753535	-0.0037415747
220	0xbb95b29b	-0.0045684106
221	0x3abdbff8	0.0014476767
222	0x3b92a31a	0.0044750096
223	0x3c4dffab	0.012573163
224	0xbb0cd5f5	-0.0021489833
225	0xbaa750e0	-0.0012765191
226	0x3cb39fd8	0.021926805
227	0xb8f2ccba	-0.000115775925
228	0xbce54499	-0.027986811
229	0x3d016baa	0.031596817
230	0xba5b09ef	-0.0008355667
231	0x3ced355d	0.02895611
232	0x3d2aae9e	0.041670434
233	0x3df9dc5b	0.122002326
234	0xbadfbb62	-0.0017069394
235	0x3c653b1c	0.013991144
236	0xba4910a7	-0.0007670023
237	0xbcb974fa	-0.022638787
238	0xbb14a9dc	-0.0022684252
239	0xbdeecac7	-0.116597705
240	0x3a29f752	0.0006483692
241	0xbb45319c	-0.0030089384
242	0x3d5d7503	0.05406667
243	0xbc8c2ac1	-0.01711023
244	0xb968eed6	-0.00022214217
245	0xbd9c2312	-0.07623877
246	0x3c838042	0.016052369
247	0x398acd43	0.00026474343
248	0xbca87dfe	-0.02056789
249	0xbd229349	-0.039691243
250	0xbcba7d7e	-0.022764917
251	0xbac9c825	-0.0015394731
252	0xbde86af1	-0.113485225
253	0x3b0ecc62	0.0021789302
254	0x3b29b51f	0.002589531
255	0x3a60e628	0.0008579218

module.transformer.blocks.0.attn.proj.bias f4 [64]
0	0xbcf141fc	-0.02945041
1	0x3e581ed1	0.21105506
2	0x3b10a855	0.002207299
3	0x3d59c600	0.053167343
4	0x3b69cda4	0.003567555
5	0x3d869b56	0.06572597
6	0x3d39b0b4	0.045334533
7	0xbd914a73	-0.07094278
8	0x3c43115c	0.011905994
9	0xbdc090c1	-0.094026096
10	0xbd41d3c4	-0.047321096
11	0x3c2b1ba2	0.0104436
12	0x3c0d8131	0.008636759
13	0x3d02848a	0.03186468
14	0xbe0ff209	-0.14057173
15	0x3bc37caf	0.005965791
16	0xbc33bd5c	-0.01097044
17	0xbc89871f	-0.016788064
18	0x3cb45d92	0.022017274
19	0x3caddc69	0.021223264
20	0x3c196974	0.009363521
21	0x3c4d0763	0.012513968
22	0x3ccddb95	0.025129119
23	0x3e1a9a77	0.15097986
24	0xbdcf0814	-0.10108963
25	0xbc1cf0ed	-0.009578926
26	0xbd635366	-0.055499457
27	0x3b497d4b	0.0030744846
28	0xbc098d00	-0.008395433
29	0x3943bc54	0.00018666807
30	0x3c526143	0.012840572
31	0x3c98e792	0.018665109
32	0xbce54e7f	-0.027991531
33	0x3ba220c7	0.004947755
34	0x3cb00e55	0.021491209
35	0x3c89d2eb	0.016824206
36	0x3ac140d2	0.0014744049
37	0xbba286fc	-0.004959939
38	0x3b8d7ab8	0.0043176077
39	0x3bb7341d	0.005590929
40	0x3d88d23c	0.06680724
41	0x3d5a5210	0.053300917
42	0x3d2d256f	0.042272028
43	0xbd060e09	-0.03272823
44	0x3c6e8592	0.014558213
45	0xbd9c52a9	-0.07632954
46	0x3d986bc2	0.07442428
47	0x3c05f5c8	0.008176275
48	0x3ce0600b	0.027389547
49	0x3d5b24ed	0.053502012
50	0x3cd03151	0.02541414
51	0xbbb7ff95	-0.0056151845
52	0xbc89ec24	-0.016836233
53	0xbb44e9b7	-0.0030046531
54	0xbd939aab	-0.07207235
55	0x3d0dfa81	0.034662727
56	0xbd81d3aa	-0.063392
57	0xbe933958	-0.28754687
58	0x3b759bed	0.0037476972
59	0x3d211140	0.03932309
60	0x3dce3238	0.10068172
61	0xbd232c57	-0.039837208
62	0xbda334e6	-0.07969074
63	0x3d81df1e	0.06341384

module.transformer.blocks.0.norm2.weight f4 [64]
0	0xba9988d1	-0.0011713748
1	0xbb8b6b00	-0.0042546988
2	0xb0d66942	-1.5600465e-09
3	0xac21a0b0	-2.2968676e-12
4	0x197a4252	1.293809e-23
5	0xa006e9a3	-1.1427545e-19
6	0xbc8e6bf8	-0.017385468
7	0x39a798b4	0.00031966495
8	0x2914bbf6	3.302563e-14
9	0x3b595d72	0.003316727
10	0xb5df0c63	-1.66184e-06
11	0x3c8ca4a6	0.017168354
12	0x2121ea89	5.4859326e-19
13	0x97817f4e	-8.368566e-25
14	0xafba3c7c	-3.387618e-10
15	0x3c549ba3	0.01297656
16	0x277657aa	3.418688e-15
17	0x90849251	-5.2290256e-29
18	0xb697d030	-4.524387e-06
19	0xa8ae3711	-1.9341762e-14
20	0x11931f17	2.3211671e-28
21	0x322c38fd	1.0024675e-08
22	0x278a51d2	3.8391404e-15
23	0x1ff06cbb	1.0182383e-19
24	0xbae7ad0d	-0.0017675475
25	0x1299a84c	9.697146e-28
26	0xaf0f1910	-1.3014678e-10
27	0x3311ec29	3.397523e-08
28	0xb18bcf4e	-4.0690002e-09
29	0x3b0804b1	0.002075475
30	0x3bbb1a0c	0.005709892
31	0xa81a5031	-8.566106e-15
32	0x952f434d	-3.539406e-26
33	0x9db02329	-4.6623167e-21
34	0xafd8374e	-3.9329467e-10
35	0x9a5a8bb8	-4.5194207e-23
36	0x39fdfe96	0.00048445602
37	0x184ba9e8	2.6322916e-24
38	0x32a2bfe0	1.8946537e-08
39	0xb0981653	-1.10658e-09
40	0xb1c90a86	-5.8510663e-09
41	0x3441313b	1.7992436e-07
42	0x3b7689ed	0.0037618831
43	0xbc12cf39	-0.008960539
44	0xb2c78773	-2.3228244e-08
45	0x3c49c40f	0.01231481
46	0xba99a5e1	-0.0011722409
47	0x1fcdc94c	8.7153895e-20
48	0xbba2d0cf	-0.0049687396
49	0xaf1f2335	-1.4473474e-10
50	0xbc27a7b4	-0.010232855
51	0x23974e9a	1.6404742e-17
52	0xa52674d8	-1.4437793e-16
53	0x169ab3f1	2.49936e-25
54	0x9a33e169	-3.7198417e-23
55	0xb0a0514e	-1.166464e-09
56	0x235009bb	1.1277763e-17
57	0xbb26227c	-0.0025350144
58	0xb9d418b7	-0.00040454205
59	0xb44344e3	-1.8185851e-07
60	0x3cabb63d	0.020960921
61	0x2c83212f	3.726928e-12
62	0xbb33df88	-0.0027446467
63	0xae2963f3	-3.8514924e-11

module.transformer.blocks.0.norm2.bias f4 [64]
0	0x3c19b0ab	0.0093805
1	0x3b8ea38f	0.004352994
2	0xb04c9960	-7.4432727e-10
3	0xab85da81	-9.510865e-13
4	0x982371ae	-2.112465e-24
5	0x9f989f46	-6.4638e-20
6	0xbc733b50	-0.014845684
7	0xb90246dc	-0.00012424163
8	0x2814af78	8.253699e-15
9	0x3bd75702	0.0065716514
10	0x35d5988c	1.5914134e-06
11	0xbc3e2664	-0.011605833
12	0xa0d148ee	-3.5454238e-19
13	0x97d89d0d	-1.3998318e-24
14	0xb1dafc5f	-6.3733263e-09
15	0x3c3290e5	0.010898803
16	0xa70d7a8e	-1.9634118e-15
17	0x9113eafa	-1.1668663e-28
18	0xb672706d	-3.612625e-06
19	0x2b6c0214	8.3846927e-13
20	0x90b97fdd	-7.316664e-29
21	0x302edc57	6.3613953e-10
22	0x26a52cb6	1.1461294e-15
23	0xa1a0f3f3	-1.0906595e-18
24	0xbb446878	-0.0029969495
25	0x91e494af	-3.606369e-28
26	0xb019918e	-5.586792e-10
27	0xb2a6b2cc	-1.940625e-08
28	0x315314bc	3.0716327e-09
29	0x3b5003be	0.0031740512
30	0xbc89f1d5	-0.016838947
31	0xa728520d	-2.3359163e-15
32	0x134ec2cb	2.6096896e-27
33	0x1f44dc9e	4.1687105e-20
34	0xae557195	-4.8531474e-11
35	0x99c99037	-2.0841161e-23
36	0x3946e4a1	0.00018967922
37	0x98a9c54c	-4.3884695e-24
38	0xb1cd3661	-5.9724674e-09
39	0xafc9c418	-3.670102e-10
40	0xb0c59843	-1.4376912e-09
41	0x3616849b	2.2428928e-06
42	0x3ae1ba9e	0.0017221754
43	0x3bbd50a7	0.005777437
44	0xb2d6ebbf	-2.5020084e-08
45	0x38d41fb1	0.00010114851
46	0x3b1a9c96	0.0023591868
47	0x1f1c8940	3.3147815e-20
48	0xbade7b18	-0.0016973941
49	0x2e96db78	6.860196e-11
50	0x3c43184b	0.011907647
51	0xa44affb1	-4.4018347e-17
52	0xa591a224	-2.526336e-16
53	0x165f49cd	1.8037084e-25
54	0x9837f7ef	-2.377737e-24
55	0xb2aef960	-2.0369669e-08
56	0x21cd2494	1.3901022e-18
57	0xba4bed11	-0.0007779161
58	0x3958fdf7	0.00020693975
59	0xb3f4916e	-1.1388589e-07
60	0x3b9a808d	0.0047150315
61	0x2eeb4c38	1.0700102e-10
62	0x3b0dbda8	0.0021627937
63	0xadc4d518	-2.2377253e-11

module.transformer.blocks.0.mlp.fc1.weight f4 [128, 64]
0	0x3a22c511	0.0006209175
1	0xbaa19366	-0.0012327253
2	0xaf3a293e	-1.6931254e-10
3	0xa95caee5	-4.900151e-14
4	0x9827c2f5	-2.1682672e-24
5	0x9e2f51e9	-9.2813615e-21
6	0x384bcfb7	4.859242e-05
7	0xb7a8fcad	-2.0144822e-05
8	0x26649cba	7.9315795e-16
9	0x3957cc56	0.00020580119
10	0x34192273	1.4261768e-07
11	0xba1dcb99	-0.0006019413
12	0xa040a1eb	-1.6316607e-19
13	0x9625ecb6	-1.3403287e-25
14	0xadaf58ac	-1.9934575e-11
15	0x398f091f	0.0002728188
16	0xa4813353	-5.603178e-17
17	0x8fa2bf96	-1.604823e-29
18	0xb4decb11	-4.1498473e-07
19	0x295d7915	4.917688e-14
20	0x9006421d	-2.6477772e-29
21	0x30ecdc77	1.723392e-09
22	0x248c4efa	6.084911e-17
23	0xa0003204	-1.085857e-19
24	0x39063e13	0.0001280236
25	0x90817b13	-5.1071154e-29
26	0x2b8d33c2	1.0033018e-12
27	0xb10a09e0	-2.0087256e-09
28	0x2e2d3fc0	3.9392267e-11
29	0x39a92a18	0.00032265554
30	0x395c1a65	0.00020990668
31	0xa65616b4	-7.4276933e-16
32	0x1376b686	3.1139556e-27
33	0x9e2b03fe	-9.05349e-21
34	0xab92b896	-1.0425157e-12
35	0x9925b097	-8.565962e-24
36	0x38b8d031	8.8125824e-05
37	0x977f9312	-8.2580573e-25
38	0xb1119e45	-2.1190243e-09
39	0xae242e11	-3.7330198e-11
40	0xaff7f0e7	-4.510021e-10
41	0x34851a10	2.4792143e-07
42	0xb9b897a6	-0.00035208202
43	0x39eb3c94	0.00044867827
44	0xb195ef9c	-4.363711e-09
45	0x3a15f01c	0.0005719678
46	0xb8e3f20c	-0.00010869288
47	0x1bccfd8b	3.3912817e-22
48	0xba580962	-0.0008241144
49	0x2d903fa7	1.6399172e-11
50	0xbb4d820f	-0.0031358039
51	0xa31c7d6b	-8.483335e-18
52	0xa4187bfb	-3.306476e-17
53	0x158ef7b4	5.774415e-26
54	0x17917d54	9.402043e-25
55	0xb1ab625f	-4.9879385e-09
56	0x206ee362	2.0234619e-19
57	0x3a2b372f	0.00065313553
58	0x38d26dc2	0.00010034024
59	0xb1b39add	-5.2271916e-09
60	0xbafe4252	-0.0019398427
61	0x2d87d77a	1.5443414e-11
62	0x39ee163f	0.00045411472
63	0xad548cd9	-1.2082079e-11
64	0xb9f1c02f	-0.0004611029
65	0xb9a48b04	-0.00031384092
66	0x2c2a8ee3	2.423777e-12
67	0x292aca4e	3.7923054e-14
68	0x16b9dd6a	3.0028094e-25
69	0x1cb56792	1.2004348e-21
70	0x3a6f76b1	0.0009134813
71	0x37436849	1.16471865e-05
72	0xa52ff684	-1.5262353e-16
73	0xb926f094	-0.00015920616
74	0xb30cd0d7	-3.278623e-08
75	0xb9264d45	-0.00015859779
76	0x1d9482d0	3.931053e-21
77	0x947ad738	-1.2664219e-26
78	0xae29bf68	-3.8596154e-11
79	0xb9fb1c11	-0.00047895362
80	0xa397ffa5	-1.6479722e-17
81	0x8d5644ea	-6.6026794e-31
82	0xb3f10edb	-1.1225139e-07
83	0xa84ac2aa	-1.1255464e-14
84	0x0e308a07	2.1760133e-30
85	0xaf67a50d	-2.1067965e-10
86	0xa4ca3d6e	-8.77076e-17
87	0x9d3a798c	-2.4679733e-21
88	0x381ab75d	3.688723e-05
89	0x0e86eb65	3.3260227e-30
90	0x2c972502	4.295787e-12
91	0xafe8d9bb	-4.235526e-10
92	0x2e2530b8	3.7559927e-11
93	0x37c3f37b	2.335919e-05
94	0xb9158d63	-0.00014262418
95	0x256d3856	2.057556e-16
96	0x929c71f5	-9.873077e-28
97	0x1ab55dc4	7.501133e-23
98	0x2c6f8930	3.4040097e-12
99	0x15e3718d	9.186372e-26
100	0x38a576c3	7.889934e-05
101	0x158b6ed4	5.631651e-26
102	0xae854cc3	-6.0617754e-11
103	0x2d54b7a7	1.2091584e-11
104	0xb02e20d0	-6.334746e-10
105	0x324dd825	1.1981716e-08
106	0x38c9d68b	9.6243886e-05
107	0x3a2bda57	0.00065556675
108	0xaec5ca7a	-8.99449e-11
109	0x39fae5bb	0.00047854878
110	0xb8063826	-3.2000382e-05
111	0x9c30f837	-5.8554325e-22
112	0xb92b73b2	-0.0001635093
113	0x2b815ce1	9.19178e-13
114	0xbaa427b6	-0.0012524042
115	0x1f447448	4.16008e-20
116	0x217f63d3	8.6529477e-19
117	0x91145a61	-1.1702992e-28
118	0x9712c586	-4.7424454e-25
119	0xaeddfe48	-1.0095086e-10
120	0x211c4126	5.294108e-19
121	0xb76b656c	-1.4030706e-05
122	0x36a1c99a	4.8216434e-06
123	0x314cefbd	2.9822183e-09
124	0x398fcdee	0.00027428515
125	0x28385414	1.0232283e-14
126	0xb8eb5482	-0.00011221414
127	0x2ac62948	3.520051e-13
128	0x3ae1ddd6	0.001723225
129	0xba00c3eb	-0.00049120066
130	0x2f4838f5	1.8210129e-10
131	0x298fdd4d	6.388865e-14
132	0x18308618	2.2815167e-24
133	0x1e8f98f3	1.5203972e-20
134	0xbb91fc48	-0.004455123
135	0x38178ca3	3.6132184e-05
136	0x2754fa1c	2.9556495e-15
137	0x38421698	4.6274246e-05
138	0xb4ddc606	-4.130854e-07
139	0xbaf0239d	-0.001832116
140	0x209a7ba6	2.6170438e-19
141	0x140c2d90	7.077179e-27
142	0x2f839fe2	2.3942365e-10
143	0x3b34ab10	0.0027567782
144	0xa43500a0	-3.9248648e-17
145	0x0ea36ea3	4.028914e-30
146	0xb42f2246	-1.6310614e-07
147	0x2a889fb9	2.4269283e-13
148	0x103a8df5	3.6791392e-29
149	0xb165dd9b	-3.3449854e-09
150	0xa58e06ba	-2.4637631e-16
151	0x1f054cc6	2.822735e-20
152	0x3a7ff5d7	0.0009764111
153	0x10b80329	7.258007e-29
154	0xadd3eaef	-2.4092254e-11
155	0xb1398f71	-2.700258e-09
156	0x2ec9c9f9	9.176299e-11
157	0xb9a64566	-0.00031713693
158	0x3aad46d4	0.0013219961
159	0x241694e2	3.2652174e-17
160	0x94472f5f	-1.0056275e-26
161	0x1f076ecf	2.867902e-20
162	0xaeb769a4	-8.340642e-11
163	0x192309eb	8.4289054e-24
164	0x380429f9	3.1510343e-05
165	0x173760de	5.9252753e-25
166	0xb13d9d56	-2.7592555e-09
167	0xaf784ba6	-2.2582344e-10
168	0xaf5c8d9f	-2.0059197e-10
169	0xb2c6b32a	-2.3131708e-08
170	0xb98c4a56	-0.00026758265
171	0x3b1169ef	0.0022188385
172	0xb1f83d9d	-7.2247546e-09
173	0xbb5a718f	-0.0033331846
174	0x3a6bb2b2	0.0008991166
175	0x1e58e9c5	1.1483287e-20
176	0xb8d71eba	-0.00010257722
177	0xae0d518a	-3.213211e-11
178	0x3b386e69	0.0028141981
179	0xa3cec829	-2.2419336e-17
180	0xa3ad0572	-1.8759004e-17
181	0x95bf810a	-7.7347873e-26
182	0x9969b64a	-1.2082631e-23
183	0xb1e12c92	-6.553429e-09
184	0x21546509	7.1962113e-19
185	0xbac6af0d	-0.001515837
186	0x3834f974	4.3147666e-05
187	0xb140aa78	-2.8036578e-09
188	0x3b767286	0.0037604882
189	0x2cef914f	6.808921e-12
190	0x39fdcb98	0.0004840761
191	0xada8b0d9	-1.9177925e-11
192	0x3924f89e	0.00015732876
193	0xb759f854	-1.2992026e-05
194	0xae771fb0	-5.6189442e-11
195	0xa9994504	-6.806537e-14
196	0x97a2b4c6	-1.0514638e-24
197	0x9e084000	-7.213015e-21
198	0xbaac6975	-0.0013153987
199	0xb6e0331e	-6.681671e-06
200	0x26bd6009	1.314054e-15
201	0x38e81d85	0.000110681205
202	0x3382152d	6.0574486e-08
203	0xbab3a115	-0.0013704622
204	0x9ec95007	-2.1314801e-20
205	0x96158717	-1.2078751e-25
206	0xaeccba4d	-9.3099396e-11
207	0x3a4c75e9	0.00077995524
208	0xa35b62e0	-1.1892951e-17
209	0x8f0adc79	-6.846387e-30
210	0x341cccbb	1.4603113e-07
211	0x293a4c24	4.1366338e-14
212	0x8e865e0b	-3.312411e-30
213	0x2f8b9df5	2.5396188e-10
214	0x247fd303	5.5473045e-17
215	0x9ece5c97	-2.1849393e-20
216	0xb8f3ee55	-0.00011631536
217	0x90ad9c30	-6.8477113e-29
218	0xad9bbd7a	-1.7705604e-11
219	0xb140e6a1	-2.8070775e-09
220	0x2e7b232e	5.710204e-11
221	0x37b69cda	2.176913e-05
222	0xb98e2f28	-0.00027119485
223	0xa4ccab59	-8.876117e-17
224	0x132cdf07	2.1819413e-27
225	0x1ccd0fc1	1.3569834e-21
226	0xac1ac0b9	-2.1991699e-12
227	0x17b60250	1.1762058e-24
228	0xb8904dc4	-6.88094e-05
229	0x9633d50d	-1.4526732e-25
230	0xb08b283e	-1.0125019e-09
231	0xacf0513c	-6.830229e-12
232	0xaf0530eb	-1.2113659e-10
233	0x33dc3e84	1.025592e-07
234	0x392c8cc5	0.00016455639
235	0xb914e5b5	-0.00014199952
236	0xb098d185	-1.1119005e-09
237	0x3aba0745	0.001419284
238	0xb91dfa01	-0.0001506582
239	0x1d09b0ca	1.8223197e-21
240	0x39c656e2	0.00037830236
241	0x2d1b97ad	8.844409e-12
242	0x38e9e323	0.00011152613
243	0xa194cd9c	-1.0083294e-18
244	0xa389a7d9	-1.4924656e-17
245	0x91a3bda1	-2.5833733e-28
246	0x1865841a	2.966425e-24
247	0xb0dda770	-1.6127455e-09
248	0x9f1feb65	-3.3864273e-20
249	0x3943aed5	0.00018661779
250	0x394dff46	0.0001964542
251	0x31507dfc	3.0339598e-09
252	0xba82ef4c	-0.0009989529
253	0x2c213596	2.2909222e-12
254	0x389db1b8	7.519446e-05
255	0xabb2b6fd	-1.269845e-12

module.transformer.blocks.0.mlp.fc1.bias f4 [128]
0	0xbafc7835	-0.0019261899
1	0x39145f84	0.00014149962
2	0x3b4d3e5b	0.0031317684
3	0xb96ddf85	-0.00022685349
4	0x39b0bff8	0.00033712364
5	0x3aa5ef4d	0.0012659818
6	0x37e8ff99	2.7775577e-05
7	0x3b5b1af3	0.003343281
8	0x3a97ff30	0.0011596438
9	0xbbf42ae7	-0.0074514034
10	0x38c910b0	9.587535e-05
11	0xbc1678df	-0.009184091
12	0x390ad9e2	0.00013241873
13	0x3883b8ec	6.281011e-05
14	0xbb6e2280	-0.0036336482
15	0x3bce1c7b	0.006290016
16	0xba9f0ff8	-0.0012135496
17	0x3bd1356d	0.0063845427
18	0x3c51615c	0.01277956
19	0x3a916baa	0.0011094708
20	0x3bf18693	0.007370779
21	0x391dcb45	0.0001504841
22	0xb8dce7b6	-0.00010533577
23	0xb96bb17c	-0.00022477465
24	0xbb181fce	-0.0023212316
25	0x3a4c7a87	0.00078002404
26	0xba9f41b7	-0.0012150322
27	0xbaaeaada	-0.0013326064
28	0xbb969ba0	-0.0045961887
29	0x3b7458be	0.003728434
30	0xbb0f6ddc	-0.002188555
31	0xbc0f9fe2	-0.008766146
32	0xb90bd7bd	-0.00013336442
33	0xbbcbcbe1	-0.0062193726
34	0x3c320a9f	0.01086679
35	0xbafa1a4d	-0.0019081325
36	0xbadf3708	-0.001702995
37	0x3a14de8d	0.00056789146
38	0xbab47ab4	-0.0013769479
39	0x3a50ceee	0.0007965405
40	0xbb0cc822	-0.0021481593
41	0x3b01711f	0.0019751263
42	0xbbc7a27c	-0.0060923677
43	0xbb089e4a	-0.00208463
44	0x39f7b1f4	0.00047244097
45	0x3c1c998f	0.009558096
46	0xbc0e8798	-0.00869932
47	0x3b3d4c76	0.0028884686
48	0x3b00e604	0.001966835
49	0x3982c631	0.00024943196
50	0xbc103ac7	-0.008803076
51	0xba7646d9	-0.00093947124
52	0x39ff4617	0.0004868961
53	0xbab9b8c5	-0.0014169445
54	0xba08d722	-0.00052200456
55	0xb8078bb4	-3.2316617e-05
56	0xbacdfe3c	-0.0015716027
57	0x38bc3ccc	8.975863e-05
58	0xb9d53019	-0.0004066236
59	0x3a26f835	0.0006369383
60	0x3aa64cbf	0.0012687667
61	0xbc3711e5	-0.0111737
62	0x3a997350	0.001170734
63	0xb7d270e0	-2.5086512e-05
64	0x3b77c9de	0.0037809531
65	0x3a03e533	0.0005031407
66	0x3b6cb7fb	0.0036120403
67	0x39fdbb4f	0.00048395476
68	0x3c21018a	0.009827027
69	0x3abc7c02	0.0014380219
70	0xb9c66743	-0.0003784244
71	0x3b56a3de	0.003275148
72	0x396d367d	0.0002262238
73	0xbbd6614e	-0.0065423613
74	0xb91833f6	-0.00014515207
75	0x3b17c5c0	0.002315864
76	0xb9a73373	-0.00031891055
77	0x3b29e5b1	0.002592426
78	0x35a60e48	1.237212e-06
79	0xbaf72f55	-0.001885871
80	0x3ab0f20d	0.0013499871
81	0xbab89b8c	-0.0014084443
82	0x39b7f882	0.00035089633
83	0xb8e650bf	-0.00010982295
84	0x3be35c54	0.0069384966
85	0xba9c9001	-0.0011944772
86	0x3c2f22c7	0.010689444
87	0xba20a7de	-0.000612853
88	0x39771d51	0.00023566677
89	0x397be013	0.000240207
90	0xb8a71abc	-7.96816e-05
91	0xba753cc6	-0.0009355064
92	0xbb944d63	-0.004525827
93	0xb95c4837	-0.00021007737
94	0x3bd78a87	0.006577793
95	0xbae49fe1	-0.0017442667
96	0xbc1211a9	-0.008915343
97	0x3a40c51c	0.00073535903
98	0xbab91e66	-0.0014123439
99	0xba080006	-0.0005187992
100	0xbbb8cfcc	-0.0056400057
101	0x39a5cf45	0.0003162568
102	0xba9d8b49	-0.001201966
103	0xbb58105c	-0.0032968735
104	0x3ab04991	0.0013449659
105	0x3ac6893a	0.0015147098
106	0xbb1e696e	-0.0024171728
107	0xb9d82ef0	-0.00041233702
108	0xbad1e353	-0.0016013182
109	0xb9da2234	-0.00041605684
110	0xba977713	-0.0011555873
111	0x3ad82dac	0.0016493103
112	0xbb4bb8cc	-0.003108549
113	0xb9e729ce	-0.000440909
114	0x3b03cda6	0.002011159
115	0x3bd00ef3	0.0063494383
116	0x3898c742	7.2850395e-05
117	0x3b54da84	0.0032478878
118	0x3ae7752a	0.0017658819
119	0xba984715	-0.0011617864
120	0xbc2323c1	-0.009957255
121	0xbb6728fc	-0.0035272231
122	0xbbe2c3d1	-0.006920316
123	0xbbfaa500	-0.007649064
124	0x3b59bc4a	0.0033223801
125	0x3b6008c0	0.0034184903
126	0x3a9631aa	0.0011458893
127	0x3c0f7e3a	0.008758122

module.transformer.blocks.0.mlp.fc2.weight f4 [64, 128]
0	0x3acc4631	0.0015584884
1	0xb8b63991	-8.689159e-05
2	0xbb4a6a1b	-0.0030885998
3	0x39a97426	0.0003232073
4	0xb9d973ec	-0.00041475834
5	0xba87b689	-0.0010354082
6	0x386d7263	5.6611734e-05
7	0xbb114231	-0.0022164697
8	0xba776289	-0.0009436985
9	0x3bb46ed8	0.0055063777
10	0x380179dd	3.086949e-05
11	0x3bd67b26	0.006545442
12	0xb876b47b	-5.8819056e-05
13	0xb9208d89	-0.00015311515
14	0x3b1e3375	0.0024139557
15	0xbb6d7549	-0.0036233237
16	0x3a1d2794	0.00059949723
17	0xbb903e4a	-0.0044019567
18	0xbc089805	-0.0083370255
19	0xba9817c5	-0.0011603764
20	0xbbbfe626	-0.0058562933
21	0xb997f824	-0.00028985844
22	0xb7b0af4d	-2.1062466e-05
23	0x38e0ec78	0.00010725198
24	0x3adcdf80	0.0016851276
25	0xba724599	-0.0009241938
26	0x3a8c6f1d	0.0010714267
27	0x3a8c7acb	0.0010717748
28	0x3b6cdd1d	0.0036142536
29	0xbb26a613	-0.0025428578
30	0x3a57cf8c	0.0008232526
31	0x3bcd36d7	0.006262641
32	0x38776d70	5.899131e-05
33	0x3b8e26db	0.004338128
34	0xbc009bb5	-0.007849623
35	0x3a3f31a2	0.00072934676
36	0x3a997230	0.0011707004
37	0xb9bbfbde	-0.00035855075
38	0x3aaec4aa	0.0013333757
39	0xba24fd1d	-0.00062938203
40	0x3ae8d254	0.0017762878
41	0xbaf0871a	-0.001835081
42	0x3b89cfa5	0.0042056614
43	0x3b00af5a	0.0019635768
44	0xb9e9392c	-0.0004448382
45	0xbbdd1dfd	-0.0067479596
46	0x3bcb963f	0.006212979
47	0xbb102f4c	-0.0022000847
48	0xba3f6630	-0.0007301299
49	0xb9e3880a	-0.0004339817
50	0x3bd3b281	0.0064604883
51	0x39bc68a2	0.00035936112
52	0xb94698f5	-0.00018939732
53	0x3a943033	0.0011305868
54	0x39f63cf9	0.00046966205
55	0xb92d17fd	-0.00016507502
56	0x3ac9b6f0	0.0015389603
57	0xb8dd4cbb	-0.00010552393
58	0x39ac0b36	0.0003281475
59	0xb9e1a529	-0.00043038398
60	0xba87ce9a	-0.0010361255
61	0x3c04b8ad	0.008100671
62	0xba851da2	-0.0010155926
63	0x392d2a7d	0.00016514394
64	0xbb1a2d8f	-0.002352569
65	0xba1f3ac5	-0.0006074126
66	0xbb473ce8	-0.0030401293
67	0xb9dc8b7f	-0.00042065603
68	0xbbeb5aaa	-0.007182439
69	0xba9181e7	-0.0011101336
70	0x39da76cf	0.0004166872
71	0xbb05ab3c	-0.0020396253
72	0xb86ea3dd	-5.689623e-05
73	0x3b84a89c	0.00404842
74	0xb98e57de	-0.00027149817
75	0xbb0a1b0e	-0.0021073255
76	0x399f7015	0.0003041035
77	0xbb029d33	-0.0019930124
78	0xb623cb42	-2.4407204e-06
79	0x3aba23bc	0.0014201324
80	0xba8ba484	-0.0010653888
81	0x3a8ac365	0.0010586797
82	0xb9713c72	-0.00023006069
83	0x38257a90	3.945321e-05
84	0xbb99624e	-0.0046809083
85	0x3a67d96b	0.00088443485
86	0xbbfb53cb	-0.007669901
87	0x3a0b01ec	0.00053027156
88	0xb8a1bdd5	-7.712437e-05
89	0xb9acb830	-0.00032943627
90	0x38b06131	8.410437e-05
91	0x3a66cbef	0.0008804192
92	0x3b558eb2	0.0032586274
93	0xb7d305e9	-2.5155912e-05
94	0xbb5f7c4c	-0.0034101186
95	0x3abb68d9	0.0014298215
96	0x3be5eef9	0.007017013
97	0xba07e945	-0.0005184601
98	0x3a8af2e0	0.0010600947
99	0x39e885eb	0.00044350265
100	0x3b95875e	0.004563256
101	0xb9d470f8	-0.0004051996
102	0x3a8738fa	0.0010316663
103	0x3b234915	0.0024915386
104	0xba8b6a65	-0.0010636566
105	0xbb5557bf	-0.0032553521
106	0x3afed0db	0.0019440906
107	0x3988bdf7	0.00026081476
108	0x3ac50d46	0.0015033863
109	0x39f76bae	0.0004719174
110	0x3a8ac604	0.0010587578
111	0xbaa5a751	-0.0012638365
112	0x3b24ed0b	0.0025165703
113	0x39ca876d	0.00038629342
114	0xbaf269ba	-0.0018494644
115	0xbb94a261	-0.0045359586
116	0x38646ae8	5.4459e-05
117	0xbb1e8cc2	-0.0024192785
118	0xbabb47e3	-0.0014288392
119	0x3a89f3b2	0.0010524897
120	0x3be6183d	0.0070219324
121	0x3b30d74c	0.0026983796
122	0x3bbabb37	0.0056985873
123	0x3baeafce	0.005331016
124	0xbb080596	-0.0020755283
125	0xbb1824f5	-0.0023215387
126	0xba845a87	-0.001009778
127	0xbbc1434b	-0.0058979145
128	0x3ac99a78	0.0015381118
129	0x3a32ed71	0.00068255427
130	0xbacfb79a	-0.0015847564
131	0x385d684c	5.278764e-05
132	0xba6742d2	-0.00088219077
133	0x3b34fd9b	0.002761698
134	0x3a498e4c	0.00076887454
135	0x38ef3db3	0.000114079005
136	0x39e1e61b	0.00043086786
137	0x3c792e67	0.015208817
138	0x3b65181b	0.0034956995
139	0x3c5a2563	0.013314578
140	0x3a7834a0	0.0009468291
141	0x3aaca665	0.0013172148
142	0x3ae975e7	0.0017811627
143	0x3c10fb16	0.008848926
144	0x3aee1755	0.0018164912
145	0xbbf2da8f	-0.007411308
146	0xbc7d9003	-0.01547623
147	0x3a8d0889	0.001075999
148	0xbc806e3b	-0.015677562
149	0xba000f01	-0.0004885048
150	0xbb2e4765	-0.0026592847
151	0xba66ff0b	-0.0008811808
152	0x3b4153e4	0.0029499466
153	0xb953b276	-0.0002018901
154	0xbb2c104f	-0.0026254838
155	0xbb382d40	-0.0028103143
156	0x39cc5933	0.0003897637
157	0xbb9e7004	-0.0048351306
158	0xbb207fcd	-0.0024490238
159	0x3c4dee87	0.012569076
160	0xba772e51	-0.0009429204
161	0x3bebf9d4	0.0072014127
162	0xbc71b959	-0.014753663
163	0xbb05172d	-0.0020308003
164	0x3c211cc5	0.009833519
165	0x3b71bd3e	0.0036886479
166	0x3a8d2359	0.0010767981
167	0xbb2dc476	-0.0026514805
168	0xbb86666d	-0.0041015656
169	0x3b0d50e3	0.0021563105
170	0x3be17812	0.0068807686
171	0xbb25412e	-0.0025215852
172	0x3bec060b	0.007202869
173	0xbc4efb10	-0.0126331
174	0x3c63632a	0.013878623
175	0xbb489ab1	-0.0030609781
176	0x3b034819	0.0020031987
177	0xba3cf036	-0.0007207425
178	0x3c41d15d	0.011829701
179	0xba46fa9b	-0.0007590444
180	0x3968e133	0.00022209137
181	0xbb3a2a7d	-0.0028406673
182	0x3b05d093	0.002041851
183	0x3a315143	0.0006764123
184	0xbb27d91c	-0.0025611585
185	0x39b4cfdf	0.0003448715
186	0xb9c064d7	-0.00036696225
187	0x35a1ed63	1.2064523e-06
188	0x3b35370e	0.0027651223
189	0x3c98e5a9	0.018664198
190	0x3b29840f	0.0025866067
191	0x38833954	6.257245e-05
192	0xbb9fc502	-0.00487578
193	0xba6883e7	-0.00088697526
194	0xbc32c9bf	-0.010912358
195	0xb90e4484	-0.000135677
196	0xbc5a556e	-0.013326032
197	0x3b4bb93d	0.0031085752
198	0xb9035e11	-0.00012528176
199	0x3ae5f2a8	0.0017543631
200	0xb976a904	-0.00023523351
201	0x3c01bdb7	0.007918767
202	0xbb34c6dd	-0.0027584352
203	0x3b7e5ffc	0.0038814535
204	0xba034ac7	-0.0005008396
205	0xbb2fa82b	-0.0026803117
206	0x3654f9db	3.1735897e-06
207	0x3b2b21c0	0.0026112646
208	0x3b408fcf	0.0029382592
209	0xbb299d72	-0.0025881198
210	0x3a2e67a6	0.0006653018
211	0xba802de8	-0.0009779306
212	0xbc0348dd	-0.008012977
213	0x3b524697	0.0032085532
214	0xbc8a53e4	-0.016885705
215	0xb768f588	-1.3885445e-05
216	0x3b4613b1	0.003022414
217	0xb9948dc8	-0.00028334395
218	0x3b45df4b	0.0030192907
219	0xbac6f553	-0.0015179313
220	0x3b999829	0.0046873284
221	0xb95c11a5	-0.00020987408
222	0x3c2943fb	0.010331149
223	0xbb59ee75	-0.0033253704
224	0x3c8ecaaf	0.017430631
225	0xb7933ef0	-1.7553073e-05
226	0xbb28c5ae	-0.0025752592
227	0x398b73eb	0.00026598512
228	0x3bfa40a3	0.0076371
229	0xb9e33954	-0.00043339527
230	0xbb222968	-0.0024743918
231	0x3c40351e	0.011731414
232	0x3b3edb9c	0.0029122597
233	0x3aef1ad0	0.0018242244
234	0x3a9a32a6	0.0011764362
235	0x3bdf1afa	0.006808636
236	0xbababd17	-0.0014247027
237	0x39558782	0.00020363744
238	0xbb27758e	-0.0025552246
239	0x3b673999	0.0035282134
240	0x3b2c8d54	0.0026329355
241	0x3b1aafbc	0.002360328
242	0x3b43d69f	0.0029882563
243	0xbbe20040	-0.0068970025
244	0x3b382a35	0.002810133
245	0xbb6f9105	-0.0036554944
246	0x3b56fdb7	0.0032805034
247	0xbb27ebfc	-0.0025622835
248	0x3c578056	0.013153156
249	0x3b326a8b	0.002722415
250	0x3c7d3ad5	0.015455921
251	0x3c0a480e	0.008440031
252	0x3aeb3652	0.0017945266
253	0xba3b2a48	-0.0007139784
254	0x3b27eaac	0.0025622053
255	0xbc2f3e40	-0.010695994

module.transformer.blocks.0.mlp.fc2.bias f4 [64]
0	0xbcf08890	-0.029361993
1	0x3e4997e4	0.19686848
2	0x3b3c8d17	0.002877062
3	0x3c65c701	0.014024497
4	0x3cdb04c0	0.026735663
5	0x3d804ae1	0.06264282
6	0x3d5153fc	0.051105484
7	0xbdae0cac	-0.08498511
8	0x3c427a88	0.011870034
9	0xbdb1a1ee	-0.08673464
10	0xbd6ac6c4	-0.057318464
11	0x3c391f32	0.011298941
12	0x3c10d645	0.008840148
13	0x3d05b693	0.03264482
14	0xbe14b9f5	-0.14524062
15	0x3c16e4b7	0.009209803
16	0xbc32ba01	-0.010908605
17	0xbc887b23	-0.016660279
18	0x3cb44aa0	0.02200824
19	0x3cadc18e	0.021210458
20	0x3c196240	0.0093618035
21	0x3c4a301d	0.012340573
22	0x3cb069b3	0.021534776
23	0x3e1ba4c1	0.15199567
24	0xbdcbbe46	-0.09948401
25	0xbc21d5d1	-0.009877638
26	0xbd590832	-0.05298633
27	0x3b80dcd9	0.003932577
28	0xbc0f3f1a	-0.008743072
29	0xbb9f0fba	-0.0048541697
30	0x3c3f94df	0.0116932085
31	0x3c9e877f	0.019351719
32	0xbcdd95a1	-0.027048888
33	0x3b961549	0.004580174
34	0x3caffed3	0.021483814
35	0x3c89cadb	0.016820362
36	0x3abf80c1	0.0014610515
37	0xbba3113d	-0.00497642
38	0x3b8dbb45	0.004325303
39	0x3bbcf06e	0.005765966
40	0x3d83bb2d	0.06432185
41	0x3d55a606	0.052160285
42	0x3d3f618a	0.04672388
43	0xbd3c59fd	-0.045984257
44	0x3c6dce65	0.01451454
45	0xbd94263b	-0.072338544
46	0x3dc080fe	0.09399603
47	0x3c077691	0.0082680145
48	0x3ce02d7e	0.027365442
49	0x3d7ac096	0.06121882
50	0xbdad13c1	-0.084510334
51	0xbbb8208c	-0.0056191143
52	0xbc822804	-0.015888222
53	0xbb4845e7	-0.0030559243
54	0xbd3fe1c8	-0.04684618
55	0x3d0e3a22	0.03472341
56	0xbd81f23f	-0.06345033
57	0xbe986142	-0.29761702
58	0x3c5b9fa4	0.0134047605
59	0x3d2274a0	0.039662004
60	0x3dac0cfa	0.084009126
61	0xbd6d42d7	-0.05792507
62	0xbda7e8e3	-0.081987165
63	0x3d89503f	0.06704759

module.transformer.blocks.1.norm1.weight f4 [64]
0	0xba936cb9	-0.0011247612
1	0x3f338e6c	0.70139194
2	0x38f69c0d	0.00011759261
3	0x360eb234	2.1263377e-06
4	0x3c7c9659	0.015416705
5	0x3e259a9b	0.16172259
6	0x3da4b90c	0.080431074
7	0xbbf4170e	-0.0074490374
8	0xb8899d61	-6.561983e-05
9	0x38b1fcb7	8.4870895e-05
10	0x3c499bd6	0.012305221
11	0x3e19d941	0.15024282
12	0x38b5d1f1	8.669857e-05
13	0xb9cebcec	-0.0003943214
14	0xb7731058	-1.4487734e-05
15	0x3b5350f1	0.003224429
16	0x3a32b02a	0.00068164116
17	0x3b8c0e00	0.00427413
18	0x3a758f74	0.00093673845
19	0x3a65a3ab	0.0008760045
20	0xbb0f3582	-0.0021851962
21	0xb9a488ee	-0.00031382538
22	0x3deb4955	0.11488596
23	0xba5e2a8f	-0.00084749697
24	0x3ee36f8d	0.44421044
25	0x3a1a8110	0.00058938656
26	0x36173098	2.2529039e-06
27	0x36a1ebca	4.8256234e-06
28	0xbc1b98fc	-0.009496924
29	0x3ec1fe90	0.37889528
30	0x33cc97da	9.527112e-08
31	0x39f7e3da	0.00047281274
32	0xb9ab1eff	-0.00032638756
33	0x3617125a	2.2511435e-06
34	0xb6f9e64a	-7.4475874e-06
35	0x3a8990d3	0.0010495431
36	0xb9be551d	-0.00036303038
37	0x392060b2	0.00015294811
38	0xb9970827	-0.00028807038
39	0xb9c84dc6	-0.00038204918
40	0x3e832d9c	0.25620735
41	0xbb37c54e	-0.0028041187
42	0x3e327504	0.1742745
43	0x3f07d07a	0.53052485
44	0xb8fcb67d	-0.000120502875
45	0x3ecde028	0.4021008
46	0x38a4e770	7.863238e-05
47	0xb38c023c	-6.5196645e-08
48	0xbc6f4904	-0.014604811
49	0x39cf852b	0.00039581335
50	0xb7acd650	-2.0603795e-05
51	0x3231c473	1.0347423e-08
52	0x3c74930d	0.014927638
53	0xba12e840	-0.0005604066
54	0x385c77b6	5.2563577e-05
55	0x3a5e48a7	0.0008479454
56	0x39cc6a66	0.00038989185
57	0x3bcd8508	0.006271962
58	0x3eaa0064	0.33203423
59	0x36efc26d	7.145389e-06
60	0x3f3a8847	0.7286419
61	0x388ed4f3	6.8107525e-05
62	0x3f44cd7d	0.7687605
63	0xba3d636f	-0.00072245946

module.transformer.blocks.1.norm1.bias f4 [64]
0	0x3a9b0a83	0.0011828694
1	0x3d9ea09d	0.07745478
2	0xb7b5b30b	-2.1660255e-05
3	0x3764f099	1.36458775e-05
4	0xbb03f80e	-0.0020136866
5	0x3cf4283a	0.029804338
6	0xbc29be4f	-0.0103603145
7	0xbb8fa500	-0.004383683
8	0xb8111f7e	-3.4600023e-05
9	0x390f9643	0.0001369352
10	0xbb4ef8db	-0.0031581435
11	0xbc284116	-0.010269424
12	0xba1706b0	-0.00057611894
13	0xb98b55dd	-0.0002657612
14	0x385107d8	4.9836788e-05
15	0x3bc8adf0	0.0061242506
16	0x3aaf2ebe	0.0013365371
17	0x3ab99f30	0.0014161821
18	0xbb9a2e25	-0.004705208
19	0x3c48a87c	0.012247201
20	0xba9f77f2	-0.0012166484
21	0xba061ab6	-0.00051156746
22	0xbd275998	-0.040856928
23	0x3a8851da	0.001040037
24	0xbd8c9a8a	-0.068654135
25	0x39b14224	0.0003380935
26	0x363f239d	2.8481948e-06
27	0xb6807aad	-3.8289786e-06
28	0xbbf11d25	-0.0073582106
29	0xbd9b0491	-0.0756923
30	0x34eba8f3	4.3895088e-07
31	0x38fb9d03	0.000119978584
32	0xb9146f28	-0.00014155789
33	0x3533e12f	6.701038e-07
34	0xb68cb44c	-4.1933145e-06
35	0x3b8d3946	0.004309806
36	0x37a78c39	1.9973248e-05
37	0xb8e678af	-0.00010989734
38	0xb9f2122a	-0.0004617137
39	0xb9c1e9ec	-0.00036986114
40	0x3d9566a7	0.0729497
41	0xbb07aba8	-0.002070168
42	0xbc30df9b	-0.010795499
43	0xbb71065e	-0.0036777477
44	0x37358372	1.0819045e-05
45	0xbc1e0895	-0.009645601
46	0xb9d0732e	-0.00039758667
47	0xb4de5890	-4.141516e-07
48	0x3ca26204	0.019822128
49	0x3a337400	0.00068455935
50	0x37de2588	2.648194e-05
51	0x31e5b9c5	6.6858967e-09
52	0x3a46f355	0.000758936
53	0xba1c44fe	-0.00059612084
54	0xb7e147ee	-2.6855585e-05
55	0xbc4cae2c	-0.012492698
56	0xbae8c898	-0.0017759977
57	0xb93c31b5	-0.00017947594
58	0x3d1a5b28	0.03768459
59	0x35df66ad	1.6644677e-06
60	0xbd076289	-0.033052955
61	0xb635ce06	-2.7091023e-06
62	0xbdca5008	-0.09878546
63	0x3b5b914b	0.003350335
