graph_transformer/saved_models/main_baseline.pth (torch, 973381 bytes, 46 tensors)

module.cls_token f4 [1, 1, 64]
0	0x3d20805b	0.03918491
1	0x3db188c4	0.08668664
2	0xbdae2609	-0.085033484
3	0x3af66389	0.0018797974
4	0x3e4b2666	0.19838867
5	0xbe89c45d	-0.26907626
6	0x3d8937bc	0.067000836
7	0x3d54710d	0.051865626
8	0xbccfdab8	-0.025372848
9	0x3c8046f1	0.015658827
10	0x3d332d75	0.043744523
11	0xbb707886	-0.0036692931
12	0x3c4c6159	0.012474381
13	0xbdcf45da	-0.10120745
14	0x3daac1ee	0.083377704
15	0x3e0516fa	0.12997046
16	0xbd9d21bf	-0.07672452
17	0x3c1b07b1	0.009462283
18	0xbd242230	-0.040071666
19	0x3db7d7b5	0.0897669
20	0x3d202fec	0.0391082
21	0xbc6a3e9a	-0.014297152
22	0x3d6af457	0.057361927
23	0x3962e59a	0.00021638573
24	0xbc25f782	-0.010129811
25	0xbdd87791	-0.105696805
26	0x3d1f4ebd	0.03889345
27	0x3b733fd9	0.0037116914
28	0x3e5fd8ef	0.21860097
29	0xbdd4e6fa	-0.10395618
30	0x3e022b63	0.12711863
31	0x3cb99588	0.02265431
32	0xbc71236d	-0.014717919
33	0xbd7ad9e1	-0.06124294
34	0x3d928ca8	0.07155734
35	0xbc6d6db3	-0.014491486
36	0xbc97587c	-0.01847481
37	0x3d974d7b	0.07387825
38	0x3cfdbc78	0.030973658
39	0xbc952aa8	-0.018208817
40	0xbd927f2e	-0.07153164
41	0x39a2b2e9	0.00031032346
42	0x3dd8a1b6	0.10577719
43	0x3b0938aa	0.0020938315
44	0x3e2becce	0.16789553
45	0xbc074f03	-0.008258584
46	0x3c8f272a	0.01747473
47	0xbe0dca70	-0.13846755
48	0xbcff072a	-0.031131346
49	0x3dcf403c	0.101196736
50	0xbe0e42db	-0.13892691
51	0xbe95ccfa	-0.29257947
52	0x3c1b0426	0.009461438
53	0xbcf6e88e	-0.030140188
54	0xbd82b38d	-0.06381903
55	0xbe214505	-0.15748985
56	0x3ccc6416	0.024950068
57	0xbd8f8db4	-0.070094496
58	0x3d23b2a9	0.039965305
59	0x3e10cddb	0.14141028
60	0xbdb1d1e5	-0.08682612
61	0x3d951d9e	0.0728104
62	0xbc630013	-0.013854998
63	0xbdec9d33	-0.11553421

module.transformer.blocks.0.norm1.weight f4 [64]
0	0x3f70d1ac	0.94069934
1	0x3f09359b	0.5359742
2	0x3f68780e	0.9080819
3	0x3d13e9ff	0.036111828
4	0x3f5c43a0	0.8604069
5	0x3f552ff9	0.83276325
6	0x3ebdff3e	0.37108797
7	0x3eaceffd	0.33776847
8	0x3eaae0e2	0.33374697
9	0x3f0edba2	0.55803883
10	0x3f634c7c	0.8878858
11	0x3eb1b491	0.34708074
12	0x3f3d4d96	0.7394651
13	0x3f4ab0ef	0.7917623
14	0x3ee27528	0.44230008
15	0x3f45362f	0.770358
16	0x3f55f16e	0.8357152
17	0x3e7d1f49	0.24718966
18	0x3f00fbe9	0.50384384
19	0x3f25911d	0.6467455
20	0x3f31a880	0.69397736
21	0x3f066e99	0.5251251
22	0x3ef37dcd	0.47556916
23	0x3f06b3d6	0.5261816
24	0x3e8999ee	0.26875252
25	0x3f8afa68	1.0857668
26	0x3ec5568a	0.38542587
27	0x3dec7384	0.1154547
28	0x3f3347f1	0.7003165
29	0x3f3584c8	0.70905733
30	0x3f333ff5	0.70019466
31	0x3e995aac	0.2995199
32	0x3ec89c29	0.3918164
33	0x3ee600d4	0.44922507
34	0x3f7f7237	0.99783653
35	0x3ec1940d	0.37808266
36	0x3ea8e753	0.32988986
37	0x3f08e1a5	0.53469306
38	0x3f0356cf	0.51304334
39	0x3f80b3f7	1.0054921
40	0x3ee1bdb6	0.4409005
41	0x3e933726	0.28753012
42	0x3ef0b112	0.47010094
43	0x3ea3c1d5	0.3198382
44	0x3f54dd54	0.8315022
45	0x3ea205ff	0.316452
46	0x3ebfbf9b	0.3745087
47	0x3f6e0162	0.9297086
48	0x3f5d8c47	0.8654217
49	0x3f666d8b	0.900109
50	0x3f1fcd65	0.6242278
51	0x3f659398	0.89678335
52	0x3e930c42	0.2872029
53	0x3f7aa6bd	0.9791067
54	0x3f8d9d59	1.1063644
55	0x3f2420b1	0.64112383
56	0x3f15bf14	0.5849469
57	0x3f13722a	0.57596076
58	0x3e68d7a0	0.22738504
59	0x3f8ec7f2	1.1154768
60	0x3f16d3a6	0.589167
61	0x3f44cba4	0.7687323
62	0x3ea75069	0.32678536
63	0x3f33bab7	0.7020678

module.transformer.blocks.0.norm1.bias f4 [64]
0	0xbc766138	-0.015037827
1	0x3d630849	0.055427823
2	0xbd84a34c	-0.06476459
3	0x3aa9e5af	0.0012962128
4	0x3db6a7f5	0.08918754
5	0xbe02f2d5	-0.12787946
6	0x3d83213c	0.06402823
7	0x3da58003	0.08081057
8	0xbda6e52c	-0.0814918
9	0x3d66fe35	0.056394774
10	0x3d65f62b	0.056142967
11	0xbd8cf6c7	-0.068830065
12	0x3c90d090	0.017677575
13	0xbdc9ec91	-0.098595746
14	0x3d9d85ea	0.07691558
15	0x3d10edb4	0.03538294
16	0xbcf7ff2a	-0.030273039
17	0xbc94bf3d	-0.018157596
18	0x3c2652b0	0.01015155
19	0xbbd2bf58	-0.0064315014
20	0x3d6a9bb2	0.05727739
21	0x3c964e53	0.018347895
22	0xbd949f73	-0.07256975
23	0x3c9dec4e	0.019277718
24	0x3d6d46d9	0.057928894
25	0xbd83a10d	-0.064272024
26	0x3de28a49	0.11061532
27	0x3d8c7e7c	0.068600625
28	0x3df6ad74	0.12044802
29	0xbce6c5cb	-0.028170487
30	0x3d71cc8f	0.059032973
31	0xbdab7485	-0.08371834
32	0xbd2d31fa	-0.04228399
33	0xbde30693	-0.11085238
34	0x3aaca06e	0.001317037
35	0xba81950b	-0.0009886337
36	0x3d49fd6b	0.049313944
37	0x3dcd9177	0.10037511
38	0xbc511c71	-0.012763129
39	0xbc7d5df9	-0.015464299
40	0xbda8427b	-0.08215805
41	0xbc2e2ca2	-0.0106307585
42	0xbc1a48c8	-0.009416766
43	0xbcd903da	-0.026491094
44	0x3d691520	0.056904912
45	0xbd2597d7	-0.04042801
46	0x3ccd0c4e	0.025030281
47	0xbc9b195c	-0.01893299
48	0x3d1562bc	0.036471114
49	0x3d6fc8ac	0.058540985
50	0xbd625a45	-0.05526187
51	0xbe1e4695	-0.15456612
52	0xbc7048ee	-0.014665825
53	0xbd5508d1	-0.05201036
54	0x3c68bb0d	0.014204753
55	0xbd680417	-0.056644525
56	0x3e06d7c4	0.13168246
57	0xbdb173dc	-0.086646765
58	0x3d79c961	0.060983066
59	0x3cd43529	0.025904255
60	0xbd98c39a	-0.07459183
61	0x3d6e4b77	0.058177438
62	0xbcf934f9	-0.030420767
63	0xbd3757e1	-0.044761542

module.transformer.blocks.0.attn.qkv.weight f4 [192, 64]
0	0x3baa6576	0.0052000834
1	0xbd804fa5	-0.06265191
2	0x3dcadf26	0.099058434
3	0xbb669537	-0.0035184154
4	0xbde9b20a	-0.114109114
5	0x3e467f8f	0.19384597
6	0xbd22119a	-0.039567567
7	0xbcfd9e94	-0.030959405
8	0x3d49c2f4	0.049258187
9	0xbcd854c7	-0.026407612
10	0xbdffc5e3	-0.12488916
11	0x3cda50b3	0.026649809
12	0x3cb493f6	0.02204321
13	0x3dd1e650	0.10249007
14	0xbd5bef91	-0.053695265
15	0xbd391a81	-0.04519129
16	0x3c44bc02	0.012007715
17	0x3aaa21c1	0.001298003
18	0x3c93ac94	0.018026628
19	0xbdacc51b	-0.084360324
20	0xbd327a79	-0.04357383
21	0x3a958c1a	0.0011409551
22	0xbc0c81a3	-0.00857583
23	0x3c5ad066	0.01335535
24	0x3b62248a	0.0034506642
25	0x3d877177	0.066134386
26	0xbd29c183	-0.041444313
27	0xbc938f76	-0.018012743
28	0xbe0b5434	-0.1360634
29	0x3d2d99c6	0.042382978
30	0xbd8c5f62	-0.0685413
31	0x3b886677	0.0041626054
32	0x3d1601da	0.03662286
33	0x3d27860f	0.040899333
34	0xbce0f252	-0.027459297
35	0xbcc8aea6	-0.024497341
36	0x3bf83a0c	0.007575279
37	0xbd9f8f58	-0.077910125
38	0x3c206a12	0.009790914
39	0xbce96ddb	-0.028494766
40	0x3d1dc4e7	0.03851786
41	0x3a509c56	0.0007957866
42	0xbd1a367a	-0.03764961
43	0xbc6b9494	-0.0143786855
44	0xbdb15619	-0.08659
45	0xbab0fb0b	-0.0013502551
46	0x3c03c920	0.008043557
47	0x3dd5c6d4	0.10438314
48	0x3d57b86d	0.052666117
49	0xbdf1a9a9	-0.11799938
50	0x3d910fb1	0.07083071
51	0x3e19a081	0.15002634
52	0xbba76c65	-0.005109357
53	0x3de514df	0.111856215
54	0xbd48f167	-0.049058344
55	0x3dbf990c	0.09355363
56	0xbcefffda	-0.029296804
57	0x3d87a1cc	0.06622657
58	0xbcba74eb	-0.022760829
59	0xbcafe345	-0.021470675
60	0x3d802fb2	0.06259097
61	0xbddfc100	-0.10925484
62	0x3ccd5a06	0.02506734
63	0x3d2cd1ea	0.042192377
64	0x3a3d5a13	0.00072232
65	0x3d9dcb50	0.077047944
66	0xbded8c21	-0.11598993
67	0x3b7505f8	0.003738759
68	0x3e085568	0.1331383
69	0xbe61c975	-0.22049506
70	0x3d49e5a8	0.049291283
71	0x3d210db4	0.03931971
72	0xbd79ed83	-0.061017524
73	0x3d03fa15	0.03222092
74	0x3e105874	0.14096242
75	0xbcfe5810	-0.03104785
76	0xbcf9b9b5	-0.03048406
77	0xbded3d71	-0.11583985
78	0x3d908bbf	0.070579045
79	0x3d74464e	0.05963736
80	0xbc149746	-0.0090692695
81	0x3a9fe651	0.0012199377
82	0xbcce115d	-0.025154764
83	0x3dab1fa1	0.08355642
84	0x3d45412a	0.04815785
85	0xbb8e1dc0	-0.0043370426
86	0x3bc2b2c0	0.005941719
87	0xbc57d81f	-0.013174086
88	0xbb37c991	-0.0028043727
89	0xbdb2faf6	-0.08739273
90	0x3d3bf7e3	0.0458907
91	0x3ca92021	0.020645203
92	0x3e20d747	0.15707122
93	0xbd4f663b	-0.050634604
94	0x3da027be	0.0782008
95	0xbba840d4	-0.0051346812
96	0xbd397c22	-0.045284398
97	0xbd46b087	-0.048508193
98	0x3d107e0b	0.035276454
99	0x3ca51c1a	0.020155001
100	0xbc01041f	-0.007874518
101	0x3dba7e11	0.091060765
102	0xbc82a854	-0.015949406
103	0x3d1a054b	0.037602704
104	0xbd581ae6	-0.052760027
105	0xba22fbbd	-0.00062173215
106	0x3d3169a4	0.043313637
107	0x3c50bc92	0.012740271
108	0x3dcdf10c	0.10055742
109	0x3b357367	0.0027687193
110	0xbba7f2ba	-0.005125371
111	0xbdf39c3c	-0.11895034
112	0xbd767626	-0.06017127
113	0x3e09df13	0.13464002
114	0xbdb4daab	-0.0883077
115	0xbe35b93d	-0.17746444
116	0x3be553e4	0.006998526
117	0xbdeb0f49	-0.11477525
118	0x3d4dbc07	0.050228145
119	0xbde8c196	-0.113650486
120	0x3d2dbd52	0.042416878
121	0xbda1d33e	-0.079016194
122	0x3cf8b393	0.030359065
123	0x3d20bb2f	0.039241012
124	0xbda1bce0	-0.07897353
125	0x3e02b015	0.12762482
126	0xbd09b760	-0.033622146
127	0xbd3fa5f6	-0.046789132
128	0x3d1e23b8	0.038608283
129	0x3d40928e	0.047014765
130	0xbd8586a7	-0.065198235
131	0x3baf744c	0.00535444
132	0x3cc8103b	0.024421802
133	0xbd4fdd07	-0.050747897
134	0x3cb85769	0.022502618
135	0x3c2649e6	0.010149455
136	0xbca53a2f	-0.020169346
137	0x3d5278a6	0.05138459
138	0x3cc347ff	0.023838041
139	0xbc3ed625	-0.011647736
140	0xbcd28026	-0.025695872
141	0xbcc72152	-0.02430788
142	0x3d22f880	0.03978777
143	0x3ccc0be5	0.024908016
144	0xbd74d67a	-0.059774853
145	0xbc9b5194	-0.018959798
146	0x3bd476a4	0.0064838696
147	0x3ce1864e	0.027529862
148	0x3ccc6376	0.02494977
149	0x3c807f3c	0.01568567
150	0xbcbad710	-0.022807628
151	0xbc56cdaa	-0.013110558
152	0x3c6f4ccf	0.014605715
153	0xbc041898	-0.008062504
154	0x3c2e4c72	0.010638343
155	0x3c24e9d8	0.010065518
156	0x3d2f61f4	0.042818025
157	0xbc4f84be	-0.012665926
158	0x3d330fe2	0.04371632
159	0xbc6985ec	-0.014253121
160	0xbc05ea2a	-0.008173505
161	0xbbd551e5	-0.0065100067
162	0xbd266aa0	-0.04062903
163	0x3d10a0e1	0.035309676
164	0x3bd41023	0.00647165
165	0x3cac8813	0.021060979
166	0xbca88f76	-0.02057622
167	0xbd6e219e	-0.05813753
168	0xbc729a00	-0.014807224
169	0x3d0a9f70	0.033843458
170	0x3c913203	0.017724043
171	0x3c84a11c	0.016190104
172	0x3d08d7b0	0.03340882
173	0xbc3e0f44	-0.011600319
174	0x3c15f5a4	0.009152804
175	0xbc2e5855	-0.010641177
176	0x3c6dec7c	0.014521714
177	0x3d1077ad	0.03527038
178	0xbd0cdd4c	-0.034390733
179	0xbd390801	-0.04517365
180	0xbb906863	-0.004406975
181	0xbd2cc985	-0.04218437
182	0xbcf5d019	-0.030006455
183	0xbc96a80b	-0.018390676
184	0x3d3e9929	0.046532784
185	0xbd26d06a	-0.040726103
186	0x3baea27f	0.0053294296
187	0x3bb176ff	0.005415797
188	0xbc96ec64	-0.018423267
189	0x3bda1013	0.006654748
190	0x3b990991	0.00467033
191	0xbc0a2d83	-0.008433702
192	0x3acf5036	0.0015816751
193	0xbd3390b4	-0.04383917
194	0x3d8d95f1	0.06913365
195	0xbb4e7b6a	-0.0031506666
196	0xbdc60d58	-0.09670514
197	0x3e1dbcc0	0.15404034
198	0xbcda14d1	-0.026621254
199	0xbcb02009	-0.02149965
200	0x3d0779f9	0.033075307
201	0xbc9de9b3	-0.019276476
202	0xbdd3fdb3	-0.10351124
203	0x3ca3c1cb	0.019989869
204	0x3c5c41c5	0.013443415
205	0x3da5acc6	0.080895945
206	0xbd0baf2a	-0.034102596
207	0xbce1e938	-0.027577028
208	0x3c07c775	0.0082873
209	0x3b0bb32f	0.0021316519
210	0x3c4fd0da	0.012684071
211	0xbd7850a7	-0.06062379
212	0xbd134c88	-0.035961658
213	0xbb93daee	-0.0045121824
214	0xbbe58101	-0.007003904
215	0x3bf856aa	0.0075786905
216	0x3bacf5a1	0.0052783047
217	0x3d19aa10	0.0375157
218	0xbccc9ae9	-0.02497621
219	0xbc610dfd	-0.013736245
220	0xbdc8baf2	-0.09801282
221	0x3ceb0309	0.02868797
222	0xbd48649e	-0.04892408
223	0x3b5ce5a3	0.003370621
224	0x3cb520ed	0.022110427
225	0x3cfbda76	0.030743819
226	0xbb9e4a41	-0.004830629
227	0xbce14fe5	-0.027503917
228	0x3bc34514	0.0059591625
229	0xbd535c19	-0.051601503
230	0x3c066551	0.008202867
231	0xbcacfd10	-0.021116763
232	0x3ccffd6f	0.025389401
233	0x3ae4d897	0.0017459568
234	0xbcc96d88	-0.024588361
235	0xbc7c976c	-0.015416961
236	0xbd5645f7	-0.052312817
237	0x3aac22d9	0.0013132944
238	0x3c5a44b9	0.013322049
239	0x3dacb70b	0.0843335
240	0x3d3bab83	0.045817863
241	0xbdc835d3	-0.09775891
242	0x3d4325f1	0.047643606
243	0x3dffd0b0	0.12490976
244	0xbb612020	-0.0034351423
245	0x3dcfa324	0.101385385
246	0xbd2a8533	-0.041630935
247	0x3d919bd1	0.07109798
248	0xbc9d41a4	-0.019196339
249	0x3d37081e	0.044685476
250	0xbc656ff7	-0.014003745
251	0xbc33c420	-0.010972053
252	0x3d3c73ce	0.046008877
253	0xbda9bace	-0.08287583
254	0x3c67cc6f	0.014147862
255	0x3ca0db2c	0.01963576

module.transformer.blocks.0.attn.proj.weight f4 [64, 64]
0	0x3cb4fd7c	0.022093527
1	0xbc704031	-0.014663742
2	0x3aca85e7	0.0015451283
3	0xbcb76437	-0.022386653
4	0xbc821c78	-0.015882716
5	0x3d0b2291	0.033968512
6	0x3bc6b267	0.0060637477
7	0xbb89041f	-0.0041813995
8	0xbd4b2b16	-0.049601637
9	0xbc855015	-0.016273538
10	0xbccbad6e	-0.024862971
11	0xbdaba773	-0.08381548
12	0xbc92bf67	-0.017913533
13	0x3c7cf5c1	0.015439452
14	0xbd38716d	-0.045030046
15	0xbd23c2ce	-0.039980702
16	0x3c90b532	0.017664526
17	0x3d1dfd60	0.038571715
18	0xbc117a1f	-0.008879214
19	0xbc42f73e	-0.011899767
20	0x3d063cd2	0.032772847
21	0xbc725322	-0.014790328
22	0x3cd9938d	0.026559616
23	0xbab67901	-0.001392156
24	0xbcfa6534	-0.030565836
25	0x3adc72d4	0.0016818889
26	0xbd193346	-0.037402414
27	0x3cee7aad	0.02911123
28	0x3b1d8019	0.002403265
29	0x3b4e2f67	0.003146136
30	0xbab735d7	-0.0013977838
31	0x3d54ade2	0.05192364
32	0x3cc39a45	0.023877272
33	0x3c9797f3	0.018505072
34	0xbb559006	-0.0032587065
35	0xbc8dc3f9	-0.017305361
36	0xbc47bdde	-0.012191264
37	0x3ca8682d	0.020557487
38	0x3d2a032d	0.041506935
39	0xbc6c034c	-0.014405083
40	0xbc28332d	-0.0102661075
41	0xbc60d62c	-0.013722938
42	0xbd114aaa	-0.035471596
43	0xbca1b43e	-0.019739266
44	0x3c616c07	0.013758666
45	0xbd2af0fc	-0.041733727
46	0xbc4ce122	-0.012504848
47	0x3c890958	0.016728088
48	0x3d276f6e	0.040877752
49	0x3c292dfe	0.010325907
50	0x3bf646da	0.0075157704
51	0xbc81ae18	-0.015830085
52	0x3d072b1c	0.033000097
53	0x3ceebb41	0.029142024
54	0x3d2e805b	0.042602878
55	0x3d531230	0.051531017
56	0x3c239ac3	0.009985629
57	0x3d046991	0.03232724
58	0x3d43a765	0.04776706
59	0xbc7041e9	-0.014664152
60	0x3d6ad87a	0.057335354
61	0xbbda5b0e	-0.0066636866
62	0x3c75dfae	0.015006943
63	0x3d5f02ab	0.054445904
64	0xbc9f32de	-0.019433435
65	0x3c8b576e	0.017009463
66	0x3c265851	0.010152892
67	0x3d3e4273	0.04645009
68	0x3bcde709	0.006283645
69	0xbd3ae8e3	-0.045632254
70	0xbb03d254	-0.002011438
71	0xbd029ed0	-0.031889737
72	0x3bfbfc60	0.0076899976
73	0xbc882a83	-0.016621834
74	0x3c0faf53	0.008769828
75	0x3d86b807	0.06578069
76	0x3c919917	0.017773194
77	0x3c9b0583	0.018923527
78	0x3ca42d7e	0.020041224
79	0x3d780850	0.060554802
80	0xbd64c686	-0.05585339
81	0xbcf0cc64	-0.029394336
82	0x3af35f47	0.0018567824
83	0xbbdd9eb2	-0.0067633027
84	0xbc114141	-0.008865655
85	0x3ab2dd03	0.0013646189
86	0xbd5774fb	-0.052601796
87	0xbb1a68f6	-0.0023561097
88	0x3b803044	0.0039120037
89	0xba4ffa38	-0.0007933709
90	0x3b0c61a2	0.0021420498
91	0xbc4e3712	-0.012586372
92	0x3cd37bb2	0.025815818
93	0xbbe99b5f	-0.0071291174
94	0xbcd71e8f	-0.026259689
95	0xbb754801	-0.003742695
96	0xbbf63818	-0.007514011
97	0xbc9901d6	-0.018677633
98	0x3c7ffc9d	0.015624193
99	0x3bbe4880	0.0058069825
100	0x3c302b76	0.010752549
101	0xbcdd8899	-0.027042674
102	0x3a193619	0.0005844548
103	0x3bfdcf60	0.0077456683
104	0xbc64a77d	-0.013955948
105	0xbc09174b	-0.00836737
106	0x3a9af7a7	0.0011823074
107	0xba6b805a	-0.00089836644
108	0xbce0ece2	-0.027456705
109	0x3ca72c07	0.020406736
110	0x3ce0b8f3	0.02743194
111	0x3be144a3	0.006874637
112	0x3c124268	0.008926965
113	0xbd118eed	-0.035536695
114	0xbcaf1484	-0.021372087
115	0x3d3c089a	0.04590664
116	0xbc2594b5	-0.010106255
117	0xbcc376ad	-0.0238603
118	0xbc66cff9	-0.0140876705
119	0xbb358164	-0.002769553
120	0xbcab0b59	-0.020879434
121	0x3cf6930e	0.030099418
122	0xbb23dc16	-0.0025003008
123	0x3d832d86	0.06405167
124	0xbcdf9dc4	-0.027296908
125	0xbbdd3355	-0.006750504
126	0xbd116f2b	-0.03550641
127	0xbce558bc	-0.027996413
128	0x3b82dba4	0.0039934684
129	0x3a122f63	0.0005576519
130	0x3c98c75e	0.018649753
131	0xbc9175a2	-0.017756287
132	0xbc6f9316	-0.01462247
133	0xbb27d2c6	-0.0025607808
134	0xba738934	-0.0009290159
135	0xbc994c22	-0.01871306
136	0x3ceaf034	0.02867899
137	0xbae50f4e	-0.0017475875
138	0xbd0c0bc4	-0.034190908
139	0x3de439f9	0.1114387
140	0x3d16aaf1	0.036784116
141	0x3ca25b31	0.019818874
142	0x3adf1b46	0.0017021678
143	0x3cd72fbc	0.026267879
144	0xbda29738	-0.07938999
145	0x3c5ff785	0.013669853
146	0xbbcc7617	-0.0062396633
147	0xbcb64343	-0.02224887
148	0xbbee3da8	-0.0072705336
149	0xbc694837	-0.014238409
150	0xbc8eb205	-0.01741887
151	0x3b796020	0.003805168
152	0xbb9cd105	-0.0047856593
153	0x3b641906	0.0034804954
154	0x3d6b60eb	0.057465475
155	0xbaedbd8c	-0.0018138154
156	0x3c58bd60	0.013228744
157	0x3c9724ce	0.018450167
158	0xbb553cb7	-0.003253741
159	0xbbbd63e6	-0.005779731
160	0x3d0d2d94	0.034467295
161	0x3c91529a	0.017739583
162	0xbcfff6b8	-0.031245574
163	0xbc986060	-0.018600643
164	0xbced9eef	-0.02900645
165	0x3c6ff0b8	0.014644794
166	0x3cf7ec1d	0.030263955
167	0x3c061bd9	0.00818535
168	0x3c80fe78	0.01574634
169	0xbc8d6683	-0.017260795
170	0xbd21a937	-0.039468016
171	0xbb4b961b	-0.0031064812
172	0xbbb969d8	-0.0056583695
173	0xbb875f46	-0.0041312305
174	0x3c04b4d6	0.008099755
175	0x3a6a53f5	0.0008938902
176	0x3c7f207a	0.015571708
177	0x3d0c26cd	0.03421669
178	0xbcb78d8c	-0.022406362
179	0x3cb9a6d3	0.022662556
180	0x3bcaf1f3	0.0061933934
181	0xbbfacb98	-0.007653665
182	0x3d02fae6	0.031977557
183	0x3b297e25	0.0025862542
184	0xbc7e97e3	-0.015539142
185	0xbcde02d9	-0.027100967
186	0xbcafd75d	-0.021464998
187	0x3ced5a07	0.028973592
188	0xbb008767	-0.0019611956
189	0x3d7eea5a	0.062235214
190	0xbb4c787d	-0.0031199746
191	0x3ba33217	0.0049803364
192	0x3d4295e5	0.04750623
193	0xbd2eaf0f	-0.042647418
194	0x3d11fecf	0.035643395
195	0xbd099cd3	-0.033596825
196	0xbd56307c	-0.052292332
197	0x3c793033	0.0152092455
198	0xba260665	-0.00063333503
199	0xbdd8a2c2	-0.105779186
200	0xbd21d524	-0.039509907
201	0xbb858cc4	-0.0040756185
202	0xbd6d1b20	-0.057887197
203	0xbda54382	-0.08069517
204	0x3d196a44	0.03745486
205	0x3c0196d8	0.007909499
206	0xbbca0a51	-0.0061657806
207	0x3db1006e	0.0864266
208	0x3d5634c7	0.052296426
209	0x3debb361	0.11508823
210	0xbba359f4	-0.0049850885
211	0xba338f70	-0.0006849682
212	0x3ccce146	0.025009762
213	0xbd8fca16	-0.07020967
214	0xbd65deff	-0.05612087
215	0x3c82a7ab	0.015949091
216	0xbd8367e0	-0.06416297
217	0x3aaf1132	0.0013356565
218	0xbe565841	-0.20932104
219	0x3d34aa6f	0.04410785
220	0x3d979284	0.074009925
221	0xbe3f54e7	-0.18684731
222	0x3d6367ce	0.055518918
223	0x3e1ba784	0.15200621
224	0x3dceeb6e	0.101034984
225	0xbb5314dc	-0.0032208478
226	0xbdb2d037	-0.0873112
227	0xbcafbc29	-0.021452026
228	0xbd06bcc3	-0.03289486
229	0x3e3013d7	0.17195068
230	0x3d88a92b	0.06672891
231	0x3b217d9b	0.0024641517
232	0x3d3fc173	0.046815347
233	0xbcb5abf4	-0.02217672
234	0xbd378a26	-0.044809483
235	0x3c24d309	0.01006008
236	0xbbe86e0d	-0.007093197
237	0x3cdc36c3	0.026881581
238	0x3df531f0	0.119724154
239	0xbb77063b	-0.0037692923
240	0x3d0a3fe8	0.033752352
241	0xbd2b5ae2	-0.04183472
242	0x3cf1c9f2	0.02951524
243	0xbca00e37	-0.019538028
244	0xbe2b9e0f	-0.16759513
245	0xbca31380	-0.01990676
246	0xbc83adbd	-0.016074056
247	0x3d82d0db	0.06387492
248	0x3d46851e	0.048466794
249	0xbe1be8e8	-0.15225565
250	0xbc774719	-0.015092635
251	0xbca8cf7a	-0.020606745
252	0x3c570330	0.013123319
253	0x3da1da4a	0.079029635
254	0x3cda31ef	0.026635138
255	0xbd17ba99	-0.037043188

module.transformer.blocks.0.attn.proj.bias f4 [64]
0	0xbcffd1ce	-0.031227972
1	0x3d3dfa8a	0.04638151
2	0x3d357c9b	0.044308286
3	0x3cfcda0b	0.03086569
4	0x3e1f856c	0.1557824
5	0x3e17c270	0.14820266
6	0x3adcfdfc	0.0016860361
7	0xb9babe34	-0.00035618397
8	0x3dd6b758	0.10484189
9	0x3c658d04	0.0140106715
10	0xbdaf0646	-0.085461184
11	0xbb995b99	-0.0046801087
12	0x3d9af2eb	0.07565864
13	0x3dac6302	0.08417322
14	0x3d015f46	0.031585
15	0xbdb20e97	-0.08694189
16	0xbcf2e6f6	-0.029651146
17	0xbe727e2c	-0.23680943
18	0xbe73abd6	-0.23796019
19	0xbd1ecae9	-0.03876773
20	0x3d0709da	0.03296838
21	0xbb1ed2c8	-0.0024234522
22	0xbd0a74d8	-0.033802837
23	0xbbdf66be	-0.0068176677
24	0x3d527621	0.051382188
25	0x3d8d26ac	0.06892142
26	0xbcd6436f	-0.026155202
27	0x3d26c25f	0.04071271
28	0xbd5ce078	-0.053925008
29	0xbdb4c873	-0.08827295
30	0x3d5a5b1f	0.053309556
31	0xbb18d6f8	-0.002332149
32	0xbcadfe43	-0.021239405
33	0x3cb1b4ea	0.021692712
34	0xbd89a257	-0.06720417
35	0x3dab6843	0.08369496
36	0xbda79919	-0.08183498
37	0x3d1021c4	0.03518845
38	0x3d9f20d1	0.07769931
39	0x3d5989f0	0.053110063
40	0xbd5945b2	-0.053044982
41	0xbda4fdfd	-0.08056257
42	0xbdc23a8f	-0.094838254
43	0xbda153a3	-0.078772806
44	0x3d52044c	0.05127363
45	0x3d1781d6	0.036989056
46	0x3dc0f8d9	0.09422464
47	0xbe21ecb7	-0.15812956
48	0xbcf91ffe	-0.030410763
49	0x3db8630a	0.09003265
50	0x3d84ee5f	0.06490778
51	0x3d815eee	0.063169345
52	0x3d0a900d	0.033828784
53	0xbddaf7cd	-0.106917955
54	0x3aff1c87	0.0019463458
55	0x3e51edef	0.2050092
56	0x3e2a71c3	0.16644959
57	0x3d33f1c5	0.04393174
58	0x3d220556	0.03955587
59	0xbdabad3f	-0.083826534
60	0xbb1a8fa7	-0.0023584159
61	0xbd6b49fe	-0.05744361
62	0xbe0706c2	-0.13186172
63	0x3b457be4	0.003013366

module.transformer.blocks.0.norm2.weight f4 [64]
0	0x176ca5b3	7.6464855e-25
1	0x9a36f20a	-3.7832235e-23
2	0xa01defb1	-1.3377725e-19
3	0x293e7e61	4.229809e-14
4	0x35b2ebde	1.333068e-06
5	0x309409db	1.0771218e-09
6	0x3bff60fb	0.0077935434
7	0xae09a98a	-3.1300774e-11
8	0xa7cc0718	-5.6629065e-15
9	0x3eaba768	0.33526158
10	0x1ffb6020	1.0646166e-19
11	0x3325e986	3.8629445e-08
12	0x2bdecc34	1.5830726e-12
13	0x2691afff	1.01091e-15
14	0xa0b2285f	-3.0181088e-19
15	0x36b1e939	5.3021618e-06
16	0x34876cc8	2.5224858e-07
17	0xb4f5f904	-4.581599e-07
18	0x3cad082c	0.02112206
19	0x23c028f5	2.0834028e-17
20	0x282a2e47	9.4469305e-15
21	0xa3cbcc30	-2.2095781e-17
22	0x29f1610d	1.07193856e-13
23	0x170b8951	4.508664e-25
24	0x2f34bd53	1.6438166e-10
25	0x3ea7261e	0.3264627
26	0x3ecb3b6b	0.3969377
27	0xb52e44af	-6.492e-07
28	0x3073e20c	8.8724117e-10
29	0x3cec0932	0.028812978
30	0x33cfc151	9.674353e-08
31	0xb440eb4b	-1.7966993e-07
32	0x22fee33b	6.9087428e-18
33	0x3796d2b5	1.7979512e-05
34	0xb296a995	-1.7539415e-08
35	0x3c810d54	0.015753426
36	0xaebc93cc	-8.575504e-11
37	0x3e7997d3	0.24374323
38	0x3bacacfc	0.005269645
39	0xa7fe0f3a	-7.051567e-15
40	0x374d569f	1.223912e-05
41	0xac22fd50	-2.3162201e-12
42	0xb2358186	-1.0565037e-08
43	0xb4ca0b33	-3.763358e-07
44	0xab3564f0	-6.4444197e-13
45	0x3996e105	0.00028777882
46	0x39ebf720	0.00045006815
47	0xb216ce06	-8.777993e-09
48	0x3e1c6902	0.15274432
49	0x3be547fa	0.0069971057
50	0x9f7d688e	-5.366132e-20
51	0x2eec2b61	1.0739743e-10
52	0x122e6de4	5.504017e-28
53	0x3dda8cbf	0.106713764
54	0x36e2072a	6.736159e-06
55	0x359190db	1.08455e-06
56	0x2fea8de5	4.2665174e-10
57	0xb3b023b5	-8.202134e-08
58	0x358749b4	1.0079734e-06
59	0x2d43d737	1.1132254e-11
60	0x153038fb	3.5587867e-26
61	0xa31777fa	-8.2111324e-18
62	0x23bec7ca	2.0684455e-17
63	0x3336f268	4.2595644e-08

module.transformer.blocks.0.norm2.bias f4 [64]
0	0x96e7c10f	-3.74419e-25
1	0x99d0e2a4	-2.1598235e-23
2	0xa17e1da1	-8.609776e-19
3	0x269ab733	1.0735553e-15
4	0xb52ea4e1	-6.505998e-07
5	0xb060e54c	-8.1816576e-10
6	0xbb0a1dab	-0.0021074812
7	0x2e24edd2	3.750051e-11
8	0x28618640	1.251912e-14
9	0xbd00b14b	-0.03141908
10	0x9f512630	-4.428906e-20
11	0xb2a23b8f	-1.8886366e-08
12	0x2b6dfefc	8.4553176e-13
13	0x270aa238	1.9239286e-15
14	0xa0e453b7	-3.86801e-19
15	0xb59b606d	-1.1576464e-06
16	0x3493d3a8	2.7534884e-07
17	0xb498a08c	-2.842902e-07
18	0xbc08245c	-0.00830945
19	0x2257d19c	2.92489e-18
20	0x27ca6b2e	5.6182467e-15
21	0xa38446fe	-1.4341535e-17
22	0xaa81d584	-2.306316e-13
23	0x14a809fd	1.6967605e-26
24	0xae298e7f	-3.8552713e-11
25	0x3ca1577b	0.019695034
26	0x3cb742a0	0.022370636
27	0x35ed7c5e	1.7694072e-06
28	0xb062cbfa	-8.250819e-10
29	0xba954171	-0.0011387301
30	0xb451c794	-1.9537248e-07
31	0xb38687b7	-6.2645476e-08
32	0x22baa71e	5.0592343e-18
33	0xb78fbd8d	-1.7135195e-05
34	0x324049f9	1.119269e-08
35	0xbb0fcc21	-0.0021941739
36	0x2e89bbe0	6.263412e-11
37	0x3cb708e2	0.022343103
38	0xbb2c3c52	-0.002628107
39	0x27246ce6	2.2818606e-15
40	0xb693423a	-4.388651e-06
41	0xabaa4a0f	-1.2099782e-12
42	0x33e87752	1.0825046e-07
43	0xb5afe37f	-1.3104726e-06
44	0xab33272b	-6.364793e-13
45	0xb7fa05d3	-2.9805035e-05
46	0x391d67ed	0.00015011402
47	0xb26b6f1e	-1.3704065e-08
48	0x3c301de6	0.010749316
49	0xbb060fdf	-0.0020456237
50	0x9f421640	-4.1099503e-20
51	0xab17346b	-5.371872e-13
52	0x12e46a39	1.4415009e-27
53	0x3c5d56ee	0.013509495
54	0x3601351f	1.9253418e-06
55	0x34dc61d0	4.104936e-07
56	0x2f7eed23	2.3185413e-10
57	0x32b1edda	2.0713674e-08
58	0x3452337b	1.9576503e-07
59	0xad07eff9	-7.727146e-12
60	0x95865bbb	-5.4266894e-26
61	0x23a9995b	1.8387965e-17
62	0xa2b3c700	-4.8728747e-18
63	0xb20110c1	-7.512598e-09

module.transformer.blocks.0.mlp.fc1.weight f4 [128, 64]
0	0x9246171c	-6.250627e-28
1	0x958c2cdd	-5.661633e-26
2	0x9d46c59a	-2.630724e-21
3	0xa3f2fd84	-2.634506e-17
4	0xb168c321	-3.3871361e-09
5	0x2a8d2ab6	2.5076268e-13
6	0xb5d168ca	-1.5602211e-06
7	0x29551943	4.7317412e-14
8	0x243dcc3a	4.115583e-17
9	0xb82ddc20	-4.145142e-05
10	0x9a55a753	-4.418253e-23
11	0xadb30eea	-2.0356567e-11
12	0x26dbb544	1.524531e-15
13	0x22d3552c	5.7281844e-18
14	0x9c36e2e7	-6.0512013e-22
15	0xb1b158b6	-5.1614633e-09
16	0x2fb2630a	3.2448383e-10
17	0xae1d3dda	-3.5752602e-11
18	0xb80c5781	-3.3460095e-05
19	0x1dab3518	4.531822e-21
20	0x23790637	1.3499633e-17
21	0x9ea3775a	-1.7307659e-20
22	0x258fed5a	2.4967381e-16
23	0x919a68ab	-2.4361422e-28
24	0xa9b3f8c6	-7.992352e-14
25	0x38860cb1	6.391982e-05
26	0x384906dd	4.7928526e-05
27	0x30ea266c	1.7036661e-09
28	0x2e099945	3.1286324e-11
29	0xb6e1f7d0	-6.7343717e-06
30	0xaf2609e1	-1.5101122e-10
31	0xae8271cc	-5.93193e-11
32	0x1ec17754	2.0484023e-20
33	0xb27fa79e	-1.4881065e-08
34	0x2e22cfb0	3.7019e-11
35	0x3652a17a	3.138643e-06
36	0xa9dd66a1	-9.832175e-14
37	0x3759d578	1.298391e-05
38	0xb585b79f	-9.962713e-07
39	0x20bd31a8	3.2050705e-19
40	0xb2e1acf3	-2.6272096e-08
41	0x25722bde	2.1005017e-16
42	0x2f1d95d8	1.4332302e-10
43	0xb18e1884	-4.135531e-09
44	0xa6873e64	-9.384418e-16
45	0xb360ad8e	-5.231191e-08
46	0x351754bc	5.637519e-07
47	0xae1ccf3d	-3.5654358e-11
48	0xb67cbd52	-3.7661125e-06
49	0xb625c94e	-2.470409e-06
50	0x9b8595a5	-2.209971e-22
51	0x29833c7b	5.82806e-14
52	0x0f94c816	1.4670997e-29
53	0xb572ead1	-9.049373e-07
54	0x30a36af4	1.1890209e-09
55	0x31498924	2.9327305e-09
56	0x2b612ed8	8.0001067e-13
57	0x2eaafccc	7.775611e-11
58	0xaf54c5bd	-1.9351538e-10
59	0xa8ec0b4b	-2.6206161e-14
60	0x91613dbf	-1.7768397e-28
61	0x1ef9e0cf	2.6456879e-20
62	0x9ecd9ff2	-2.1771371e-20
63	0xae14a27e	-3.3795626e-11
64	0x0f81392f	1.2742408e-29
65	0x12ed7e2c	1.4987907e-27
66	0x9a6d3289	-4.9051273e-23
67	0x21de7e41	1.5076724e-18
68	0xaf39f004	-1.6910923e-10
69	0xa8980e51	-1.6881599e-14
70	0x32ad0680	2.0142807e-08
71	0xa765e956	-3.1906626e-15
72	0xa0ceabed	-3.5011528e-19
73	0x3611d3f8	2.1730066e-06
74	0x181b6b86	2.0087566e-24
75	0x2b06ea7f	4.793179e-13
76	0xa314eb90	-8.072978e-18
77	0x9ffdc76f	-1.074796e-19
78	0x1a2b9a04	3.5486384e-23
79	0x2e1e9fba	3.6066906e-11
80	0xacad385a	-4.923212e-12
81	0xad56f3a5	-1.2218592e-11
82	0x353f03a2	7.115833e-07
83	0x9a83d6f4	-5.4527606e-23
84	0x1fb1e8f1	7.5347785e-20
85	0x1ce5a08b	1.5195448e-21
86	0x211f4dd8	5.397432e-19
87	0x8f9f9dc8	-1.5739386e-29
88	0xa58e3865	-2.4671288e-16
89	0xb675b7d7	-3.6614854e-06
90	0xb6b8613c	-5.494947e-06
91	0xae3119fb	-4.0268216e-11
92	0xaad94b20	-3.8599072e-13
93	0x34c4a86d	3.663039e-07
94	0x2ce54f34	6.5173648e-12
95	0x2b51b761	7.4506205e-13
96	0x1b669372	1.9072796e-22
97	0x2f9cfa80	2.8554226e-10
98	0xab2ca554	-6.1336114e-13
99	0xb448c3f2	-1.8697736e-07
100	0xa4548bcc	-4.6088585e-17
101	0xb61a00e9	-2.2948318e-06
102	0xb2c98338	-2.3459151e-08
103	0xa05c2ee0	-1.8650234e-19
104	0x2f4ad6e4	1.8448137e-10
105	0x25c4b941	3.4126113e-16
106	0xac1d1a5e	-2.2325679e-12
107	0x2e84d2bd	6.0401e-11
108	0x244587fa	4.2832742e-17
109	0x3008e4d0	4.9801674e-10
110	0xb21a9eb5	-9.000066e-09
111	0x2aab3035	3.0409152e-13
112	0xb4eb7bf8	-4.386236e-07
113	0x32c923ab	2.34157e-08
114	0x177f52ef	8.249962e-25
115	0xa386b090	-1.4603086e-17
116	0x8c822c37	-2.0056282e-31
117	0xb4191619	-1.4257274e-07
118	0xadf30222	-2.7626849e-11
119	0xae48421d	-4.5533455e-11
120	0xa8526883	-1.1680004e-14
121	0xab89fc0a	-9.80439e-13
122	0x2da01766	1.8200285e-11
123	0x2605bfa1	4.640335e-16
124	0x0df47857	1.5066632e-30
125	0x1b045395	1.0945791e-22
126	0x1c594fa1	7.1902195e-22
127	0x2af46a16	4.341672e-13
128	0x94d96ecc	-2.1955102e-26
129	0x98532eb3	-2.7294688e-24
130	0x9f8a981a	-5.8696904e-20
131	0xa756b838	-2.9798331e-15
132	0x34481ef2	1.863771e-07
133	0x2e0cb1f4	3.199037e-11
134	0xb92a9648	-0.00016268448
135	0x2d6892b0	1.3220244e-11
136	0x26cdd230	1.4281704e-15
137	0xbb49d499	-0.0030796884
138	0x9d395d1f	-2.4532689e-21
139	0xb0d2607b	-1.5306932e-09
140	0x29482d26	4.444808e-14
141	0x25934104	2.5544491e-16
142	0x9f2aa7ea	-3.6137796e-20
143	0xb4a96f9c	-3.155991e-07
144	0x329ab782	1.801141e-08
145	0x31ca1b3e	5.882071e-09
146	0xbaca1743	-0.001541831
147	0x20e27f07	3.836995e-19
148	0x24e13c69	9.7680534e-17
149	0xa1d3ad1d	-1.4343739e-18
150	0x27c042e6	5.3363237e-15
151	0x1291695b	9.176759e-28
152	0xaa8b27f5	-2.4719086e-13
153	0x3bab4d22	0.005227701
154	0x3bcbe43c	0.006222276
155	0x341e2c0d	1.4730922e-07
156	0x30d2f087	1.5347873e-09
157	0xba501071	-0.000793702
158	0xb2552633	-1.2406917e-08
159	0xb1ec9140	-6.885017e-09
160	0x2113b028	5.003868e-19
161	0xb5884d96	-1.015537e-06
162	0x31273950	2.4334277e-09
163	0x398e86e8	0.00027184864
164	0xaca28be4	-4.619848e-12
165	0x3b627103	0.0034552224
166	0x384799b2	4.7588437e-05
167	0x25b8c281	3.2050713e-16
168	0xb5b9172a	-1.3790316e-06
169	0xaa82d0b8	-2.3237467e-13
170	0x3212f662	8.5543395e-09
171	0xb49c18a2	-2.9075187e-07
172	0xa98ec124	-6.339571e-14
173	0xb64fb136	-3.0948554e-06
174	0x380cd356	3.3575423e-05
175	0xb05061b1	-7.5808787e-10
176	0x3a1daf46	0.00060151925
177	0xb8e785cc	-0.0001103986
178	0x9e5d418f	-1.17132e-20
179	0xac7fc17e	-3.634509e-12
180	0x121d3a63	4.961243e-28
181	0xb82d2014	-4.127629e-05
182	0x3418dfa9	1.423747e-07
183	0x344b0f7b	1.891148e-07
184	0x2e36e0dd	4.1581728e-11
185	0x31610fa2	3.2750695e-09
186	0xb3304b2d	-4.1046565e-08
187	0xabaff55c	-1.2502599e-12
188	0x9405c652	-6.753896e-27
189	0x210ecc8a	4.8382177e-19
190	0xa1dd8001	-1.5009425e-18
191	0xb117532d	-2.2020672e-09
192	0x10ae2a57	6.8696134e-29
193	0x11c0e5c1	3.0433856e-28
194	0x97d796fe	-1.3932165e-24
195	0x22c89ac1	5.437396e-18
196	0x2fc7c883	3.634036e-10
197	0xaa5242f2	-1.8674973e-13
198	0xb4bfa605	-3.5697317e-07
199	0xa7e8c1de	-6.4603127e-15
200	0xa25737b5	-2.9167424e-18
201	0xb6338e62	-2.6755956e-06
202	0x995f6b97	-1.1550557e-23
203	0x2aad510c	3.078721e-13
204	0xa585399e	-2.3110865e-16
205	0x1ec0df64	2.0421183e-20
206	0x1b11ccce	1.2060295e-22
207	0x2fb1d2ce	3.2345898e-10
208	0xadc5f5f4	-2.2505532e-11
209	0xaf36bdbd	-1.6620212e-10
210	0x34f2bb71	4.5212394e-07
211	0x1c2a5031	5.6351927e-22
212	0x20ffd2fc	4.3338298e-19
213	0x1e1a8dcd	8.182016e-21
214	0x2425744f	3.587719e-17
215	0x90b65c8c	-7.1928933e-29
216	0x2853d53a	1.1759089e-14
217	0xb6c6a463	-5.919997e-06
218	0x363fe59b	2.8594866e-06
219	0xada4d6c2	-1.8740013e-11
220	0xacaeb452	-4.965397e-12
221	0x35aac577	1.2723457e-06
222	0xac143ca5	-2.106573e-12
223	0xade1bd0c	-2.5663492e-11
224	0x9c8261f7	-8.628002e-22
225	0x3082b31a	9.509649e-10
226	0x2ba0506d	1.1391006e-12
227	0xb4ddbd1e	-4.130206e-07
228	0x292a1dbd	3.7773377e-14
229	0xb6cb0699	-6.0506395e-06
230	0xb531671f	-6.60877e-07
231	0xa11d24cd	-5.3242375e-19
232	0xb0c8de09	-1.4615021e-09
233	0x26bb2404	1.2985494e-15
234	0x28b4f174	2.0088728e-14
235	0x2f9df4e8	2.873215e-10
236	0x24d0d5a1	9.056752e-17
237	0x32194dfc	8.923504e-09
238	0xb2817f5f	-1.5075498e-08
239	0xac317e85	-2.5223445e-12
240	0x36845380	3.9436272e-06
241	0xb4654309	-2.1351674e-07
242	0x18a5bcb3	4.2842038e-24
243	0x29259987	3.6770524e-14
244	0x8deea622	-1.47078775e-30
245	0x360ae4d7	2.0696805e-06
246	0x2fe40bf5	4.1481454e-10
247	0xae439384	-4.4468887e-11
248	0xa9e62be5	-1.0221666e-13
249	0xad0692c3	-7.649606e-12
250	0x2f375d6f	1.6676947e-10
251	0xa606a730	-4.671717e-16
252	0x0f0f27cf	7.058111e-30
253	0x1bc07c55	3.1844083e-22
254	0x1b05d468	1.1070134e-22
255	0x2bbd3f68	1.3446856e-12

module.transformer.blocks.0.mlp.fc1.bias f4 [128]
0	0x38310514	4.2204818e-05
1	0xb6cf3785	-6.175544e-06
2	0x3bcd4d23	0.006265299
3	0x36ebf8fc	7.0325314e-06
4	0x38e2e258	0.000108186796
5	0x3b2a64a9	0.002599994
6	0xb6a7011c	-4.977117e-06
7	0x393809f8	0.00017551321
8	0xbbc2605c	-0.005931897
9	0xb9eb4b0e	-0.00044878613
10	0x3b1a21b2	0.002351862
11	0x3b8f2779	0.004368719
12	0xba89329c	-0.0010467353
13	0xb6b68072	-5.4389757e-06
14	0x37e7e6c7	2.764481e-05
15	0xb9cb3765	-0.0003876045
16	0x3b0b1a82	0.0021225517
17	0xbc05c1ba	-0.008163864
18	0xb63c7632	-2.8082982e-06
19	0xbb9dbbf8	-0.0048136674
20	0xbc6c85fe	-0.014436243
21	0x38fb61c4	0.00011986823
22	0xb9f3f657	-0.0004653211
23	0xb7d1baa3	-2.5001651e-05
24	0xbc5c1438	-0.013432555
25	0xbac0ff36	-0.0014724496
26	0xbba49d45	-0.005023631
27	0x3c4a0cfd	0.012332198
28	0x3c372f4e	0.011180712
29	0xbb7fa798	-0.0039009806
30	0xbbc7da70	-0.006099038
31	0x3c119bf3	0.008887279
32	0x3a4e48a7	0.00078691024
33	0x3bcd46c1	0.006264538
34	0xbba89968	-0.0051452406
35	0xb89ec50a	-7.5707285e-05
36	0xbbbb252d	-0.005711219
37	0xb83a232a	-4.4378605e-05
38	0xba6e4655	-0.000908946
39	0xbb7cbc61	-0.003856443
40	0x3a1991dc	0.00058582216
41	0x39432dc8	0.00018613704
42	0x39515c7c	0.00019966246
43	0xba1fccd3	-0.000609589
44	0xbc48b14e	-0.012249304
45	0x3bc420ae	0.005985341
46	0x391701c7	0.00014401144
47	0xb8a5b4b9	-7.901475e-05
48	0xbd80dd38	-0.06292194
49	0xbbdd7d73	-0.0067593395
50	0x3bb2b809	0.0054540676
51	0x38250009	3.93391e-05
52	0xb80908bd	-3.2671483e-05
53	0x3c3a1444	0.011357371
54	0x362bc9b8	2.5598401e-06
55	0x3996b96b	0.00028748377
56	0x3c267e39	0.01016193
57	0xbbaf18cd	-0.0053435327
58	0x3abeafd8	0.0014548255
59	0xbac58782	-0.0015070292
60	0x3969e0b0	0.00022304314
61	0x3b1ea32f	0.0024206152
62	0xb8bdf258	-9.057362e-05
63	0x37cf049f	2.4678475e-05
64	0xba0d88b1	-0.0005399092
65	0x3a51973c	0.0007995253
66	0x3a24cc14	0.00062865135
67	0x3a1455b7	0.00056585245
68	0xb962a59c	-0.00021614734
69	0xb6a67a56	-4.9614273e-06
70	0xbb8696eb	-0.0041073463
71	0x3a079d3f	0.0005173273
72	0x38b9fb0c	8.8682486e-05
73	0xb8acf8c5	-8.247936e-05
74	0xbb3b8936	-0.002861572
75	0xbbd10046	-0.0063782064
76	0xba94722c	-0.001132553
77	0xbb2ea58f	-0.0026648974
78	0xbb455acb	-0.0030113931
79	0xb6e9265e	-6.9484076e-06
80	0xbbbc27a6	-0.005742031
81	0xbbe6ad78	-0.007039722
82	0xbbaddbce	-0.005305744
83	0xb8379c60	-4.3776236e-05
84	0xb86c3854	-5.6319244e-05
85	0x3b6396d8	0.003472736
86	0x3a7c8671	0.00096330704
87	0x3c4de688	0.01256717
88	0x38c5a18c	9.4237825e-05
89	0xbbc8d4f2	-0.0061289007
90	0xb9703041	-0.0002290616
91	0xb85d391b	-5.274369e-05
92	0x3751dcc2	1.250877e-05
93	0x38b45dd8	8.6005486e-05
94	0xba260c1f	-0.00063342036
95	0x3b3d2a20	0.002886422
96	0xbc0b39e2	-0.008497687
97	0xbc145575	-0.009053578
98	0xbc5a0960	-0.013307899
99	0x3bcde26d	0.0062830956
100	0xbc238d99	-0.00998249
101	0x3c21e43d	0.009881076
102	0xbb7d366e	-0.003863718
103	0x3bdadbaf	0.0066790204
104	0x39035ab9	0.0001252693
105	0x37296390	1.0096366e-05
106	0xb8458017	-4.7087753e-05
107	0x3780dca9	1.5361542e-05
108	0xbc484863	-0.01222429
109	0x3a837171	0.0010028315
110	0x3933f69d	0.00017162641
111	0xbc09d326	-0.008412158
112	0xbb14e5e3	-0.002272003
113	0xbbef8543	-0.007309587
114	0xb80b8ad8	-3.326949e-05
115	0x3b13c9ec	0.0022550775
116	0xb8273fe4	-3.9875405e-05
117	0xbb19b6c2	-0.002345488
118	0x3c763767	0.015027857
119	0x3a9b7572	0.0011860563
120	0xbc6808f6	-0.014162293
121	0xbbc844e4	-0.006111728
122	0xbd8c2c0f	-0.06844341
123	0x3c1589a5	0.009127055
124	0xb95a7d69	-0.00020836819
125	0xbd5cbcec	-0.053891107
126	0xbbbb2ae7	-0.0057119015
127	0xb8502769	-4.9627768e-05

module.transformer.blocks.0.mlp.fc2.weight f4 [64, 128]
0	0xb5eca7fd	-1.7632261e-06
1	0xb59bedb6	-1.1617583e-06
2	0x3ab5fb30	0.0013884064
3	0x36c691cd	5.9178333e-06
4	0x370ea808	8.502982e-06
5	0x3acf12af	0.0015798415
6	0xb60a36f3	-2.0595587e-06
7	0x38716fe7	5.7563095e-05
8	0xbbdb971a	-0.0067013623
9	0xb8da1bd5	-0.00010400234
10	0xba6f9860	-0.0009139832
11	0x3b94c9f7	0.0045406776
12	0x3a507061	0.0007951316
13	0x36c5dd1a	5.896797e-06
14	0x36841e0e	3.9374054e-06
15	0xb8950c11	-7.107121e-05
16	0xbaaa0c35	-0.0012973609
17	0xba27a5c2	-0.0006395244
18	0x34c11253	3.5962384e-07
19	0x3a9bc54c	0.001188436
20	0xbb2f3c2a	-0.0026738741
21	0xbafc5a57	-0.0019252998
22	0xb8fe8ce2	-0.00012137905
23	0x3748cd94	1.1968794e-05
24	0x3a09104d	0.0005228564
25	0x3aadb8f1	0.0013253969
26	0xbb13ac09	-0.002253296
27	0x3b0febef	0.0021960696
28	0x3b39e8ce	0.0028367522
29	0x3a328af0	0.00068108644
30	0x3a07ba34	0.0005177588
31	0x3af908c9	0.001899981
32	0x3953b72e	0.00020190768
33	0xbab68e77	-0.0013927956
34	0x3adc911a	0.0016827912
35	0xb5bc8f56	-1.4048808e-06
36	0xbbd3d667	-0.0064647677
37	0xb6cc8830	-6.095528e-06
38	0xb9608ada	-0.00021414031
39	0xba7a5463	-0.0009549318
40	0x3928a964	0.00016084831
41	0x388d1085	6.726481e-05
42	0x38a41642	7.824275e-05
43	0xb92c043f	-0.0001640478
44	0xbaf66877	-0.0018799443
45	0xba561b45	-0.00081675156
46	0x3823bd0f	3.9038303e-05
47	0x3b209013	0.0024499937
48	0x3b0b6816	0.0021271757
49	0x393ddd0e	0.00018106794
50	0xbae868d1	-0.0017731433
51	0x36d03afc	6.2057497e-06
52	0xb732b1f5	-1.0651061e-05
53	0x3b0b0f7b	0.0021218944
54	0xb60497f0	-1.9757972e-06
55	0x389936cc	7.305815e-05
56	0x3a921a10	0.0011146683
57	0x3a501b51	0.0007938641
58	0x39b07623	0.00033657355
59	0x3a495fa7	0.0007681795
60	0x38110c3d	3.458209e-05
61	0x3b572b08	0.0032832045
62	0xb87113aa	-5.747719e-05
63	0xb8ae4843	-8.310426e-05
64	0xb90a3917	-0.00013181973
65	0x3a0d7534	0.0005396188
66	0x3934dc22	0.00017248144
67	0x39216677	0.00015392328
68	0xb8cc19e6	-9.732302e-05
69	0xb611b629	-2.1712715e-06
70	0x3b056ee7	0.0020360292
71	0x3b702957	0.0036645734
72	0x37dd3e4b	2.637426e-05
73	0xb74a9eff	-1.2077157e-05
74	0x3a11f30f	0.00055675296
75	0x39e118ee	0.00042933918
76	0xb9cd32c3	-0.00039138467
77	0xba736382	-0.0009284542
78	0xbb2940c8	-0.0025825966
79	0xb690be99	-4.313723e-06
80	0x3ab3b3f9	0.0013710252
81	0xb881996e	-6.179778e-05
82	0xbaa12051	-0.0012292956
83	0xb787b34f	-1.6176751e-05
84	0xb71b2f6e	-9.249763e-06
85	0xbaa56757	-0.0012619299
86	0x39546dad	0.00020258753
87	0x3b3d18ed	0.0028853968
88	0xb8cf1a03	-9.875374e-05
89	0xbaed7045	-0.0018115124
90	0xb8680657	-5.5319015e-05
91	0xb6e95662	-6.9539974e-06
92	0xb78e1cc7	-1.694112e-05
93	0x382b83d7	4.0892362e-05
94	0xb9b6eceb	-0.00034890263
95	0x3a32dea8	0.00068233395
96	0xba075223	-0.00051620806
97	0xbb2b0696	-0.0026096455
98	0xbb419f62	-0.0029544462
99	0xba4d0d7e	-0.000782214
100	0xbb0a2977	-0.0021081844
101	0x3b0df65c	0.0021661734
102	0xba8205c7	-0.0009919935
103	0xba202ee1	-0.0006110501
104	0x36ecbca9	7.055311e-06
105	0xb5851f24	-9.918335e-07
106	0xb63bbcc5	-2.797505e-06
107	0x370b3c44	8.299077e-06
108	0xb9e4f9b1	-0.00043673583
109	0x3988173e	0.00025957258
110	0x3831da7d	4.240357e-05
111	0xbadd74a3	-0.0016895722
112	0xba33c5e6	-0.0006857797
113	0x39233161	0.00015563286
114	0x34f327c0	4.52912e-07
115	0xba4317b2	-0.00074421905
116	0xb755d3de	-1.27451185e-05
117	0xbacca6be	-0.0015613658
118	0x3b862052	0.0040932084
119	0x3996aa3c	0.00028737064
120	0xba3a6e96	-0.00071118155
121	0x3a254a8c	0.0006305359
122	0x3b05729a	0.0020362497
123	0x3a4cb3cf	0.0007808776
124	0xb8c2fdb3	-9.297896e-05
125	0x3b165403	0.0022938258
126	0xbbc7b9e5	-0.0060951584
127	0xb7567c24	-1.2784298e-05
128	0x3649fd5c	3.0098809e-06
129	0x34f639a6	4.5863015e-07
130	0xb8791052	-5.9381426e-05
131	0xb6292c99	-2.5208922e-06
132	0xb6f679f9	-7.345571e-06
133	0xba14bba9	-0.00056737155
134	0x3655bb22	3.18484e-06
135	0xb7b8d067	-2.2031554e-05
136	0x3a65fa57	0.000877296
137	0x38815551	6.167091e-05
138	0x3921840c	0.00015403348
139	0xbad5a90e	-0.0016300993
140	0x38b4efe9	8.6277556e-05
141	0xb665ad33	-3.4224474e-06
142	0xb5826e1f	-9.717804e-07
143	0x381ab54b	3.6885303e-05
144	0xba894ef9	-0.0010475806
145	0xb991e0c7	-0.00027824027
146	0xb5ba7255	-1.3891355e-06
147	0xba82da8b	-0.0009983344
148	0x3a48844c	0.00076491083
149	0x39e3a62c	0.00043420622
150	0x37ec184c	2.8144706e-05
151	0x37048f09	7.901116e-06
152	0xbacb64f1	-0.0015517754
153	0x3957f0d2	0.0002059371
154	0x3aae1f8d	0.0013284549
155	0xbaebdfd3	-0.0017995782
156	0xba59fc72	-0.00083155103
157	0xb9ae944c	-0.00033298356
158	0xba06176f	-0.0005115186
159	0xb8d9cf04	-0.00010385926
160	0xb91093d7	-0.00013787985
161	0x3a8a2868	0.0010540606
162	0xbab660e6	-0.0013914376
163	0x35de3062	1.655437e-06
164	0x3b09fbc3	0.0021054603
165	0x369e171c	4.711457e-06
166	0x385bc035	5.2392676e-05
167	0x39aa9335	0.00032534605
168	0xb86e760c	-5.685356e-05
169	0xb7fba575	-2.9998579e-05
170	0xb7b53f69	-2.1606409e-05
171	0x39131ffb	0.00014030926
172	0x39d9a23b	0.00041510336
173	0x39e1d4f0	0.00043073995
174	0xb7194710	-9.136056e-06
175	0xba96bbef	-0.00115001
176	0x3c066aba	0.0082041565
177	0xb95cb305	-0.00021047525
178	0x3b0b3f0f	0.0021247303
179	0xb623e5f5	-2.4422745e-06
180	0x36c9665c	6.002183e-06
181	0xbac945cf	-0.0015355888
182	0x35acc8fd	1.2873494e-06
183	0xb8045053	-3.154606e-05
184	0x3a1862e1	0.0005813074
185	0xb9c927c5	-0.00038367338
186	0xb91030c2	-0.00013751074
187	0x38338944	4.2804764e-05
188	0x367c9483	3.7637371e-06
189	0xba24757b	-0.00062736095
190	0x3730eee1	1.0546036e-05
191	0xb713dfdf	-8.814007e-06
192	0x388ca80f	6.7070236e-05
193	0xb8f8abdf	-0.00011857575
194	0xb6ef8101	-7.137773e-06
195	0xb8963870	-7.16307e-05
196	0x3714a84a	8.86067e-06
197	0x36782748	3.6977744e-06
198	0xba946b63	-0.0011323508
199	0xb9dd6967	-0.00042230936
200	0xb717bc59	-9.0441545e-06
201	0x372843e2	1.00293855e-05
202	0x39eb2270	0.0004484835
203	0xb819f85f	-3.6709356e-05
204	0x39199f65	0.00014650596
205	0x386f3b91	5.7037516e-05
206	0x3a371656	0.00069842243
207	0x3618a36b	2.2744887e-06
208	0xba576d74	-0.0008217909
209	0x38a2c5ac	7.761581e-05
210	0x39f95b29	0.000475609
211	0x3602f5ec	1.9514655e-06
212	0x3659ceef	3.245597e-06
213	0x3a518ef2	0.0007994018
214	0xb8a655ac	-7.9314545e-05
215	0xbb1afc61	-0.0023648965
216	0x37659598	1.3684294e-05
217	0x3aa6afc7	0.0012717181
218	0x37f64726	2.9358616e-05
219	0x3632c793	2.6640234e-06
220	0x3703ff8b	7.867707e-06
221	0xb72b866c	-1.0223692e-05
222	0xb554ab5a	-7.9225504e-07
223	0xb94c4718	-0.0001948144
224	0xb9d4153d	-0.00040451615
225	0x3a4d48d3	0.0007830981
226	0x3b069aed	0.002053912
227	0x3a156d60	0.0005700197
228	0xb9510ec4	-0.00019937294
229	0xb9b810d1	-0.00035107744
230	0x39a50177	0.00031472344
231	0x3a1ec361	0.00060563354
232	0xb5a33913	-1.2161057e-06
233	0x358fa899	1.0703399e-06
234	0x361cc10d	2.3358182e-06
235	0xb5f0e1c1	-1.7947096e-06
236	0xba1ba285	-0.0005936998
237	0xb91e07ab	-0.00015070911
238	0xb7c02cd8	-2.2909066e-05
239	0x3a6dfecb	0.00090787996
240	0x39a2b96c	0.00031037198
241	0xb8ab2c3d	-8.1621554e-05
242	0xb52fdd2e	-6.551444e-07
243	0xba0c463f	-0.00053510437
244	0x36e6459a	6.862637e-06
245	0x3a0f0ee6	0.0005457237
246	0xba6e6abe	-0.00090948853
247	0xb93436b7	-0.0001718652
248	0x3b0e1fee	0.0021686512
249	0xb9a1a0ed	-0.00030828212
250	0x3c02ffeb	0.007995586
251	0xb9a9086e	-0.00032240473
252	0x38f4c3e3	0.000116713134
253	0x3c3e2ba6	0.011607086
254	0x3b0649dd	0.0020490803
255	0x3681bf56	3.866774e-06

module.transformer.blocks.0.mlp.fc2.bias f4 [64]
0	0xbcc2c444	-0.023775227
1	0x3d4aceab	0.0495135
2	0x3d465a86	0.048426174
3	0x3ca5dd91	0.020247253
4	0x3de241c6	0.110477015
5	0x3e377eb8	0.17919433
6	0xbaa913b3	-0.0012899548
7	0xbc00840e	-0.007843984
8	0x3db176f7	0.08665269
9	0x3d2f6a09	0.042825732
10	0xbdaa95b8	-0.08329338
11	0x3d42e467	0.047581103
12	0x3dd12b56	0.10213344
13	0x3dbf5ea7	0.093442254
14	0x3ce8739a	0.028375436
15	0xbd11824a	-0.035524644
16	0xbca8e5ef	-0.020617453
17	0xbe7021a5	-0.23450334
18	0xbe76eef2	-0.24114588
19	0xbcb5f2e8	-0.022210553
20	0x3d0f1f5f	0.034942027
21	0x3b20fe51	0.0024565647
22	0xbcf52022	-0.029922549
23	0xbaafeb08	-0.0013421485
24	0x3d7f0c4b	0.062267583
25	0x3be50c94	0.006990025
26	0xbd9a5ec4	-0.07537606
27	0x3d25c511	0.04047114
28	0xbd7b4bd9	-0.06135163
29	0xbd6e660d	-0.058202792
30	0x3d867b5c	0.06566498
31	0x3c8b5bbe	0.01701152
32	0xbc4faefe	-0.012675999
33	0x3ae819b1	0.0017707852
34	0xbda1963d	-0.07889984
35	0x3d67604b	0.056488317
36	0xbd2be791	-0.041968886
37	0x3d8676a7	0.065656
38	0x3c4b826e	0.012421234
39	0x3cb54b44	0.022130616
40	0xbcb2cc8f	-0.021826057
41	0xbe05e51e	-0.13075683
42	0xbd98bbd8	-0.07457703
43	0xbdbcc3fa	-0.09217067
44	0x3d3dbc63	0.046322238
45	0x3ce35700	0.027751446
46	0x3da0339f	0.07822346
47	0xbe0de082	-0.13855174
48	0xbd8b89b4	-0.06813374
49	0x3dd0e8dc	0.102006644
50	0x3d84bb75	0.06481067
51	0x3c79687b	0.015222664
52	0x3cf9a541	0.030474307
53	0xbde0f3b8	-0.10983986
54	0x3cf2979d	0.02961331
55	0x3e4ae70a	0.19814697
56	0x3e49f1a0	0.19721079
57	0xbb67d654	-0.0035375552
58	0xbc7ab917	-0.015302918
59	0xbdacf493	-0.08445086
60	0xbbc469ef	-0.0059940736
61	0xbd5822d8	-0.052767605
62	0xbe06c6e6	-0.13161811
63	0xbc7430c2	-0.014904203

module.transformer.blocks.1.norm1.weight f4 [64]
0	0xba1b6c33	-0.00059289037
1	0xbaa98976	-0.0012934643
2	0x3dd53612	0.10410704
3	0x3dbbdbf5	0.09172813
4	0x3ef6ddf1	0.48216203
5	0x3f1786c6	0.5919002
6	0x36d15aee	6.239271e-06
7	0x3e4502f3	0.19239406
8	0x3edcbc6d	0.43112507
9	0x392f59b7	0.00016722722
10	0x3b3043ef	0.002689596
11	0x3e7793c9	0.2417747
12	0x3df688a5	0.120377816
13	0x3c82f1a1	0.015984358
14	0xba43a176	-0.0007462719
15	0x3e737c46	0.23777875
16	0x3d58fa80	0.05297327
17	0xb92f95db	-0.00016745126
18	0x3acf59d1	0.0015819614
19	0xbc8ef321	-0.017449917
20	0x3ea36884	0.31915677
21	0x3707413e	8.061817e-06
22	0xb81060f8	-3.4422585e-05
23	0xb8b06227	-8.410616e-05
24	0x3d893f99	0.067015834
25	0x3dea2f17	0.11434763
26	0x3e8d202c	0.27563608
27	0xb47149fa	-2.2471787e-07
28	0x3eb1ddf9	0.34739664
29	0x3ef94b3a	0.48690206
30	0xb80f0b5b	-3.4104432e-05
31	0x3e783909	0.24240507
32	0x3cd9de92	0.026595388
33	0x3df7093c	0.12062308
34	0xb8feb886	-0.00012146034
35	0x3efb093f	0.49030492
36	0x3e9c7406	0.3055727
37	0x3ef8718d	0.48524132
38	0x3f14961c	0.5804155
39	0x3ec036a8	0.375417
40	0x3db86555	0.090037026
41	0x3ef5a46c	0.47977006
42	0x3e497c90	0.19676423
43	0x38bbea2d	8.9604735e-05
44	0x3e3a4ead	0.18194075
45	0x3dddcecd	0.1083046
46	0x3e8f4d99	0.2798889
47	0x3f053deb	0.52047604
48	0x3f4040ff	0.75099176
49	0x3f02bbcd	0.5106781
50	0x39809d41	0.00024531226
51	0x3be83616	0.0070865257
52	0x3976bacd	0.00023529977
53	0x3c1fc110	0.0097506195
54	0x3e8697af	0.262876
55	0x3e62e523	0.22157721
56	0xb9a614da	-0.00031677523
57	0x3e295fe4	0.16540486
58	0x3ede8811	0.43463185
59	0x3cc3d4de	0.023905214
60	0x39a3b62b	0.00031225508
61	0x39e4a73f	0.00043612157
62	0x38bdd954	9.052703e-05
63	0x3d365894	0.04451807

module.transformer.blocks.1.norm1.bias f4 [64]
0	0xb96d1dbe	-0.00022613161
1	0xba66f613	-0.00088104716
2	0xbc7f0a70	-0.015566453
3	0xbcd9af42	-0.026572827
4	0x3d3f1b82	0.046657093
5	0x3d867dfd	0.06566999
6	0xb78dc88a	-1.6901893e-05
7	0x3cf84889	0.030308025
8	0x3ca9d0a8	0.020729378
9	0x3990fbfc	0.00027653563
10	0xbc335fa5	-0.010948096
11	0x3cb4493c	0.022007577
12	0xbd04bdee	-0.032407694
13	0xbc34d7f0	-0.011037812
14	0x390490c0	0.00012642425
15	0xbd0de5c2	-0.034642942
16	0x3b8d3516	0.004309307
17	0x38e5f847	0.00010965816
18	0x3ab1cbdd	0.0013564784
19	0x3cb64f82	0.02225471
20	0xbd05ff65	-0.032714266
21	0xb826caaa	-3.976623e-05
22	0xb8e2bf1c	-0.00010812117
23	0xb8956b82	-7.1248985e-05
24	0x3bd6d8b6	0.0065565957
25	0x3bfadbd5	0.0076556006
26	0x3d16dba3	0.036830556
27	0xb5291a07	-6.299528e-07
28	0xbd7779fe	-0.060419075
29	0xbce5b770	-0.028041571
30	0x3750e4e1	1.2451056e-05
31	0xbd251578	-0.040303677
32	0xba4bea85	-0.00077787816
33	0xbccfda71	-0.025372716
34	0x390a85b0	0.00013210508
35	0x3d00b455	0.031421978
36	0xbc16d64b	-0.009206365
37	0x3ccf0925	0.025272915
38	0x3d941ed5	0.07232443
39	0x3d22beb6	0.039732657
40	0x3c7f762b	0.015592138
41	0xbd768e77	-0.06019446
42	0xbcbd2201	-0.023087503
43	0x370f1fd2	8.530873e-06
44	0xbc7f5c5c	-0.015585985
45	0xbca39e75	-0.01997302
46	0x3c34177f	0.01099193
47	0xbd01627e	-0.03158807
48	0x3b042bfc	0.0020167818
49	0x3d752e8a	0.059858836
50	0xb9024557	-0.00012423597
51	0xbb1b896f	-0.002373304
52	0xb893c842	-7.046807e-05
53	0x3b5ea2c1	0.003397152
54	0xbcfaf4d0	-0.030634314
55	0xbd4ffa84	-0.05077602
56	0x3744563a	1.1702587e-05
57	0xbd207eb3	-0.03918333
58	0xbd2c3832	-0.04204578
59	0x38a16260	7.695402e-05
60	0xb956cc27	-0.00020484683
61	0xb855396c	-5.0836636e-05
62	0xb7aa3f0c	-2.0294938e-05
63	0x3cb50521	0.022097172
