graph_transformer/saved_models/phikon_transformer_model.pth (torch, 645595 bytes, 46 tensors)

module.cls_token f4 [1, 1, 64]
00000000: b9de 663b de96 953b d55a 313e 772c f43c
00000010: e20a f6bd 424c edbc 4c00 6f3b f048 a23c
00000020: 7bfb ac3e 06ee a6be 8724 81bc b661 24bb
00000030: 6b48 d3ba 34e5 c93c d456 e73d db46 70be
00000040: c833 063e da09 41bc 91b4 163b e181 31bb
00000050: 45ed 183c a2e0 0dbe 6849 1c3e 6609 c43d
00000060: c6c9 dd3d d796 52bb cbb5 ddbc 8b5d 99b9
00000070: 7228 1a3e e60d 843b ea60 4fbb 8da0 b63c
00000080: d46c 64bd 9b4b 8b3d 19b9 433d 4c0d bc3c
00000090: 441f ca3c 92ec 2f3d cba1 c83c 7e20 403c
000000a0: 42a3 02bd a0ee 51bc 3468 043d 7205 0d3e
000000b0: 45db 293d 8c1b a9ba 678f 3a3b cd69 913b
000000c0: 68b0 c03a c640 81ba 04ab 8fbd 3812 89be
000000d0: a8b6 623b 3bf9 f73a 8f25 09bd 7f31 f93d
000000e0: 1f7c 6ebe a09f b1ba 9d9d 01bc 3f50 dbbd
000000f0: 3d11 093e f059 c13d 4024 193c c773 733c
0.0035227968 0.004565104 0.17319806 0.029806359 -0.120137945 -0.028967027 0.0036468683 0.01981017
0.33785614 -0.32603472 -0.015764488 -0.0025082654 -0.0016119605 0.024645425 0.11295858 -0.23464529
0.1310569 -0.011782134 0.002299581 -0.002708547 0.009333913 -0.13855222 0.15262377 0.09572105
0.10829501 -0.0032133365 -0.027064225 -0.0002925213 0.15054491 0.004029977 -0.0031643459 0.022293353
-0.05576785 0.0680153 0.047783945 0.02295556 0.024673112 0.04295022 0.024491211 0.011726497
-0.031893976 -0.01281324 0.03232594 0.13771608 0.041468877 -0.0012901886 0.0028466822 0.0044376613
0.0014701011 -0.0009861223 -0.070150405 -0.26771712 0.0034593735 0.0018918881 -0.033483084 0.12167644
-0.23289536 -0.00135516 -0.007911113 -0.10708665 0.13385482 0.09440982 0.009347022 0.014859146

module.transformer.blocks.0.norm1.weight f4 [64]
00000000: 2913 9d3b bdf4 e03d 0db8 313f eed1 073f
00000010: a372 363f 8209 903f efcd 81b9 aca1 ef3e
00000020: c53e 5d3f b17a 6b3f 8c9a c13e 4471 373e
00000030: 2114 933e 08d6 ed3e 261e 3b3f 3846 913f
00000040: 64a2 293f 73ee 883e 1804 123d 022c 533f
00000050: f76c 153f e426 263f 021a 413f c572 823f
00000060: 52a2 5c3f ba59 c43d f7ee ae3e bb03 8b3f
00000070: c8d9 333f a0ce ca39 c84c a23e 6736 5b3f
00000080: 966c 2c3f 9e83 c13e 72fd ed3e 8d75 b53d
00000090: ddb5 863e 5e4e 333f 18b6 1e3c 43ba 823e
000000a0: 6979 823e e07e 3f3d fa2b c63e 947b 913f
000000b0: 59db 933e 2da7 00b9 a84c d33d 5382 503e
000000c0: 2c54 9a3d e4c0 2fb9 9a52 f73e 5381 683f
000000d0: c06c f13e 93ca 843a c22f 7b3f 0b6c 573f
000000e0: d8a2 723f 9973 c6b9 70bc db3e d12b 5c3f
000000f0: 6225 293f 2114 2b3f 1733 4a3d fc60 e83e
0.004793544 0.1098418 0.69421464 0.530547 0.7126867 1.1252902 -0.0002475823 0.46803033
0.86423904 0.9198409 0.37813222 0.17914301 0.28726295 0.46452355 0.7309288 1.1349554
0.66263413 0.26744422 0.035648435 0.82489026 0.5836939 0.6490309 0.7543031 1.0191275
0.8618518 0.095874265 0.3416669 1.0860513 0.7025418 0.0003868239 0.31699204 0.85629886
0.6735319 0.37795728 0.46482426 0.08860312 0.26310626 0.70041454 0.009686969 0.2553273
0.25483254 0.046751857 0.38705426 1.1365838 0.28878286 -0.00012269309 0.103173554 0.20362215
0.07535586 -0.00016761158 0.48305207 0.90822333 0.47153282 0.0010131173 0.9811975 0.84149235
0.9477973 -0.0003785163 0.42917204 0.8600436 0.66072667 0.6682759 0.04936513 0.45386493

module.transformer.blocks.0.norm1.bias f4 [64]
00000000: 1e7f b9bb f365 1dbd 4655 70bc ee89 e8bd
00000010: cd2b 153c 5d1f bd3d 88a4 cfb8 c4fe acbc
00000020: 0c83 8a3e 9223 5abe 6705 31bd ab65 a8bd
00000030: 7d71 a33c ab3a 623d e086 8f3e 39ee 7abe
00000040: 806d 803e de9d 53bc a926 c2bc 9016 98bd
00000050: 10d9 a4bd fcb7 b0bd 79e8 893e 6405 363e
00000060: 64ec b63d 1835 be3d b677 0fbe 1956 ff3d
00000070: 9e7a cc3d 2c2c e239 a050 6e3d aaac 153e
00000080: 1da5 5e3d 1373 313d c370 e43d cbb6 49bd
00000090: 4a7d 4ebe 3d23 6c3e 5f92 b53c 3c01 6cbe
000000a0: 306b 34bd 8083 8f3d c584 593d 0eab 153d
000000b0: fe81 133d 68dc 4d39 736a 563d 5d07 b8bd
000000c0: 218d 753c c906 3139 2415 85bd 734e 35be
000000d0: 0d98 0fbe 7e73 c5ba c3a6 813d 14ca 56bd
000000e0: fbe7 65be 27fa 2039 57e2 88bc 3bc8 e73c
000000f0: ab23 253e 53f3 b93d d718 21bd fad3 7dbe
-0.0056609055 -0.038427304 -0.014668768 -0.11354433 0.009104681 0.09234498 -9.9011755e-05 -0.021117575
0.27053106 -0.21302631 -0.043218043 -0.082225166 0.019951576 0.05523173 0.2803259 -0.24504937
0.25083542 -0.012916056 -0.023700075 -0.074261785 -0.08049214 -0.08628842 0.26935175 0.17775494
0.08931807 0.092874706 -0.1401051 0.12467594 0.09984325 0.0004313899 0.05818236 0.14616647
0.054356683 0.043322634 0.1115432 -0.04924659 -0.20164981 0.23060317 0.022164522 -0.23047346
-0.044047534 0.070075035 0.053105135 0.036540084 0.036012642 0.00019632431 0.05234761 -0.089857794
0.014987261 0.00016882563 -0.06498173 -0.17705707 -0.14022847 -0.0015064327 0.063306354 -0.05243881
-0.22451775 0.00015351978 -0.01670949 0.02829372 0.16126888 0.090796135 -0.03933033 -0.24787894

module.transformer.blocks.0.attn.qkv.weight f4 [192, 64]
00000000: bd63 0c3a 5e0d 4e3b 1313 c2bd 5af2 b1bc
00000010: e952 b83d 511e 843d e85f e238 b0b4 ecbc
00000020: 22d5 4abe 67ef 2d3e 2ff5 f83b 7317 8d3b
00000030: 7e57 103c 5ee1 0f3b d1a2 9cbd 9941 773d
00000040: bc46 81bd 6ce5 7cba 4ae5 d33a 7199 0e3a
00000050: 8e12 5fbb 3e6e ae3d d089 9bbd a852 2dbd
00000060: 8c3a 10bd be38 7dbb 48a3 333c 86b0 173d
00000070: b939 99bd e250 ab36 1887 32bc 304e e03c
00000080: 5c72 163c d7d4 f2b8 1806 7cbc f26f 393b
00000090: 8fcc 553c 8473 03bd e709 e1ba 5d47 843c
000000a0: 9af2 303c 739a 8dbb ce97 3b3c 58b2 4ebc
000000b0: ac04 69bc 9fa5 7c38 ed77 78bb e287 053c
000000c0: 5949 4cbb 2c70 3f38 8d79 7a3c 2503 1e3e
000000d0: 287a 27bc 2179 9639 7f8f 923d d3c2 3bbd
000000e0: 59d1 d03d 8f0c 8e36 ce1e 8ebb 485d cd3d
000000f0: dfa3 ccbd 2777 80bd 8293 513b 409e 683c
00000100: c743 2d3a 357a 983b d411 2bbe 7ff9 04bd
00000110: 8ff2 0f3e b400 fd3d 6fb0 cdb6 1575 52bd
00000120: 9e0e 9ebe 93bb 913e b76d 9f3c 1094 dc3b
00000130: efa3 693c a72d b2ba 77f0 0abe 9894 0c3e
00000140: 6b6b f8bd 200f 5b3b 419d 083b 8e0e 3dbb
00000150: fa2a 4e3a 8c0d 213e f1e4 0cbe 0f8d 82bd
00000160: ddc1 b7bd c0de c2bb ca3a bd3c 8554 2a3d
00000170: 2393 16be 3e5b 01b8 dab6 7ebc dd2a 343d
00000180: 65f0 aa3c cf85 4bbc 2858 15bd 80af 933b
00000190: 3493 b33c b0fd 69bd 2248 06bb 3df0 f83c
000001a0: 97d9 bb3c 56b3 e8bb 04cf 193c 5e05 97bc
000001b0: 797a 04bd 5b2b a138 b704 d1bb 93fc 4e3c
000001c0: 66b2 99bb e949 aa38 58e7 1e3d ac1d 913e
000001d0: d793 2abc a043 e839 54f3 af3d 7489 a9bd
000001e0: ec2c 423e a088 6e37 6873 0ebc 9576 103e
000001f0: 7c5e 27be 7c83 e0bd 3d84 9e3b 2d17 d43c
00000200: 966f 0239 4885 053b 2894 05bd 2949 3fbc
00000210: 5587 073d 326d 873c f46f ec38 33bf 25bc
00000220: 381b 93bd 6b53 6c3d 3f37 fd38 cf3d 3e3b
00000230: 8492 263b bef0 893b 8f70 cdbc 541a 143c
00000240: 81d2 7cbc 2ca0 71b9 9281 613a 9c3b f1b8
00000250: b671 9cbb 8c19 ea3c 090e bebc 7d90 36bc
00000260: 5781 81bb 8555 2dbb 78b0 943b ceab cd3c
00000270: 06a7 acbc c984 1038 d337 97bb 3f69 633c
00000280: 76f2 22b9 8300 ca3a a797 62bb ef60 e83a
00000290: 9b62 823b 258c 05bc b9dc 8fba ba64 b93b
000002a0: 6c3f 883b 986f 17bb 9e12 8a3b 689d 183a
000002b0: 3437 98bb 2c65 9237 1cb2 19bb 7a0d 843b
000002c0: 619a 08bb 1e46 9d37 3dee 2d3b 0410 603d
000002d0: 2ddf c1bb a9a0 adb7 438b 0c3d 34dc 84bc
000002e0: 6cb6 e63c e3f0 ec36 aeef 2fbb b12c 343d
000002f0: 5dd3 11bd 767a cdbc 7db3 da3a 1c36 843b
00000300: 3c19 84b8 8c2a f5ba d593 de3c d6a4 2e3c
00000310: af78 e1bc 2e43 59bc e5ba c9b8 3db0 0d3c
00000320: 86d7 753d a6da 42bd aec6 9f39 1de3 2abb
00000330: 8612 06bb 11d7 8bbb 0d30 a13c 8fe5 2bbb
00000340: eaa2 3b3c 915d ed37 9f52 34ba 9adf 073a
00000350: 3fc6 9c3b f9f2 c0bc 94be 943c 5b7f e53b
00000360: 84ab 0d3b b313 1e3b afbd 86bb 5d7c bfbc
00000370: 94d0 873c 82e9 13b8 237a 833b 3f04 54bc
00000380: c64c 6c39 64bd a3ba eb0f 2e3b c478 cdba
00000390: e216 56bb 8d6a c03b e67f 773a 6de3 a2bb
000003a0: 3748 6bbb 186f 043b c6f9 53bb 1aab a2ba
000003b0: 3eb9 7d3b be12 46b7 f998 0c3b 45bf 69bb
000003c0: a0c2 073b e96f 91b7 6901 08bb 5991 35bd
000003d0: 2f0b aa3b d67d 9038 2fe6 f6bc 9040 593c
000003e0: 6ca3 acbc 403f f2b6 de13 1b3b 9edf 1ebd
000003f0: fd47 f33c 8e6e b43c 85fa b5ba 37ae 50bb
0.00053554383 0.0031441073 -0.09476294 -0.021722008 0.09000189 0.06451095 0.00010794384 -0.028894752
-0.19807866 0.16985856 0.0075975875 0.004305774 0.008809922 0.0021954398 -0.07648242 0.060365293
-0.0631232 -0.00096472236 0.0016166356 0.00054397347 -0.003403816 0.08517121 -0.07594645 -0.042315155
-0.035212085 -0.0038638557 0.010964222 0.03703358 -0.07481713 5.105613e-06 -0.010896467 0.027381033
0.009182539 -0.00011579104 -0.015382312 0.0028295484 0.013049259 -0.032092586 -0.0017169089 0.01614731
0.010800028 -0.0043213903 0.011449767 -0.012615763 -0.014222305 6.023573e-05 -0.0037913278 0.008150073
-0.0031171648 4.5642417e-05 0.015287769 0.15430887 -0.010221995 0.00028700478 0.07156276 -0.045840096
0.1019618 4.233392e-06 -0.0043371683 0.100275576 -0.099921934 -0.062727265 0.003197879 0.014197886
0.0006609526 0.00465324 -0.1670602 -0.0324645 0.14057373 0.1235365 -6.1300157e-06 -0.05138119
-0.30870527 0.2846342 0.019461496 0.0067315176 0.014260276 -0.0013593928 -0.13568293 0.13728559
-0.12129863 0.0033425763 0.0020845684 -0.0028847787 0.00078646804 0.15727824 -0.13759209 -0.06374561
-0.08972523 -0.005946964 0.023099322 0.04158451 -0.14704566 -3.0840973e-05 -0.015546525 0.04398619
0.020866582 -0.012422039 -0.036461025 0.004507005 0.021920778 -0.0571267 -0.0020489772 0.030387992
0.022930903 -0.0071014566 0.009387735 -0.018435176 -0.03234336 7.685154e-05 -0.006378736 0.012633461
-0.004690456 8.1199985e-05 0.038794845 0.2834295 -0.010411224 0.00044300873 0.08591333 -0.0827817
0.18962449 1.4217716e-05 -0.008694507 0.14107735 -0.16344637 -0.10962579 0.0048375414 0.025889957
0.00012439335 0.0020373631 -0.032611996 -0.011675158 0.033088047 0.01653156 0.0001127421 -0.010116386
-0.07182926 0.05769674 0.000120742705 0.002902854 0.002541692 0.004209607 -0.025078086 0.00903948
-0.015431047 -0.0002304322 0.00086023763 -0.000115028786 -0.0047742976 0.028576635 -0.023200052 -0.011142847
-0.003952186 -0.0026448679 0.0045376383 0.025106337 -0.021075737 3.445594e-05 -0.004614809 0.013880073
-0.00015539848 0.001541153 -0.0034575255 0.0017729084 0.00397904 -0.008151089 -0.0010975815 0.0056577595
0.004157951 -0.0023107287 0.004213645 0.0005821795 -0.0046452526 1.7451668e-05 -0.0023452109 0.004029927
-0.002084397 1.874851e-05 0.0026539706 0.054702774 -0.005916497 -2.069802e-05 0.034312498 -0.016218282
0.028163157 7.061391e-06 -0.002684574 0.043987934 -0.035601962 -0.025082808 0.0016685572 0.0040347707
-6.298951e-05 -0.0018704697 0.027170101 0.010659417 -0.027523367 -0.013260646 -9.619239e-05 0.0086479755
0.060019992 -0.0475718 0.0003047487 -0.0026075311 -0.0020457818 -0.0042675813 0.019676233 -0.0026229357
0.011452416 2.8296172e-05 -0.00068787666 0.00051831605 0.004784375 -0.023553358 0.018157281 0.0070037073
0.0021617124 0.0024120628 -0.0041119675 -0.02337473 0.01657895 -3.5265002e-05 0.0040123626 -0.0129404655
0.00022535314 -0.0012492356 0.002655978 -0.001567625 -0.0032667448 0.005872077 0.00094413606 -0.004970959
-0.0035901198 0.0020207819 -0.0032344921 -0.0012410611 0.003871515 -1.1806083e-05 0.0021453483 -0.0035666984
0.002071537 -1.733746e-05 -0.0020752794 -0.044328067 0.0051893215 6.889894e-05 -0.030139057 0.013260022
-0.02107402 -7.2195253e-06 0.0023662965 -0.038787477 0.029697413 0.022025373 -0.0013883865 -0.0031842121

module.transformer.blocks.0.attn.proj.weight f4 [64, 64]
00000000: a98f 84ba 16d1 693b 1f08 703c 7418 813b
00000010: 89de ce3c 9a4a a3bb 5e6e bc3b 47ff b33a
00000020: 08ce 95b8 fea4 383c 63f7 c83b f5d7 a33b
00000030: fe5e 23ba 49de 3dbc 4f9e bb3a 93b3 d5ba
00000040: b298 1dbb 3071 213b 1ba0 24bb 8fa8 453c
00000050: 3554 90bb 7f22 5fbb af83 7bbc 63ef 373b
00000060: a1e8 1fb8 8040 25bc a38d 9eba feb4 afbc
00000070: a99c 56bb 4ccd 1dbb 08f4 9fbb f35f 1b3c
00000080: 3baf 5bbb d1ab 273b d875 ccbb 3114 803b
00000090: 0075 153a 5019 95bb 94d9 c23a a923 a639
000000a0: 5f50 98bb e719 83ba 11c2 ac3b 1fb7 4ebb
000000b0: fc68 6fbb 7cc0 22bc 0c82 bb38 aa7d ac3b
000000c0: 9635 c3bb af6b d23b 07ea b03b 86e4 da39
000000d0: 5759 fabb e7ee e1b9 f5aa 063c a8db 5a3b
000000e0: a770 a6ba fed3 a8bc 92fc 51bb c752 2e3b
000000f0: d337 8e3c 6154 a5ba 788d 403c 4f34 2bb8
00000100: 21ea 203b 34d2 1b3b f028 b23b f06f 733b
00000110: 4f72 203c 5b33 4c39 eecf 2a3b a9ed 103b
00000120: e645 23bd 9824 16bc 201a 2fbc 2816 c5bb
00000130: 4263 00ba bbd7 3cbb c6af ad3b 64df b3bb
00000140: 5121 233b 55ec 393b a491 75bb 5e82 10bb
00000150: c692 98ba a10b 81bb 563f b3bb c208 553b
00000160: b13d 93ba 5cc4 45bc c96a e1bb 41c7 19bc
00000170: c08d eaba 3177 90bb 29e3 96bc b3e4 923c
00000180: c15a 533b fd51 9c3b e867 a23b 1688 23bb
00000190: e2ff dbbb e5f2 cc3a 1191 153b 398c b33a
000001a0: 73e8 b9bb 92f1 38bb 9301 e03b d151 24bb
000001b0: 8139 5abb e488 96bc 6460 78ba b253 1f3c
000001c0: 446d 0bbb 2b96 363c 0356 b83b f53c 7639
000001d0: 2573 1a3b f2b1 2a3b 6b8f c93c 7039 2f3a
000001e0: 7b94 433b c2cd b6bc 9277 49bb a7c8 eeba
000001f0: 1105 263c 83d3 cfba 0145 9e3c 9a55 163b
00000200: 3da4 c6bb 49bc 193c 2103 59bb 4ea9 e53b
00000210: a8d7 523d 49b8 2abd 24c8 243d 88c8 caba
00000220: cde2 d63c c138 0b3d f113 e53a 7ff0 07bd
00000230: bcca 2a3b df50 8bbc eacc 30bb f4c9 803b
00000240: 15bf 1c3d bb60 fd3b 0045 d3bb c6b0 89bc
00000250: ce85 35bb 705e 02bc 7889 08bd 8094 033c
00000260: dd0e e03b 60bc 9dbc 109d 043c 44ef ba3b
00000270: 4db6 f0bc 0f2c 1bba a3b9 3cbc b51f ed3c
00000280: 29d5 323c f510 873a 2913 083c 37ca 14bc
00000290: 331e 5d3a bef1 463c 5068 13bb 602a b6ba
000002a0: 9bf6 77bc 7689 88bb 97e8 e33c 8d16 0cbc
000002b0: a5ba f63b 0437 a93c be88 123a 1bfd b1bc
000002c0: 60b0 ebbc c82b a03c b031 973d 8913 32bc
000002d0: 0222 aabc 37cf 31bb 0f86 7b3d 4a17 2f3c
000002e0: cde4 e0bb 483e 2ebd f4bb 333a 24f8 9b3b
000002f0: 5a4f f03b 0876 fd3a 676f 223d 5791 a8bb
00000300: a08a b93c 6b54 b3bb 70c2 d23d 6865 833c
00000310: 66fa 193d cf5c 0c3d b8b4 22bd 1d9c 07bc
00000320: 18ef f4bd 38cd 0cbd b124 45bd c588 6cbd
00000330: cc49 84bc 5dab 143b 62cf aebc 2c25 f13b
00000340: 1793 03bd 601d bfbb ad53 153c ffe0 35bd
00000350: 3a5e dcbb 3322 373b 5b23 e5bb 0cbc a4bb
00000360: 25fb 203c 8b00 9bbc b0ac 753c e3d6 5cbd
00000370: 5a45 40bd 02de 753c f655 53be 9a4d 7b3d
00000380: 6f8e 8d3d 6918 20bc 5b24 dd3c 7a3c 59bc
00000390: 1711 d43c a501 f9bb cd38 1abc d72d 64bc
000003a0: 5bc2 713c 2488 013d b255 aebb f848 c93b
000003b0: 2555 2ebc da74 29bd 6000 263b 4859 bb3c
000003c0: 79e8 25bd 2966 463d 58fb 023e 7a5b fcbd
000003d0: e5a1 6ebc 72cb 40bc 8dab 4b3e 0c77 c53c
000003e0: a50e b53b 8148 7cbd 3464 653c c965 0dbc
000003f0: 0da8 993d e897 e03b 6d94 0e3d bc65 b33b
-0.0010113615 0.0035677603 0.014650374 0.0039396826 0.025252597 -0.0049832584 0.0057504615 0.0013732695
-7.14325e-05 0.011269806 0.0061330064 0.0050001093 -0.00062321115 -0.011588641 0.0014314147 -0.0016304128
-0.0024047312 0.0024634115 -0.0025119844 0.012064113 -0.0044045695 -0.003404766 -0.01535122 0.002806627
-3.8125207e-05 -0.010086179 -0.0012096654 -0.021448608 -0.0032747185 -0.0024078665 -0.0048813857 0.009483325
-0.0033521194 0.0025584588 -0.006239634 0.003908657 0.0005701333 -0.0045501366 0.0014865869 0.00031688556
-0.004648253 -0.0010002226 0.005272158 -0.0031542254 -0.0036531081 -0.009933587 8.941078e-05 0.0052640038
-0.0059573157 0.0064215283 0.005398992 0.00041750463 -0.0076400447 -0.0004309334 0.00821947 0.0033395085
-0.0012698368 -0.020608898 -0.0032041413 0.0026599632 0.017360603 -0.0012613648 0.011752479 -4.0818293e-05
0.0024553614 0.0023776414 0.005437009 0.0037145577 0.009792878 0.00019474087 0.0026063877 0.0022114313
-0.039861582 -0.009163998 -0.010687381 -0.006014604 -0.0004897603 -0.0028815109 0.005300495 -0.0054892767
0.0024891684 0.0028369625 -0.0037470842 -0.002205036 -0.0011640422 -0.003938154 -0.0054701967 0.003250644
-0.0011233595 -0.0120707415 -0.006879185 -0.009385885 -0.0017895028 -0.00440874 -0.018418865 0.017931318
0.0032250138 0.004770516 0.0049562342 -0.002495294 -0.006713853 0.0015636353 0.0022822062 0.0013698406
-0.005673462 -0.002822016 0.006836125 -0.002507318 -0.0033298435 -0.018375821 -0.00094748125 0.009724544
-0.0021274844 0.011144201 0.005625488 0.00023483096 0.0023567167 0.0026046005 0.02460452 0.0006684279
0.002984314 -0.02231491 -0.0030741435 -0.0018217758 0.010133044 -0.0015855882 0.019320013 0.0022939206
-0.006062059 0.00938327 -0.0033113437 0.007008708 0.051475197 -0.041679654 0.04022993 -0.001547114
0.026231194 0.03398967 0.0017477256 -0.03318834 0.002606078 -0.017006336 -0.0026977607 0.0039303247
0.038268168 0.0077324784 -0.0064474344 -0.016807925 -0.0027698162 -0.007957086 -0.033334225 0.008031011
0.0068377093 -0.019254863 0.008094087 0.005704792 -0.029383803 -0.0005919346 -0.011518869 0.028945783
0.010915079 0.0010304736 0.008305349 -0.009081415 0.0008434981 0.012142597 -0.0022492595 -0.0013898127
-0.015134479 -0.0041667772 0.027820868 -0.008550298 0.007529574 0.020656116 0.0005589834 -0.021727135
-0.028770626 0.019552127 0.07382524 -0.010868915 -0.02076817 -0.0027131566 0.061407145 0.010686705
-0.0068632127 -0.042539865 0.00068563153 0.0047598053 0.007333678 0.0019337544 0.039657023 -0.005144279
0.02264911 -0.00547271 0.10290992 0.016039565 0.037592314 0.034268197 -0.039723128 -0.008276966
-0.11959666 -0.0343754 -0.048130695 -0.05774762 -0.01614847 0.0022685148 -0.021339122 0.0073591676
-0.032122698 -0.005832359 0.009114188 -0.044404026 -0.0067251 0.0027943968 -0.00699274 -0.0050272997
0.0098255025 -0.018921157 0.014994785 -0.05391587 -0.04694114 0.015006544 -0.2063826 0.061353303
0.06911933 -0.009771445 0.026994875 -0.013259048 0.025887055 -0.007599073 -0.009412956 -0.013926945
0.014755811 0.031623974 -0.0053202743 0.0061427318 -0.010640417 -0.041371204 0.0025329813 0.022869721
-0.040504906 0.04843727 0.12791193 -0.12322135 -0.014564966 -0.011767255 0.1988966 0.024104618
0.0055254274 -0.061592583 0.014000941 -0.0086302245 0.07502756 0.006854046 0.03480952 0.005474774

module.transformer.blocks.0.attn.proj.bias f4 [64]
00000000: 8ae6 2f3b 709b 37bc cba7 5dbd f8c9 b2bc
00000010: 72bd 48bc 5a37 993d d02e 81bb 9530 223c
00000020: 051c 00bd 8247 19ba 4425 9d3d 47dd bab9
00000030: fd08 a1bd fd54 a8bc 5a89 9e3c 5800 5d3c
00000040: 1b0a 8fbb 0ac7 dcbb d9a7 383c c292 5d3c
00000050: cd0f 88bc 2067 d63c b355 90b9 3648 993a
00000060: 6202 663b c8f4 e53b 0418 823b 7fc2 0ebd
00000070: ff9d d7bc 02ca 913c d97e 2fbd a95d 963c
00000080: a960 6b3c fddf 4bbd 835e 09bb 2863 2fbe
00000090: f49e 8cbb 1739 a13c d9fa 17be f814 e0bc
000000a0: e0f6 b73c d1b4 033d 8862 2fbc 0033 83bb
000000b0: 18f8 0f3c 033f 1a3b fbf0 7dbc b420 5e3c
000000c0: e44a 75bc 510e 173d 9c87 5b3b a232 8c3e
000000d0: 7a68 093d 1d84 52b9 7a77 ccbd eb84 f1bc
000000e0: 28c1 4e3c 9391 bc3b 3576 28bd 14be f7bb
000000f0: dc59 153c cbe7 8c3d 2163 a3bc 9d5c 8bbc
0.0026840293 -0.011206493 -0.054115098 -0.021824822 -0.0122521985 0.074812606 -0.003942348 0.009899278
-0.03127672 -0.00058471423 0.076731235 -0.0003564155 -0.078630425 -0.020548338 0.019352604 0.0134888515
-0.0043652183 -0.0067375945 0.011270487 0.013523759 -0.016609097 0.02617222 -0.0002752967 0.0011694494
0.0035096635 0.0070177056 0.003970148 -0.034853455 -0.026320456 0.01779652 -0.04284558 0.018355208
0.014366307 -0.04977416 -0.0020960874 -0.17127669 -0.0042914096 0.019680543 -0.14841785 -0.027353749
0.022456586 0.03215486 -0.010704644 -0.0040038824 0.0087871775 0.0023536093 -0.015499349 0.013557602
-0.014971469 0.036878888 0.0033497578 0.2738238 0.033546902 -0.00020076377 -0.09983726 -0.029482326
0.012619294 0.0057546585 -0.041128356 -0.007560501 0.009115662 0.068801485 -0.01994473 -0.017011935

module.transformer.blocks.0.norm2.weight f4 [64]
00000000: cf1b 0000 ae0c 0000 b112 0080 2fdf 4389
00000010: 4ff0 eb2a cc03 0000 ad07 0000 e045 8d9a
00000020: 3719 0080 267e 0200 3c1c ef2d 1813 0080
00000030: 9b02 0000 0510 0000 160d 0080 fc9a f685
00000040: 7a06 0000 e904 0080 fd07 0080 0f0c 0000
00000050: 3c0a 0080 af0e 0000 9401 1716 ec38 332a
00000060: 3ace eb8f b106 0000 1502 0000 3102 0000
00000070: 9f03 0080 ec0d 0000 6150 8fa6 3dbf d1ac
00000080: 0805 0080 e303 0000 0a1c 0000 25d7 3618
00000090: 7a18 0000 4e8d b1af 6536 9d86 e6a2 2b9c
000000a0: 061a 0080 e405 0000 180a 0000 4e10 0000
000000b0: 130c 0000 1602 0080 650e 0000 2604 0000
000000c0: 5c07 0080 5402 0000 b81c 0080 166a a626
000000d0: dd0b 0080 4b1c 0080 2d80 1e1d 4418 0000
000000e0: a809 0080 9f05 0000 b505 0080 fe07 0000
000000f0: 8c0b 0080 5106 0080 f70c 0000 d104 0080
9.976e-42 4.549e-42 -6.705e-42 -2.3577212e-33 4.1911133e-13 1.362e-42 2.754e-42 -5.842912e-23
-9.045e-42 2.28925e-40 2.7183693e-11 -6.85e-42 9.35e-43 5.747e-42 -4.694e-42 -2.3190661e-35
2.323e-42 -1.761e-42 -2.866e-42 4.326e-42 -3.671e-42 5.267e-42 1.2198181e-25 1.5918142e-13
-2.3252225e-29 2.4e-42 7.47e-43 7.86e-43 -1.299e-42 4.994e-42 -9.944405e-16 -5.961369e-12
-1.805e-42 1.394e-42 1.0059e-41 2.3631569e-24 8.78e-42 -3.2296515e-10 -5.913676e-35 -5.6789695e-22
-9.335e-42 2.113e-42 3.621e-42 5.849e-42 4.331e-42 -7.48e-43 5.164e-42 1.488e-42
-2.64e-42 8.35e-43 -1.0302e-41 1.1547319e-15 -4.256e-42 -1.015e-41 2.0977391e-21 8.705e-42
-3.464e-42 2.016e-42 -2.047e-42 2.867e-42 -4.142e-42 -2.266e-42 4.651e-42 -1.728e-42

module.transformer.blocks.0.norm2.bias f4 [64]
00000000: ea07 0000 2505 0000 cb0d 0080 7781 8c07
00000010: cf76 15a8 7b13 0080 440c 0080 c99f 4895
00000020: 2402 0080 d22e 0000 da1a eeaa 6502 0080
00000030: d907 0000 8711 0000 d703 0080 9d61 e681
00000040: a20c 0080 7a0c 0000 a805 0000 830c 0000
00000050: 7001 0000 cc03 0000 6307 0013 649f 4927
00000060: 1859 e90b 070d 0000 0000 0000 2312 0000
00000070: 4202 0000 4d02 0000 2815 60a4 60ec dea9
00000080: 800d 0080 ea06 0080 b70d 0080 ac1d 5915
00000090: 8301 0000 8887 97ac 1c83 ed84 8d7f 0718
000000a0: ed09 0000 9905 0080 cf10 0080 8e06 0000
000000b0: 590b 0080 7707 0080 5f0b 0000 da15 0080
000000c0: 280c 0000 c302 0000 5b0a 0000 a450 9522
000000d0: 8602 0080 9c12 0000 3c81 f598 0002 0080
000000e0: 990a 0000 7b01 0000 7410 0080 f600 0000
000000f0: 9800 0080 fc12 0000 6e00 0000 6208 0080
2.839e-42 1.846e-42 -4.948e-42 2.1140951e-34 -8.296924e-15 -6.988e-42 -4.4e-42 -4.0515727e-26
-7.68e-43 1.6796e-41 -4.2295925e-13 -8.59e-43 2.815e-42 6.288e-42 -1.377e-42 -8.4628725e-38
-4.532e-42 4.476e-42 2.029e-42 4.488e-42 5.16e-43 1.362e-42 1.6159513e-27 2.798076e-15
8.988239e-32 4.673e-42 0.0 6.506e-42 8.1e-43 8.25e-43 -4.8590177e-17 -9.899785e-14
-4.843e-42 -2.48e-42 -4.92e-42 4.3846208e-26 5.42e-43 -4.306725e-12 -5.5838837e-36 1.7512738e-24
3.56e-42 -2.008e-42 -6.03e-42 2.351e-42 -4.071e-42 -2.678e-42 4.079e-42 -7.839e-42
4.361e-42 9.91e-43 3.715e-42 4.0471913e-18 -9.05e-43 6.676e-42 -6.346151e-24 -7.17e-43
3.802e-42 5.31e-43 -5.902e-42 3.45e-43 -2.13e-43 6.81e-42 1.54e-43 -3.007e-42

module.transformer.blocks.0.mlp.fc1.weight f4 [128, 64]
00000000: 7a0a 0000 cd14 0000 0f1f 0000 19fe f986
00000010: 8c18 9429 111a 0080 671e 0080 eb45 0998
00000020: 8e1d 0000 2c12 0080 a5c8 9dab 771c 0000
00000030: 1e1f 0080 d004 0080 931e 0080 0163 3284
00000040: fc1f 0080 4a0f 0000 4d1e 0080 651c 0000
00000050: a01f 0080 381e 0080 adfd 1694 40b0 84a7
00000060: 270e 5c8d 391e 0000 cd1c 0000 8c1d 0000
00000070: 6403 0080 c41a 0080 a766 1ba5 a855 c42a
00000080: 8d08 0080 a416 0080 5a12 0080 b53d c015
00000090: 4320 0000 0fbe c9ac 88dc 7584 bf93 751a
000000a0: ad1f 0080 1021 0000 2218 0080 7319 0000
000000b0: 8800 0000 671e 0080 261b 0080 f610 0000
000000c0: d80b 0000 cf0f 0000 0908 0080 8865 7823
000000d0: 8b0e 0080 6706 0000 1c47 871a f20a 0000
000000e0: 2219 0000 6c0d 0080 3b1f 0000 ca20 0000
000000f0: ad20 0080 a504 0000 961e 0000 1920 0000
00000100: 841d 0080 b714 0000 b01d 0080 781a 0280
00000110: 7d84 229f b51e 0080 df06 0080 bc07 dc0e
00000120: 8305 0000 a112 0000 6f66 8522 e106 0000
00000130: ef1e 0080 e617 0080 0a1e 0000 9408 0080
00000140: 5b1b 0080 301f 0080 de1d 0080 081e 0000
00000150: 8303 0080 cb1b 0080 f80e 858b 88d8 d49d
00000160: 5bba 2e83 f721 0080 7f1b 0080 ab0d 0000
00000170: ad1b 0000 511c 0000 0c02 b01a 94fc 17a0
00000180: 6a0f 0000 c10c 0080 e30b 0080 5c49 0b0d
00000190: 6908 0000 85f3 fc23 6f34 0080 b2b9 9890
000001a0: 5421 0080 8a01 0000 8f0c 0080 6204 0000
000001b0: 4d06 0080 131f 0000 f906 0080 f417 0000
000001c0: 221c 0080 4a21 0000 d305 0080 0565 6b9a
000001d0: 741a 0080 3810 0000 28ba 0412 cb0b 0080
000001e0: f410 0080 3e18 0080 be14 0000 5e1b 0080
000001f0: 9a02 0000 b60d 0000 9c1c 0080 ae1b 0080
00000200: 1808 0000 1609 0000 5d1d 0080 d32e 8b83
00000210: cb0d eda4 cf17 0080 db0d 0000 e8f1 8f14
00000220: 111c 0080 4612 0080 beb9 f127 691c 0000
00000230: 240f 0080 a111 0080 6707 0000 7c2b 0000
00000240: 5c1b 0080 7c0d 0080 3006 0080 4d13 0000
00000250: f80d 0080 8f1c 0000 3936 2691 f590 23a3
00000260: 1186 0b89 6420 0000 7f13 0000 001d 0080
00000270: 7d03 0000 a807 0080 e5ad 7920 5884 9ba5
00000280: ae10 0000 ba1c 0080 0c0c 0080 12f9 a612
00000290: 141d 0080 5c2e 3a29 399e 0581 0a47 8796
000002a0: 1e1d 0000 610c 0080 1c1d 0080 eb1f 0080
000002b0: 6c04 0000 0909 0000 9d0a 0000 9503 0080
000002c0: e808 0080 db22 0000 f000 0000 42a8 819f
000002d0: d31d 0000 1d14 0000 29eb 8a17 cf0a 0080
000002e0: e308 0000 c103 0080 9815 0080 0c1d 0080
000002f0: c506 0080 bf1b 0000 ad1c 0080 8e16 0080
00000300: 0220 0080 cf14 0080 731b 0080 4106 0080
00000310: 7b0e b196 fe21 0080 a904 0080 c152 c706
00000320: 161f 0080 6012 0000 7162 231a 8b01 0080
00000330: 101f 0000 b422 0080 d421 0080 951b 0000
00000340: de13 0000 6e1e 0000 871b 0080 7316 0080
00000350: 0313 0080 921b 0000 e4fb 0903 b79c cb16
00000360: 6a26 0080 791d 0000 bb0b 0000 9b1b 0000
00000370: d213 0080 d021 0000 c6c0 8b13 2549 ab96
00000380: 941b 0080 121d 0080 0e13 0000 1993 b883
00000390: 4606 0000 8fe8 9d1b 661c 0080 181a 1f89
000003a0: 1100 0080 7f20 0080 ce21 0080 e318 0080
000003b0: 211e 0000 441e 0000 9722 0000 c400 0080
000003c0: 8913 0000 6620 0080 4d14 0000 3aca 9610
000003d0: 0316 0080 740e 0080 0e86 2409 f205 0000
000003e0: 5d13 0080 651d 0080 d41c 0080 dc0c 0000
000003f0: 3e20 0000 1a0c 0000 7a03 0000 bd05 0000
3.758e-42 7.462e-42 1.1142e-41 -9.403675e-35 6.5767785e-14 -9.351e-42 -1.0906e-41 -1.7742135e-24
1.0602e-41 -6.519e-42 -1.1211211e-12 1.0211e-41 -1.1163e-41 -1.726e-42 -1.0968e-41 -2.096926e-36
-1.1474e-41 5.485e-42 -1.087e-41 1.0186e-41 -1.1345e-41 -1.084e-41 -7.6230934e-27 -3.682845e-15
-6.780977e-31 1.0842e-41 1.0332e-41 1.06e-41 -1.216e-42 -9.602e-42 -1.3478887e-16 3.487603e-13
-3.067e-42 -8.122e-42 -6.583e-42 7.764554e-26 1.1573e-41 -5.7338643e-12 -2.8900875e-36 5.078416e-23
-1.1363e-41 1.186e-41 -8.657e-42 9.13e-42 1.9e-43 -1.0906e-41 -9.739e-42 6.084e-42
4.249e-42 5.671e-42 -2.882e-42 1.3465607e-17 -5.217e-42 2.297e-42 5.5949575e-23 3.926e-42
9.016e-42 -4.815e-42 1.1203e-41 1.1762e-41 -1.1722e-41 1.666e-42 1.0972e-41 1.1514e-41
-1.0588e-41 7.431e-42 -1.065e-41 -1.93166e-40 -3.4414426e-20 -1.1016e-41 -2.465e-42 5.4241635e-30
1.977e-42 6.683e-42 3.615818e-18 2.468e-42 -1.1097e-41 -8.573e-42 1.0776e-41 -3.077e-42
-9.813e-42 -1.1188e-41 -1.0714e-41 1.0773e-41 -1.26e-42 -9.97e-42 -5.125226e-32 -5.633982e-21
-5.134793e-37 -1.2184e-41 -9.864e-42 4.903e-42 9.928e-42 1.0158e-41 7.27952e-23 -1.2873769e-19
5.53e-42 -4.575e-42 -4.264e-42 4.2920985e-31 3.017e-42 2.742503e-17 -1.881e-41 -6.023954e-29
-1.1956e-41 5.52e-43 -4.505e-42 1.572e-42 -2.26e-42 1.1147e-41 -2.501e-42 8.593e-42
-1.0092e-41 1.1942e-41 -2.09e-42 -4.8678464e-23 -9.49e-42 5.818e-42 4.188131e-28 -4.23e-42
-6.082e-42 -8.696e-42 7.441e-42 -9.817e-42 9.33e-43 4.919e-42 -1.0263e-41 -9.93e-42
2.903e-42 3.26e-42 -1.0534e-41 -8.180436e-37 -1.0280573e-16 -8.541e-42 4.97e-42 1.4534725e-26
-1.0068e-41 -6.555e-42 6.709232e-15 1.0192e-41 -5.431e-42 -6.324e-42 2.655e-42 1.5599e-41
-9.815e-42 -4.837e-42 -2.22e-42 6.924e-42 -5.011e-42 1.0245e-41 -1.31118e-28 -8.8669436e-18
-1.6794554e-33 1.162e-41 6.994e-42 -1.0403e-41 1.251e-42 -2.747e-42 2.1148657e-19 -2.6977893e-16
5.984e-42 -1.0305e-41 -4.322e-42 1.0537473e-27 -1.0431e-41 4.1340507e-14 -2.454176e-38 -2.1855258e-25
1.0445e-41 -4.441e-42 -1.0442e-41 -1.145e-41 1.586e-42 3.241e-42 3.807e-42 -1.285e-42
-3.195e-42 1.2504e-41 3.36e-43 -5.4911984e-20 1.0699e-41 7.215e-42 8.977404e-25 -3.877e-42
3.188e-42 -1.347e-42 -7.746e-42 -1.042e-41 -2.428e-42 9.953e-42 -1.0287e-41 -8.091e-42
-1.1482e-41 -7.465e-42 -9.847e-42 -2.243e-42 -2.860503e-25 -1.2194e-41 -1.672e-42 7.4977076e-35
-1.1152e-41 6.592e-42 3.378713e-23 -5.54e-43 1.1143e-41 -1.2449e-41 -1.2135e-41 9.895e-42
7.127e-42 1.0916e-41 -9.875e-42 -8.053e-42 -6.82e-42 9.89e-42 4.054984e-37 3.289532e-25
-1.378e-41 1.0573e-41 4.208e-42 9.903e-42 -7.11e-42 1.213e-41 3.5278622e-27 -2.76727e-25
-9.893e-42 -1.0428e-41 6.836e-42 -1.084832e-36 2.25e-42 2.6123759e-22 -1.0187e-41 -1.9151198e-33
-2.4e-44 -1.1657e-41 -1.2127e-41 -8.928e-42 1.0808e-41 1.0857e-41 1.2408e-41 -2.75e-43
7.008e-42 -1.1622e-41 7.283e-42 5.947615e-29 -7.896e-42 -5.185e-42 1.9803814e-33 2.133e-42
-6.946e-42 -1.0545e-41 -1.0342e-41 4.613e-42 1.1566e-41 4.341e-42 1.247e-42 2.059e-42

module.transformer.blocks.0.mlp.fc1.bias f4 [128]
00000000: 0c53 6038 4faa 8d2f 41ad ee35 6e09 e727
00000010: 647e 76a8 8092 5338 4e20 a125 8211 07b3
00000020: 49c9 ddaa dcf6 8d2a 00da 9a3a 0d8c f4b0
00000030: bffc a2a7 a7e8 172e f7fc cd34 f817 0e32
00000040: 71a3 edaa 02cc 31b3 c00c a02d e572 f630
00000050: e245 64b7 037a 81b4 1306 d226 729e d5ae
00000060: a986 9baa f47a 10bb 189f c7b2 8a37 85a8
00000070: 009b afb6 c78f abab 8500 4fb6 3197 3e23
00000080: 12b7 6929 cb78 6e2b cae3 d7b9 26b6 4cb0
00000090: fbe7 cd2b 1e30 8baf d2fe 092c 0bc1 e429
000000a0: e44e db29 d1bc 1331 197f 932a be29 8a37
000000b0: 4823 04b6 1977 7c30 c742 0231 5a6f dbad
000000c0: cc08 1fb8 e14c efac 286d 13af a977 ef35
000000d0: 1fdd 2f28 1863 5cb4 b2ab 7ea7 8cc5 d2b6
000000e0: dcc4 90aa 5cb1 3bb7 de35 6b3a 1f0f adb7
000000f0: 493e afab 6603 783a adce 1bae 244d d527
00000100: 2af4 5aad fd04 a831 27ee 2bba bdcf 8638
00000110: 9896 0330 066f d3b1 23dc 5e27 72b4 893a
00000120: c574 1fba 4c4d a8b0 e414 a538 d8a2 8e2f
00000130: 9588 a3b8 f09b f939 4e2d 4e38 9bac 9b2a
00000140: 9c25 78a7 33f7 1dad 3f9b ac34 9571 3f2a
00000150: 26cb e936 ab43 583a 1fad 6a30 9c29 462e
00000160: e353 ea34 bc27 ed2a 2de1 31b8 87ce 4c27
00000170: b136 d7b1 9af3 5239 a39d 2339 565f dc28
00000180: 33e4 b039 190b a9ad c01d 2925 db83 a128
00000190: 6059 7b27 72ae 0c39 d8a7 39ad 5e15 2eac
000001a0: 8566 21ae 5cf2 672b c5d7 4eb1 d4b0 8d25
000001b0: 1bee 6d36 c46f 87a7 9120 142a fd7e cbaf
000001c0: 3cb5 8b2b 5d39 06aa 5aac ebb3 53d3 e3b8
000001d0: 222a 5a27 1380 92ba 59b9 a1b4 492e ff37
000001e0: 206c 71a7 3cf8 61ac 590b 54a7 6469 3927
000001f0: e9bc da35 f95b 4fa5 ffce 8db2 34b2 2738
5.3483105e-05 2.5768762e-10 1.7782805e-06 6.4125603e-15 -1.368315e-14 5.044276e-05 2.7950938e-16 -3.144806e-08
-3.9397156e-13 2.5217925e-13 0.0011814237 -1.7793141e-09 -4.523806e-15 3.4540062e-11 3.8368282e-07 8.270938e-09
-4.2213067e-13 -4.1396568e-08 1.8195556e-11 1.7931511e-09 -1.360613e-05 -2.4116898e-07 1.4573324e-15 -9.714264e-11
-2.762697e-13 -0.0022045942 -2.3238997e-08 -1.4790052e-14 -5.233451e-06 -1.2190187e-12 -3.0845706e-06 1.0331937e-17
5.189518e-14 8.472222e-13 -0.00041177712 -7.4473616e-10 1.4630514e-12 -2.5318142e-10 1.9610325e-12 1.01587216e-13
9.739239e-14 2.1498645e-09 2.6200637e-13 1.647032e-05 -1.969007e-06 9.1846314e-10 1.8955448e-09 -2.4946867e-11
-3.7916747e-05 -6.801324e-12 -1.3408352e-10 1.7841713e-06 9.7623995e-15 -2.0525147e-07 -3.5342657e-15 -6.281485e-06
-2.5716137e-13 -1.1187363e-05 0.00089725654 -2.0630248e-05 -1.2451785e-12 0.00094609556 -3.5426485e-11 5.920301e-15
-1.2446081e-11 4.8900106e-09 -0.000655862 6.428312e-05 4.787153e-10 -6.15353e-09 3.0928025e-15 0.0010506047
-0.00060827687 -1.2245578e-09 7.871704e-05 2.5945357e-10 -7.797886e-05 0.00047609163 4.915642e-05 2.76533e-13
-3.4437302e-15 -8.979306e-12 3.2150453e-07 1.7003614e-13 6.9675907e-06 0.00082498294 8.5374724e-10 4.5056944e-11
4.3646932e-07 4.2127228e-13 -4.24098e-05 2.8422646e-15 -6.2635412e-09 0.0002011791 0.00015603616 2.4466252e-14
0.00033739358 -1.9218004e-11 1.4668493e-16 1.7931774e-14 3.4881698e-15 0.00013416426 -1.0553301e-11 -2.4738748e-12
-3.6698217e-11 8.2404027e-13 -3.0099596e-09 2.4579424e-16 3.5454348e-06 -3.7591204e-15 1.315634e-13 -3.7015715e-10
9.926847e-13 -1.1921493e-13 -1.0974391e-07 -0.00010863566 3.0276418e-15 -0.0011177085 -3.0123445e-07 3.0419922e-05
-3.3504083e-15 -3.211222e-12 -2.9427062e-15 2.573104e-15 1.6297246e-06 -1.798555e-16 -1.6508691e-08 3.9981867e-05

module.transformer.blocks.0.mlp.fc2.weight f4 [64, 128]
00000000: 2eb8 4eb7 bd26 d12f 91c2 cd35 23b5 cb27
00000010: 3a8a b9a8 148c db37 5bcd a6a5 2ba8 ea34
00000020: 16d1 af2a 7232 42aa 17fd 793a d849 2bb1
00000030: 450f 6da7 117c 3c2e e6ae ddb5 67ac dd31
00000040: b3b8 2c2b 94c9 4db3 94b4 bc2b b59f 2331
00000050: 585d 99b8 bb21 9134 4d96 2b26 1418 a1ae
00000060: 6ecf a92b 0de1 acb9 c1f8 92b2 ef30 c5a8
00000070: 13bc 1bb7 5de2 ce2b 6756 c9b6 5476 7123
00000080: 072e 04aa be0b edab de5f edb9 e711 d32e
00000090: ddab 652c 620a a3af 0f6c 052c c480 c729
000000a0: 53e7 84a9 085f 2532 026c f4a7 b0bd a637
000000b0: 7144 e4b5 97c8 8230 52d4 2331 25cd 2fae
000000c0: c441 0eb8 fa61 d3ac 6ac2 9baf a411 2836
000000d0: 91bb b0a6 bc2b c731 388c 1528 195d d9b6
000000e0: 25f8 5daa 0e65 2db7 bdd6 523a fb42 eab7
000000f0: 7588 98ac d38c 593a 80e4 0dae 9560 ada7
00000100: 7060 9f2f 91a9 6032 8574 21ba 43c8 6d38
00000110: 3fac 122f 1d90 24b2 fb28 a8a6 9adb 693a
00000120: fc22 1bba 766a 03b1 7ec7 dc38 d2f6 2930
00000130: 8f80 3bb8 02e4 ca39 ec79 1d38 d84a 8928
00000140: 07a2 a1a7 9261 06ad 30a6 d334 2fc3 192a
00000150: 62a7 b936 05fb 433a 0697 8c2f 11ad d82e
00000160: 206d 4736 5f88 46ab a3b2 1cb8 b1a5 37a6
00000170: fd77 03b2 ba20 1839 2cac 1939 4631 26a9
00000180: f0a0 9539 1633 13ae 44a4 1c26 0100 10a6
00000190: 0e9f 69a7 5da9 3339 677a 8cad 40af 02ad
000001a0: 6fd9 05ae 63ba 432b f444 9eb1 ab64 d0a5
000001b0: e0bb 8438 45fe 3ea7 c3c5 52ab 989f 6bae
000001c0: a65d 44ac 2a41 6128 b24d 26b4 547b 8fb7
000001d0: 4330 23a8 7a98 6fba b750 84b4 a4f7 d037
000001e0: f3d2 eea6 870e 40ac 83d3 81a4 3a38 6025
000001f0: 21f3 1336 d34a 31a5 9546 69b2 1464 8538
00000200: 2898 3db4 c93c e72f f3f5 b835 bf2e 9727
00000210: 9be9 28a8 b661 cc37 1822 67a5 008f 0035
00000220: ad62 052b bce0 60aa 1b19 1a3a 6e2e 36b1
00000230: 147b 29a7 f6ef 442e fc3f f2b5 85df 5f31
00000240: 1640 712b 6f03 4bb3 8dfc c3ac 35ad 2f31
00000250: ca12 bbb8 9093 c333 afca bb25 31e5 4aae
00000260: c2f6 cc2b 5704 4db9 4027 12b2 2ab4 35a8
00000270: f5d5 e8b6 e9f7 ed2b 5fbd a0b6 3e00 1323
00000280: ca90 35aa 862d daab c888 a5b9 e49d 1e30
00000290: a6d4 942c 0ec3 aaaf ea3f c52b 4734 ab29
000002a0: 17c6 d1a9 78a0 1b32 72f5 ada9 86b8 6637
000002b0: beec 9eb5 2efe 7530 9b8d 2c31 2a36 2dae
000002c0: 2b51 9eb7 30bb a5ac be7f bbaf ed59 2836
000002d0: 1d5f 3fa7 1f3f c733 df3d 1e28 c580 bbb6
000002e0: c761 0daa 7fdd ffb6 406f 023a 2ad4 ddb7
000002f0: a8b1 b2ac 335e 043a 1013 dbad 8379 d1a7
00000300: 7a27 f92f a1a0 9932 6816 f0b9 4797 0638
00000310: 946e 47ae db18 29b2 c090 d3a6 1068 0a3a
00000320: f2db c9b9 a024 0ab1 af75 6938 f29f 6f30
00000330: feb4 16b8 57b5 7b39 bf31 9637 83c6 f9a8
00000340: 1b4d 0ea7 540c bdac 00bc be34 463b de29
00000350: 6b9d 2c36 0987 f339 8034 37ae 4deb 1a2f
00000360: 7b3b 8d36 d9fb 6aab 4d32 88b7 b1ca 95a6
00000370: df67 feb1 eaf5 c938 bd25 2539 eca5 43a9
00000380: e347 3939 cdc3 2eae 9be6 2926 411b 21a7
00000390: 90cf b2a7 263a 2739 497a 9fad 1ade 1ead
000003a0: d0ac abad 7d4d 1e2b a610 a0b1 0261 92a5
000003b0: cd25 0738 03fe 07a7 9f3f 58ab 5f4b 912e
000003c0: fbb3 6bac 445e 1e29 72c4 1bb4 15e4 19b7
000003d0: b870 2fa8 4f52 2cba 45e4 09b4 e949 3537
000003e0: 2aa8 93a6 bb3a 16ac 5c00 0526 82bc 91a5
000003f0: 1f4a 2d36 4473 bea4 1aa2 02b2 fd14 0038
-1.23214395e-05 3.8044404e-10 1.5330317e-06 5.6540207e-15 -2.0599072e-14 2.6172063e-05 -2.8935564e-16 4.3708255e-07
3.1231327e-13 -1.7248163e-13 0.00095363095 -2.492575e-09 -3.2898635e-15 4.2856444e-11 -1.6516685e-06 6.4515464e-09
6.1362997e-13 -4.7913616e-08 1.3408324e-12 2.3810405e-09 -7.312995e-05 2.7032897e-07 5.953124e-16 -7.3257095e-11
1.2065746e-12 -0.00032974072 -1.7109757e-08 -2.1892615e-14 -9.282509e-06 1.4700009e-12 -6.0003254e-06 1.3089693e-17
-1.1739924e-13 -1.6843122e-12 -0.0004527559 9.598349e-11 3.263826e-12 -2.9656905e-10 1.8960421e-12 8.8597126e-14
-5.902106e-14 9.625872e-09 -6.7840707e-15 1.9877072e-05 -1.7007243e-06 9.515756e-10 2.3840312e-09 -3.9972598e-11
-3.3916687e-05 -6.0078583e-12 -2.8332475e-10 2.504422e-06 -1.2263293e-15 5.7966343e-09 8.301567e-15 -6.477942e-06
-1.9714836e-13 -1.0335132e-05 0.0008042863 -2.7926164e-05 -4.3352496e-12 0.00082988775 -3.2262637e-11 -4.812186e-15
2.8990454e-10 1.3077071e-08 -0.00061590254 5.669171e-05 1.3339817e-10 -9.578824e-09 -1.166845e-15 0.0008920968
-0.0005917994 -1.9123525e-09 0.00010527576 6.1832595e-10 -4.4704004e-05 0.0003869832 3.7545266e-05 1.5242514e-14
-4.4862147e-15 -7.638683e-12 3.942273e-07 1.3656848e-13 5.5329156e-06 0.00074760645 2.557316e-10 9.8532855e-11
2.971683e-06 -7.0532984e-13 -3.7359667e-05 -6.3715433e-16 -7.652486e-09 0.00014508041 0.00014655356 -3.6902142e-14
0.00028539402 -3.3469304e-11 5.4345994e-16 -4.996004e-16 -3.242147e-15 0.00017133863 -1.5970515e-11 -7.428558e-12
-3.043382e-11 6.953658e-13 -4.6062443e-09 -3.6150464e-16 6.329245e-05 -2.6505637e-15 -7.4881437e-13 -5.357456e-11
-2.790526e-12 1.2504139e-14 -1.548822e-07 -1.7104358e-05 -9.058783e-15 -0.0009139847 -2.4645644e-07 2.4910849e-05
-1.6571745e-15 -2.7292905e-12 -5.630315e-17 1.9447953e-16 2.2046227e-06 -1.5377654e-16 -1.35784335e-08 6.360575e-05
-1.7657351e-07 4.2061846e-10 1.3780649e-06 4.19616e-15 -9.3765285e-15 2.4364195e-05 -2.0047608e-16 4.789181e-07
4.738803e-13 -1.9973167e-13 0.0005878375 -2.6510878e-09 -2.3520182e-15 4.477837e-11 -1.8049027e-06 3.2577827e-09
8.5709337e-13 -4.7267743e-08 -5.570272e-12 2.5564308e-09 -8.9203546e-05 9.1072366e-08 3.2576673e-16 -4.6133045e-11
1.4563561e-12 -0.0001955194 -8.507243e-09 -1.0086585e-14 -6.9390467e-06 1.6908672e-12 -4.7904173e-06 7.968937e-18
-1.6126263e-13 -1.5502467e-12 -0.00031573162 5.770444e-10 4.2300217e-12 -3.1061415e-10 1.4015432e-12 7.602994e-14
-9.3158276e-14 9.058674e-09 -7.725321e-14 1.3752031e-05 -1.1840818e-06 8.949169e-10 2.5109788e-09 -3.9383753e-11
-1.8872865e-05 -4.710364e-12 -3.4105868e-10 2.5086294e-06 -2.6558136e-15 9.278141e-08 8.784178e-15 -5.588025e-06
-1.2557239e-13 -7.6253777e-06 0.0004975684 -2.644405e-05 -5.078788e-12 0.0005049437 -2.4905883e-11 -5.8140896e-15
4.5320886e-10 1.788459e-08 -0.0004579306 3.2088978e-05 -4.5345575e-11 -9.842746e-09 -1.4680301e-15 0.0005279789
-0.0003850158 -2.0102462e-09 5.566113e-05 8.717499e-10 -3.593135e-05 0.0002400478 1.7904558e-05 -2.7730644e-14
-1.9748258e-15 -5.3730718e-12 3.5527046e-07 9.869063e-14 2.5721627e-06 0.0004644918 -4.1656012e-11 1.4089814e-10
4.209052e-06 -8.348301e-13 -1.6235887e-05 -1.0393892e-15 -7.4041817e-09 9.630232e-05 0.00015749685 -4.3442612e-14
0.00017669755 -3.9736926e-11 5.894618e-16 -2.2358013e-15 -4.9629964e-15 0.00015948023 -1.8130513e-11 -9.030577e-12
-1.9517193e-11 5.6240413e-13 -4.6585056e-09 -2.5392698e-16 3.2221713e-05 -1.8872714e-15 -7.682691e-13 6.607225e-11
-3.3495418e-12 3.516481e-14 -1.4506966e-07 -9.172615e-06 -9.7388934e-15 -0.0006573544 -1.2842163e-07 1.0805649e-05
-1.0245755e-15 -2.1348884e-12 4.614413e-16 -2.5281228e-16 2.5822153e-06 -8.259463e-17 -7.6038535e-09 3.0537125e-05

module.transformer.blocks.0.mlp.fc2.bias f4 [64]
00000000: 5656 403b fdfa 3ebc ee57 57bd 76d1 ab3b
00000010: fa53 f6bb 8bb4 a13d 82f8 6ebb 7d70 ba3b
00000020: 0f62 03bd 4f3e 243c f951 bd3d 1a23 16bb
00000030: 0c58 8fbd c55d adbc dc6f 653c 8e64 05bc
00000040: 0103 93bb f26b febb 19f6 3e3c a2ab 7c3c
00000050: 7bb8 9abc 635e db3c 8ef1 3c3b 1790 773c
00000060: 6618 41bc 55f9 fb3b dd39 803b 20fd 3c3b
00000070: 911c 54bc 430a 7e3c c430 aa3c 7ed2 8e3b
00000080: ee3e 1f3c b0e5 3ebd ef93 c0ba 612a 27be
00000090: 083f 7bbb 6b8d ea3c 8da6 14be 9baa 35bd
000000a0: ea7d b43c 5654 b23c fd24 72bc e90f a4bb
000000b0: 8761 6d3c f3d4 c53b c556 6ebc d638 5f3c
000000c0: 8a83 7bbc 402e 2b3d 290d 763b 4a7b 953e
000000d0: 453a 1e3d 4434 78b9 b217 a7bd 1969 f4bc
000000e0: a563 613c 8905 a33b 7198 75bd 57a5 2b3b
000000f0: f2d7 143c 8990 8b3d 6131 a3bc 0be6 8cbc
0.0029348335 -0.01165652 -0.05257409 0.0052434755 -0.007517335 0.07895764 -0.003646404 0.005689679
-0.032075938 0.010024621 0.09244151 -0.0022909106 -0.069992155 -0.021162877 0.01400372 -0.00814165
-0.004486442 -0.007764333 0.011655354 0.01542178 -0.018886795 0.026778406 0.0028830501 0.015110037
-0.011785602 0.007689635 0.003913148 0.0028837398 -0.012946264 0.015505376 0.020775206 0.0043585887
0.009719593 -0.046605766 -0.0014692525 -0.1632476 -0.003833713 0.028631886 -0.14516659 -0.044352155
0.022032697 0.02176873 -0.0147793265 -0.0050067795 0.014488584 0.0060373484 -0.014547055 0.013624391
-0.015351186 0.041792154 0.0037544465 0.29195625 0.03862979 -0.00023670594 -0.081588164 -0.02983527
0.013756667 0.004975025 -0.059959833 0.002619108 0.0090846885 0.06814677 -0.019921007 -0.017199537

module.transformer.blocks.1.norm1.weight f4 [64]
00000000: 0a44 a3b9 7384 ebb4 5dc8 d1b3 eada 0f3f
00000010: af38 9536 1086 093f faa1 c0b9 c66a 2b3e
00000020: 48e8 fe3b 108d ac3e 0cae 143f 5e5d c436
00000030: a4df 093f 1e93 82bb f865 013f 9857 8b3e
00000040: 31ef 743b 5b40 e536 0d5b a83a fbe1 0d3f
00000050: c393 c63e 2080 173b e0c0 143f 6474 083f
00000060: b15d 2b3f 643e 723b ff02 05b5 17bb 003f
00000070: 7222 253a 9dfc f939 b948 023f fc8e 5c3e
00000080: ca4f 213e eef6 0f3f 67c7 853d 1103 eab6
00000090: 92a4 26ba e61e 2e3f d8d1 8f38 94f3 453d
000000a0: f1a0 56b1 e1fc 30b9 09e1 c03e 8365 d73d
000000b0: 2326 f23d 9712 893a eb03 1539 e1f0 80b8
000000c0: ca40 32bb bae3 8e3e 6fca 3cb5 50e3 0437
000000d0: 21d6 823d 8197 d9b7 c11b 263f 65cd c1b2
000000e0: 4bce 843d 944a 8c3b 6370 f93e 7045 453f
000000f0: 8210 4f3e bcd5 ab3d 1a7f 2f32 f54e 85b9
-0.00031140476 -4.386853e-07 -9.768767e-08 0.5619341 4.447145e-06 0.5372019 -0.00036741776 0.1673995
0.007779155 0.33701372 0.58078074 5.8521246e-06 0.53856874 -0.003984823 0.50546217 0.27215266
0.0037374015 6.832224e-06 0.0012844518 0.55422944 0.38784608 0.002311714 0.58106804 0.533026
0.66939837 0.0036963457 -4.955072e-07 0.50285476 0.0006299383 0.00047681193 0.50892216 0.21538919
0.15753093 0.5623616 0.065321736 -6.9741004e-06 -0.00063569203 0.680159 6.857858e-05 0.048327997
-3.1232583e-09 -0.00016878873 0.37671688 0.10517409 0.1182368 0.0010457811 0.00014211207 -6.148383e-05
-0.0027199262 0.27908117 -7.033004e-07 7.920738e-06 0.06388498 -2.5938965e-05 0.648861 -2.256156e-08
0.0648466 0.0042813513 0.48718557 0.7705908 0.20221141 0.08390376 1.021524e-08 -0.00025426564

module.transformer.blocks.1.norm1.bias f4 [64]
00000000: cd32 9338 2a6a 0cb4 b821 0134 0a61 bbbd
00000010: 50d1 d5b5 2664 51bd 5ec2 403a 7126 efbc
00000020: d1eb cf3b 5e98 76bd c2ce 8b3c 97ca 8ab4
00000030: 79b6 2d3d e507 5aba d033 483d 123f 4cbc
00000040: 9bc7 86ba 3e35 c935 1a37 b339 a4a7 e2bc
00000050: 4ab3 9dbc cebf 85ba 61cb 5fbc 41e6 45bc
00000060: bb8b a13d 39d1 fa3a ff84 1ab4 5e40 343c
00000070: f923 f2b9 4e00 9538 cd17 8bbc c671 0c3c
00000080: 2405 a039 2297 693d fec7 b0bb 125d fb35
00000090: 4d4f 4539 7946 7d3c 625f b337 8791 95bc
000000a0: b88d 82b1 8c5d 4e3a 29d7 133d df1d 7abb
000000b0: 5fe4 58bc ff36 ad3a 5678 ee38 ecba f338
000000c0: 3fb8 51b9 981c 8e3c b6ce 6334 003d 9eb5
000000d0: 06b3 19bd 247c 49b9 b6c7 023e 2219 0833
000000e0: d1f4 bf3b 0f36 7db9 4b44 0d3d 976e 3c3d
000000f0: 36a5 6abc f3ad 3b3c 8232 9231 8cc3 3a3a
7.0189686e-05 -1.3077138e-07 1.2026328e-07 -0.09149368 -1.5930655e-06 -0.0511209 0.0007353182 -0.029193135
0.00634525 -0.060203902 0.017066363 -2.5851907e-07 0.042410348 -0.00083172164 0.048877537 -0.012466209
-0.0010282876 1.4991163e-06 0.00034182594 -0.027667828 -0.01925053 -0.0010204257 -0.013659329 -0.012078823
0.078879796 0.001913584 -1.4390751e-07 0.011001674 -0.0004618464 7.1049304e-05 -0.016979123 0.008572048
0.00030521408 0.057028897 -0.0053949347 1.8728044e-06 0.00018816926 0.0154586965 2.1382879e-05 -0.01825787
-3.7996095e-09 0.0007872216 0.036093865 -0.0038164777 -0.013238042 0.0013215243 0.00011371139 0.0001162196
-0.0002000043 0.017347619 2.1216223e-07 -1.1789671e-06 -0.037524246 -0.000192151 0.12771496 3.1687826e-08
0.005858042 -0.00024148099 0.034488957 0.046003904 -0.014321616 0.011455047 4.2549013e-09 0.00071244757
