graph_transformer/saved_models/simclr_transformer_model.pth (torch, 580059 bytes, 46 tensors)

module.cls_token f4 [1, 1, 64]
-0.006021803 0.0067819236 0.08201726 0.024704423 -0.11150301 -0.00043863195 0.12588875 -0.09515741
-0.01104587 0.00085063383 -0.014374154 0.0018486895 -0.039934687 0.0028516753 0.06856401 -0.0011990555
-0.012218014 -0.007720545 -0.0016544787 0.088581964 0.0041994685 0.002945338 0.011123453 -0.00954623
0.026693108 0.11705531 -0.12362225 -0.005938863 0.048266444 -0.071052626 0.017386168 0.0050467034
0.014283792 0.010209494 0.22890787 0.0020946406 0.008520567 -0.00010894234 0.00048325167 0.004000837
0.00397081 0.0034774314 0.047770478 0.10103389 0.0032950118 -0.016258456 0.005742124 -0.007843162
0.0055381507 -0.0031792999 0.02244012 0.0039832336 0.004577988 -0.0009204196 0.0053342883 0.009795309
0.0004923389 -0.22384363 0.0030319076 0.002773375 -0.020920249 -0.14042985 -0.074856296 -0.020763231
00000000: 8b52 c5bb e63a de3b aaf8 a73d ee60 ca3c
00000010: b15b e4bd 2ff8 e5b9 fbe8 003e e3e1 c2bd
00000020: bdf9 34bc 12fd 5e3a 9281 6bbc ba4f f23a
00000030: 8e92 23bd 2ce3 3a3b 4a6b 8c3d a029 9dba
00000040: 112e 48bc a0fc fcbb 18db d8ba 766a b53d
00000050: b29b 893b 9206 413b 253f 363c ca67 1cbc
00000060: 81ab da3c b2ba ef3d aa2d fdbd cb9a c2bb
00000070: 09b3 453d 0a84 91bd 706d 8e3c d15e a53b
00000080: 9106 6a3c b945 273c d366 6a3e 3d46 093b
00000090: d999 0b3c f977 e4b8 f15c fd39 7419 833b
000000a0: 921d 823b 9ee5 633b faaa 433d dbea ce3d
000000b0: 20f1 573b 7430 85bc 6d28 bc3b 9b80 00bc
000000c0: 6079 b53b cd5b 50bb 58d4 b73c c985 823b
000000d0: f202 963b 5048 71ba 41cb ae3b 817c 203c
000000e0: 4e10 013a 4437 65be f8b2 463b 83c1 353b
000000f0: f160 abbc d8cc 0fbe 424e 99bd a717 aabc

module.transformer.blocks.0.norm1.weight f4 [64]
0.0006409794 -0.009084721 0.14085774 0.30261356 0.79569834 0.11093597 0.24897112 -0.005107628
-0.00054513355 1.4720703e-05 0.4211049 0.62345153 0.64371806 -0.000120676836 0.80627984 0.0033080177
0.14994895 0.38454583 -4.630025e-05 0.86715007 0.01006449 0.0005554525 -0.007173101 0.00027832665
0.29391414 0.00050946604 -0.0012002583 0.19081272 0.5059134 0.92178893 -0.0013466785 -0.00021352478
0.3808832 0.0011316463 0.00070996967 -0.000105284584 -0.0001483208 0.0017526601 0.001586714 0.0009921923
-0.0007556027 0.27540264 0.61458606 0.00042275965 0.00012233906 0.00020829745 -0.0073627094 0.08548065
0.27851585 0.08157314 -0.0016256806 0.21176541 -0.0038475702 0.0022232528 -0.0038942122 0.0017711545
0.18917176 -0.004267716 0.0023331926 -0.014415909 0.81684756 0.8710774 0.7731955 -0.00037547367
00000000: 6607 283a 15d8 14bc 033d 103e 2af0 9a3e
00000010: e3b2 4b3f 6632 e33d 49f2 7e3e e45d a7bb
00000020: 4be7 0eba f0f8 7637 109b d73e 859a 1f3f
00000030: b5ca 243f e213 fdb8 5b68 4e3f 54cb 583b
00000040: 388c 193e 31e3 c43e 8432 42b8 8cfd 5d3f
00000050: 88e5 243c c99b 113a 550c ebbb 5fec 9139
00000060: ea7b 963e b08d 053a fc51 9dba 6964 433e
00000070: 8a83 013f 5cfa 6b3f 0883 b0ba 9fe5 5fb9
00000080: 1f03 c33e c053 943a 421d 3a3a 3bcc dcb8
00000090: 9086 1bb9 84b9 e53a 49f9 cf3a 730c 823a
000000a0: a413 46ba 9301 8d3e 8355 1d3f d7a5 dd39
000000b0: 2448 0039 6c6a 5a39 e242 f1bb 7b10 af3d
000000c0: a199 8e3e d20f a73d ca14 d5ba 08d9 583e
000000d0: 8427 7cbb feb3 113b 0a36 7fbb 1526 e83a
000000e0: 3eb6 413e 32d8 8bbb 7ae8 183b b430 6cbc
000000f0: ec1c 513f eefe 5e3f 24f0 453f 39db c4b9

module.transformer.blocks.0.norm1.bias f4 [64]
-0.00019807377 0.0040269815 -0.018290402 -0.16889419 -0.19550686 0.0075446097 0.16396588 -0.0023768686
0.0005466085 -8.577902e-06 -0.15485811 -0.05414713 -0.09499719 6.0711656e-05 0.15514672 -0.003376783
0.110211395 -0.1259348 -0.000106151165 0.10280432 0.0038788489 -0.00030074856 -0.004121037 -0.00053760596
0.15089406 -0.00013910067 0.0009068585 -0.11750689 0.17493731 -0.11860515 8.0888625e-05 0.0015085478
-0.016480237 -7.89644e-05 -3.0893252e-06 5.6205212e-05 0.0005084236 -0.0045021963 -0.00063418935 -0.000682416
0.0006740895 -0.12276807 0.16948737 -4.6605533e-06 0.003178725 -0.000116541814 0.0043038884 0.11850263
0.0654727 0.006492307 0.0011150467 0.09760082 0.0055551757 -0.0011092741 -0.0035833938 0.0013210067
-0.03598559 0.0044771456 0.00038715886 -0.0030660932 -0.01862547 -0.01543163 0.121159524 0.00024580324
00000000: 06b2 4fb9 c5f4 833b c1d5 95bc 99f2 2cbe
00000010: f332 48be c638 f73b ace6 273e 3dc5 1bbb
00000020: 474a 0f3a cfe9 0fb7 2093 1ebe 62c9 5dbd
00000030: e38d c2bd a5a4 7e38 c8de 1e3e 054d 5dbb
00000040: 83b6 e13d 0df5 00be 799d deb8 128b d23d
00000050: 4934 7e3b caad 9db9 c409 87bb 20ee 0cba
00000060: f983 1a3e 8ddb 11b9 3eba 6d3a 74a7 f0bd
00000070: c422 333e 42e7 f2bd c0a2 a938 77ba c53a
00000080: 9001 87bc b099 a5b8 3452 4fb6 e3bd 6b38
00000090: bb47 053a 2987 93bb ba3f 26ba 2ae4 32ba
000000a0: 61b5 303a d36d fbbd 198e 2d3e d961 9cb6
000000b0: 2852 503b e967 f4b8 a207 8d3b 82b1 f23d
000000c0: 8d16 863d 6bbd d43b c226 923a f0e2 c73d
000000d0: 3108 b63b 1065 91ba 5fd7 6abb a125 ad3a
000000e0: a065 13bd 05b5 923b 95fb ca39 82f0 48bb
000000f0: 7194 98bc f3d4 7cbc 7c22 f83d 27df 8039

module.transformer.blocks.0.attn.qkv.weight f4 [192, 64]
-3.519326e-08 -8.953078e-08 -3.0782144e-06 4.3177347e-06 3.7894275e-05 -7.6330195e-08 -8.503916e-06 -1.8645525e-07
1.6998857e-08 5.2896336e-09 7.513193e-06 -1.9362637e-06 9.719134e-06 1.6788222e-10 -1.6090888e-05 1.3019455e-07
-1.7242792e-06 4.695785e-06 -1.2370196e-08 -2.2860459e-05 -1.2727064e-07 -1.5252972e-07 1.7918163e-07 -1.5801004e-07
-5.457552e-06 -1.0663807e-08 -1.4704234e-07 3.8814237e-06 -7.4898167e-06 1.1352244e-05 1.492e-08 -1.4151537e-07
-1.6324361e-06 -7.7706036e-10 -1.0824825e-07 6.4441745e-09 2.4214122e-08 -9.9915724e-08 6.549009e-10 6.385224e-08
3.0711936e-07 3.085047e-06 -8.13345e-06 -2.3862192e-08 -2.436361e-07 1.8069162e-08 -1.4736062e-08 -4.0520245e-06
-3.215788e-06 -1.2193445e-08 2.6420352e-07 -5.0676763e-06 1.3607219e-06 -1.262442e-07 3.545672e-07 -6.6836236e-08
9.742006e-07 -1.419342e-06 -4.1848903e-08 1.1135104e-07 1.02320655e-05 1.543004e-05 4.8071383e-06 5.9082183e-08
-1.766853e-09 5.2189797e-08 -5.714862e-07 9.960795e-07 2.352016e-05 -1.2177506e-07 -2.0578152e-06 1.7693151e-07
-4.145334e-09 -3.9348502e-10 1.7478785e-06 -1.3718364e-06 2.2596118e-06 1.0710932e-08 -4.013005e-06 1.4556954e-07
-1.7992228e-06 2.1699097e-06 5.9992056e-09 -1.16290985e-05 -6.816934e-08 -3.6471416e-08 3.157904e-08 -1.552522e-08
-1.111621e-06 -1.265519e-08 -5.9089e-08 1.3566627e-06 -1.5810798e-06 6.312459e-06 1.5578117e-08 2.7286745e-08
-2.2195275e-06 -6.237542e-10 -6.046416e-08 6.72671e-10 6.9314323e-09 -1.03689274e-07 1.6697548e-08 -1.4057829e-08
7.638586e-08 1.989871e-06 -1.4153367e-06 -1.5862607e-08 -1.0074822e-07 1.10854845e-08 4.088439e-07 -2.792194e-06
-2.685152e-06 1.7485531e-08 1.5039815e-08 -2.443513e-06 8.71547e-07 -4.7827284e-09 -6.561164e-08 -4.7842647e-08
1.191493e-06 -6.5368795e-07 -2.284561e-08 -3.2574466e-08 3.1269944e-06 -7.926689e-07 3.822573e-06 3.8292107e-08
4.355536e-10 -4.4551958e-09 3.7837285e-07 -2.6820553e-07 -6.6517932e-06 5.5022946e-09 1.9034021e-06 -2.3630497e-08
3.1424463e-09 -5.093353e-10 -8.925639e-07 4.5009355e-07 -1.7716598e-06 -2.5063115e-10 2.6626697e-06 -7.3434276e-09
8.1888146e-08 -3.9671693e-07 5.206143e-09 5.565493e-06 -2.6914168e-07 -1.2733246e-08 -1.551118e-08 2.604963e-09
6.7191496e-07 -4.476029e-09 5.1488996e-10 -3.044504e-07 1.6203705e-06 -3.7189639e-06 -8.249304e-10 3.795419e-09
1.8777116e-07 -4.6669987e-11 -8.847121e-09 3.244779e-09 2.113642e-10 4.1193765e-08 -1.4580442e-09 1.4802783e-09
-6.137372e-10 -2.6220275e-07 1.6802962e-06 -2.1156192e-09 -2.2485649e-08 -6.46929e-10 -1.4128979e-07 2.472711e-07
3.3019236e-07 -2.3460716e-09 3.2909444e-08 4.345434e-07 2.3223004e-07 -3.5721055e-09 6.0275504e-08 -6.609844e-09
-9.975641e-08 -1.1410527e-07 1.7966074e-10 -6.726723e-09 -1.3614324e-06 9.290025e-06 -2.4371195e-06 -2.072608e-09
-8.676692e-09 -1.805216e-07 2.3028833e-06 -2.2041052e-06 -2.5074536e-05 4.0501746e-08 8.091345e-06 -7.81409e-07
3.6050984e-08 2.2004816e-09 -5.419185e-06 1.9648642e-06 -8.682193e-06 2.3497624e-09 1.5968066e-05 8.164595e-08
3.9825363e-07 -3.2112555e-06 5.225014e-09 2.3329914e-05 -3.161264e-08 2.139354e-08 1.2842581e-07 -3.7236965e-09
3.8923567e-06 -8.249056e-09 -1.4765216e-07 -2.4045135e-06 7.0850333e-06 -9.877371e-06 -1.1554572e-09 2.2428585e-08
9.941415e-07 -1.5086065e-09 4.7608843e-08 -7.755969e-09 -1.8347794e-08 4.4220843e-07 -2.2588939e-08 1.700801e-08
-5.909173e-08 -1.9000465e-06 7.4357004e-06 5.25875e-09 -1.5018121e-07 -6.032161e-09 -1.2167759e-06 1.937082e-06
1.9799547e-06 -1.2583772e-09 -8.50859e-08 2.7562144e-06 -1.9818012e-06 -4.5378673e-08 2.8409315e-07 -7.694155e-09
-5.7061743e-07 9.875413e-09 2.5376183e-08 2.3653739e-07 -8.433705e-06 2.1694617e-05 -8.154841e-06 -1.1662041e-08
00000000: 6627 17b3 1144 c0b3 5293 4eb6 0fe1 9036
00000010: abf0 1e38 f8ea a3b3 0bac 0eb7 6e34 48b4
00000020: e204 9232 1cc0 b531 d619 fc36 c2f0 01b6
00000030: 5d0f 2337 a596 382f ebfa 86b7 9bcb 0b34
00000040: c86d e7b5 7c90 9d36 b384 54b2 76c4 bfb7
00000050: e3a7 08b4 0dc7 23b4 1265 4034 78a9 29b4
00000060: 0420 b7b6 eb33 37b2 b1e2 1db4 2d3d 8236
00000070: 0951 fbb6 8475 3e37 6d29 8032 73f3 17b4
00000080: 141a dbb5 c398 55b0 1b76 e8b3 8f6b dd31
00000090: 6bff cf32 4091 d6b3 8e04 3430 241f 8933
000000a0: 2ae2 a434 b408 4f36 e774 08b7 84f9 ccb2
000000b0: 17cd 82b4 8236 9b32 e329 7db2 a0f6 87b6
000000c0: d1ce 57b6 577b 51b2 dbd7 8d34 020b aab6
000000d0: 0ca2 b635 be8d 07b4 585b be34 9c87 8fb3
000000e0: 47c1 8235 3880 beb5 5bbd 33b3 e21f ef33
000000f0: 63aa 2b37 c26f 8137 014d a136 8cc1 7d33
00000100: 9dd5 f2b0 4a27 6033 3c68 19b5 08b1 8535
00000110: 294d c537 46c1 02b4 ff18 0ab6 90fa 3d34
00000120: be6e 8eb1 1852 d8af a698 ea35 f11f b8b5
00000130: d6a3 1736 2d03 3832 73a7 86b6 da4d 1c34
00000140: d37c f1b5 c49e 1136 9221 ce31 991a 43b7
00000150: 7e64 92b3 bfa4 1cb3 86a1 0733 525c 85b2
00000160: 0233 95b5 1d6a 59b2 0bc9 7db3 9316 b635
00000170: 7d35 d4b5 9ccf d336 a4d0 8532 3064 ea32
00000180: 31f3 14b6 cd74 2bb0 86d8 81b3 03e7 3830
00000190: 8629 ee31 c8ab deb3 4c6e 8f32 fc82 71b2
000001a0: 9209 a433 b989 0536 99f6 bdb5 3e42 88b2
000001b0: eb5a d8b3 7a72 3e32 147f db34 8761 3bb6
000001c0: 8f32 34b6 1733 9632 e730 8132 3cfb 23b6
000001d0: 41f4 6935 5355 a4b1 61e6 8cb3 8c7b 4db3
000001e0: 63eb 9f35 1879 2fb5 073e c4b2 01e8 0bb3
000001f0: 5bd9 5136 cbc7 54b5 a743 8036 9e76 2433
00000200: b872 ef2f 5114 99b1 2b23 cb34 e3fd 8fb4
00000210: 7832 dfb6 b20e bd31 6678 ff35 03fc cab2
00000220: 80f2 5731 4901 0cb0 8698 6fb5 63a4 f134
00000230: c4c9 edb5 33c9 89af 51b0 3236 7951 fcb1
00000240: 7cda af33 5cfc d4b4 b8e1 b231 39bf ba36
00000250: 8d7e 90b4 68c1 5ab2 723d 85b2 fe02 3331
00000260: a55d 3435 91cb 99b1 2988 0d30 5873 a3b4
00000270: 827b d935 5093 79b6 51c1 62b0 dc68 8231
00000280: 259e 4934 bc41 4dae 0dfe 17b2 c1fa 5e31
00000290: bc65 682f 06ed 3033 5f64 c8b0 aa72 cb30
000002a0: ebb3 28b0 dfc4 8cb4 8a86 e135 5e62 11b1
000002b0: 7726 c1b2 95d3 31b0 71b5 17b4 aec0 8434
000002c0: 4b45 b134 8738 21b1 5158 0d33 314b e934
000002d0: e85a 7934 2579 75b1 cf70 8133 cd1c e3b1
000002e0: ab39 d6b3 090a f5b3 018a 452f e220 e7b1
000002f0: 76ba b6b5 5bdc 1b37 658d 23b6 b56d 0eb1
00000300: 7f10 15b2 66d5 41b4 3c8b 1a36 3dea 13b6
00000310: 2857 d2b7 24f4 2d33 10c0 0737 05c2 51b5
00000320: 7ad6 1a33 4837 1731 72d6 b5b6 1cdc 0336
00000330: bca9 11b7 7579 2131 29f3 8537 5655 af33
00000340: 90cf d534 f380 57b6 b687 b331 9cb4 c337
00000350: 77c6 07b3 e4c4 b732 6be5 0934 f6e3 7fb1
00000360: 179b 8236 bbb7 0db2 518a 1eb4 3a5d 21b6
00000370: f9bb ed36 fcb6 25b7 09ce 9eb0 fba8 c032
00000380: 716e 8535 5f57 cfb0 7a7a 4c33 1d3f 05b2
00000390: 3a9b 9db2 aa68 ed34 9a09 c2b2 0219 9232
000003a0: 0bcc 7db3 1a05 ffb5 2e80 f936 74b0 b431
000003b0: 7f41 21b4 7343 cfb1 1a50 a3b5 d1fe 0136
000003c0: 5ddf 0436 36f3 acb0 78b8 b6b3 67f7 3836
000003d0: 16ff 04b6 61e6 42b3 7785 9834 402f 04b2
000003e0: 882c 19b5 87a8 2932 d1fa d932 e7fa 7d34
000003f0: 7d7e 0db7 d6fc b537 c7d0 08b7 335a 48b2

module.transformer.blocks.0.attn.proj.weight f4 [64, 64]
-0.0033506267 -0.018651444 -0.07225396 0.072129674 -0.01324359 -0.11573444 0.0070315646 -0.0047335993
-0.0110758515 0.16566043 0.025256356 0.054359812 0.0036409392 0.09371652 8.985132e-05 -0.012752216
-0.007451624 0.0023468644 -0.00260329 -0.032096367 -0.0097239865 0.012799932 0.009680485 -0.16888449
-0.0027223947 -0.052779526 0.038948216 -0.04834708 0.13468456 0.009367219 0.040934883 0.00916132
0.021345625 0.0072744507 0.0023098474 -0.05118981 0.02910482 -0.09817629 -0.0051988624 0.011857211
0.0120941 -0.0021831545 -0.09281056 0.053253926 -0.0060725394 0.0062903585 0.024768936 0.015106296
-0.06401027 -0.066991284 -0.0031723431 -0.13529104 -0.0038222068 0.006872839 0.014002932 0.13333105
0.0017698485 0.0073209517 -0.13267967 -0.005861885 -0.12778763 -0.010137558 -2.6185702e-05 0.013263417
-0.0013387462 -0.010588943 -0.006218926 0.0017471014 -0.0012422258 -0.008455882 0.0010337814 -0.0015489605
0.006734795 0.010596842 -0.0010187522 -0.0013598101 0.00040780878 -0.007378852 0.0012988976 -0.00078725885
0.0010919318 0.0012059327 -0.0011619452 -0.00577536 -0.00080404565 -0.00030314852 0.0010254724 -0.00532749
0.0010750433 0.00048531694 -0.0031899628 0.0022307483 -0.0052460837 -0.0014561168 0.0033412147 -0.0002806954
0.0008834927 0.00027641322 0.0012134742 -0.0030887201 0.00562039 0.005843748 -0.0013853483 0.00306095
-0.0048928205 -0.0011349892 -0.0011483552 0.003701913 -0.0010574417 -0.0011057899 -0.0011953254 0.0011414906
-0.00061185943 -0.0032379746 -0.001128046 -0.00020693311 0.0011907557 0.0073953755 -0.009487884 0.015111643
-0.0011831305 -0.001246844 -0.0026603525 0.0049762777 -0.005048405 -0.0018087826 0.00022545448 -0.0021853426
-0.0050389958 -0.044871468 -0.048317257 -0.007984145 -0.0076514995 0.00541317 0.0062534125 -0.0058859014
0.010618441 0.027356522 0.02763103 0.022025954 -0.0006392653 -0.041774172 0.0030064206 0.00107367
0.002233218 0.005171109 -0.0051870956 -0.002457326 -0.009113166 -0.0013220052 0.005754508 0.013916151
0.002178236 0.019667147 -0.025745414 0.02948441 -0.020568443 -0.0051149973 0.014489297 -0.0010387818
0.028267171 -0.0012056131 0.00520182 0.00475848 0.039637733 0.05154492 -0.003197541 0.0042199735
-0.0014356473 -0.0048908824 0.012652914 -0.0035006157 -0.0060468903 -0.0016841935 -0.0010713943 0.008363429
0.016832273 -0.040687025 -0.004954261 0.0042342865 0.0035135585 0.012645159 -0.015900074 0.03559641
-0.0038004809 -0.023978753 -0.015551842 -0.006125344 -0.00712614 -0.018548522 2.1232906e-06 -0.030783951
0.0074074115 -0.1668941 -0.28350168 0.0675923 0.0024444524 -0.0031749525 -0.0017342519 0.0056559206
0.057103608 0.21948355 0.053025026 0.08830494 -0.0016619059 0.027975878 -0.0013015006 0.0015639848
-0.0043306844 -0.0035384728 0.0027843553 0.133593 -0.0031908997 0.0012425748 -0.0012397097 0.04246362
-0.004593406 -0.019128783 -0.021075005 0.0136805065 -0.032049023 -0.018323183 -0.115821026 0.001719714
0.08973693 0.000372183 -0.0034475029 0.109159894 0.075649954 -0.06875405 0.0056200977 -0.0064067966
-0.066785514 0.0055420925 -0.046420876 0.031433724 0.0042870813 0.0046079946 0.02111357 -0.0014020175
0.1533625 -0.14386788 0.00369626 0.08216192 -0.004648217 0.08145899 -0.058586657 0.18454574
0.0040715802 -0.1446921 -0.09818226 0.027211923 -0.13789673 -0.07931733 -0.0020063315 -0.15512942
00000000: 3096 5bbb eaca 98bc e2f9 93bd b9b8 933d
00000010: a4fb 58bc 2e06 edbd 0a69 e63b 4f1c 9bbb
00000020: 7d77 35bc e3a2 293e 6be6 ce3c 65a8 5e3d
00000030: d39c 6e3b 72ee bf3d 8f6e bc38 acee 50bc
00000040: c12c f4bb dacd 193b f59b 2abb 7b77 03bd
00000050: 5b51 1fbc ceb6 513c e69a 1e3c 0ef0 2cbe
00000060: 346a 32bb 582f 58bd 2a88 1f3d 9607 46bd
00000070: c0ea 093e f778 193c 56ab 273d 5c19 163c
00000080: 05dd ae3c 845e ee3b cf60 173b 68ac 51bd
00000090: 3b6d ee3c a710 c9bd 385b aabb bf44 423c
000000a0: 5526 463c 4113 0fbb 7613 bebd ca20 5a3d
000000b0: 27fc c6bb 5a1f ce3b 39e8 ca3c 6680 773c
000000c0: d117 83bd ba32 89bd 16e7 4fbb bc89 0abe
000000d0: fd7d 7abb 8d35 e13b 8e6c 653c ef87 083e
000000e0: 43fa e73a 98e4 ef3b 2edd 07be 0e15 c0bb
000000f0: c3da 02be 0018 26bc 5ea9 dbb7 ce4e 593c
00000100: de78 afba 3f7d 2dbc 22c8 cbbb fffe e43a
00000110: 2ed2 a2ba 8a8a 0abc f37f 873a 7d06 cbba
00000120: 8eaf dc3b 609e 2d3c a787 85ba a83b b2ba
00000130: 2bcf d539 4cca f1bb c53f aa3a 0c60 4eba
00000140: 271f 8f3a 6310 9e3a 694c 98ba 3b3f bdbb
00000150: 97c6 52ba e8ef 9eb9 2569 863a 3a92 aebb
00000160: 78e8 8c3a 2372 fe39 b20e 51bb bf31 123b
00000170: 57e7 abbb 2cdb beba 48f8 5a3b 4d2a 93b9
00000180: 319a 673a 8eeb 9039 700d 9f3a 206c 4abb
00000190: 402b b83b e97c bf3b 9394 b5ba 389a 483b
000001a0: f453 a0bb ebc3 94ba 6884 96ba cb9b 723b
000001b0: db99 8aba 27f0 90ba 77ac 9cba 129e 953a
000001c0: 3165 20ba 3334 54bb f1da 93ba 2ffc 58b9
000001d0: 2213 9c3a e854 f23b 1273 1bbc d396 773c
000001e0: 4613 9bba 246d a3ba 4f59 2ebb 0b10 a33b
000001f0: 176d a5bb ac14 edba fa67 6c39 f737 0fbb
00000200: 291e a5bb 25cb 37bd 51e8 45bd eecf 02bc
00000210: 6eb9 fabb f660 b13b 6de9 cc3b 85de c0bb
00000220: f8f8 2d3c c91a e03c 785a e23c c66f b43c
00000230: 5e94 27ba 651b 2bbd 5e07 453b 63ba 8c3a
00000240: 2e5b 123b 6872 a93b 83f8 a9bb 170b 21bb
00000250: 634f 15bc 2247 adba 5090 bc3b 9100 643c
00000260: bcc0 0e3b ff1c a13c 0ce8 d2bc 4a89 f13c
00000270: 277f a8bc b59b a7bb 8464 6d3c bc27 88ba
00000280: 8e90 e73c aa05 9eba 0774 aa3b 06ed 9b3b
00000290: 2d5b 223d c420 533d d68d 51bb b447 8a3b
000002a0: 542c bcba b243 a0bb 2b4e 4f3c 966a 65bb
000002b0: fe24 c6bb 28c0 dcba 076e 8cba c406 093c
000002c0: d6e3 893c 70a7 26bd 5a57 a2bb c5bf 8a3b
000002d0: bb43 663b a42d 4f3c df40 82bc 8bcd 113d
000002e0: 7d11 79bb 176f c4bc 27cd 7ebc 1cb7 c8bb
000002f0: 6582 e9bb 12f3 97bc db7d 0e36 a02e fcbc
00000300: dfb9 f23b 49e6 2abe 2227 91be d56d 8a3d
00000310: 1b33 203b dd12 50bb d64f e3ba 4d55 b93b
00000320: 79e5 693d 4cc0 603e c530 593d 38d9 b43d
00000330: 4fd4 d9ba ab2d e53c 1d97 aaba 9ffe cc3a
00000340: 6ae8 8dbb b9e5 67bb bb79 363b 9acc 083e
00000350: 6a1e 51bb e4dd a23a c17d a2ba 55ee 2d3d
00000360: 4884 96bb f7b3 9cbc 7da5 acbc 3424 603c
00000370: d645 03bd 801a 96bc 9333 edbd 0768 e13a
00000380: ffc7 b73d 8f21 c339 80ef 61bb 398f df3d
00000390: 5dee 9a3d ecce 8cbd cc28 b83b 1bf0 d1bb
000003a0: d8c6 88bd 719a b53b d123 3ebd a6c0 003d
000003b0: a57a 8c3b a9fe 963b 5ef6 ac3c e7c3 b7ba
000003c0: 0f0b 1d3e 1a52 13be f43c 723b 8244 a83d
000003d0: 1250 98bb f9d3 a63d 90f8 6fbd 8ff9 3c3e
000003e0: e46a 853b 2a2a 14be c813 c9bd 8aeb de3c
000003f0: cd34 0dbe 2071 a2bd a87c 03bb 3fda 1ebe

module.transformer.blocks.0.attn.proj.bias f4 [64]
-0.18030734 0.0068502887 -0.053496737 0.12640509 -0.06664799 0.016452922 -0.097929254 0.064819805
0.094036296 0.0002598929 -0.011956913 -0.0039472263 -0.0050126994 0.00048667475 0.0058411425 0.006246598
0.009096117 -0.008246218 0.0027922923 0.012250511 0.00198029 -0.00076204474 0.0037493915 -1.2332503e-05
0.013693115 0.008215319 -0.1604108 0.003783143 -0.0018894742 -0.009535714 0.018632615 0.0030029633
0.006555906 0.0057140547 0.21659927 0.0001808546 -0.0037686573 0.00034566686 -0.0004460475 0.00033211187
-0.011171213 0.005326278 0.0059137326 0.14914589 5.400326e-06 -0.107678786 0.003018864 0.011041181
0.011965307 -0.0008515488 0.057210036 -0.032220542 0.0036255498 -0.0028003703 0.0058226744 0.0066398312
-0.0076018423 -0.2495017 -0.0002902602 0.00062316656 -0.005506223 0.10190724 0.0918587 -0.009405385
00000000: 7da2 38be 6378 e03b 651f 5bbd 5670 013e
00000010: be7e 88bd 47c8 863c 228f c8bd 3fc0 843d
00000020: 1a96 c03d 3c42 8839 eee6 43bc bc57 81bb
00000030: 9241 a4bb 6128 ff39 0e67 bf3b 43b0 cc3b
00000040: e107 153c 251b 07bc e4fe 363b 5eb6 483c
00000050: c1c7 013b f5c3 47ba 5ab8 753b b2e7 4eb7
00000060: 1659 603c 8c99 063c bb42 24be 9bee 773b
00000070: 3ca8 f7ba af3b 1cbc 6da3 983c 5dcd 443b
00000080: edd2 d63b f73c bb3b 33cc 5d3e c9a3 3d39
00000090: 94fb 76bb 9f3a b539 7bdb e9b9 4d1f ae39
000000a0: 7707 37bc 0f88 ae3b fcc7 c13b b3b9 183e
000000b0: 7234 b536 b286 dcbd 22d8 453b 12e6 343c
000000c0: 230a 443c 793a 5fba 1255 6a3d b0f9 03bd
000000d0: a29a 6d3b 6b86 37bb 22cc be3b f192 d93b
000000e0: e018 f9bb 607d 7fbe 112e 98b9 005c 233a
000000f0: 8c6d b4bb beb4 d03d 6a20 bc3d 0b19 1abc

module.transformer.blocks.0.norm2.weight f4 [64]
0.00039515455 7.2171464e-09 9.9192446e-05 0.0006603005 -1.4279874e-06 3.88728e-06 0.0012688205 -8.197419e-06
-0.0054621273 9.951909e-07 -5.716197e-09 -0.0005578246 7.682267e-06 5.3615636e-08 -0.00013840839 6.174916e-13
-1.0156499e-05 3.0472893e-05 1.3073573e-06 1.40509765e-05 -2.6026298e-06 -4.965757e-10 -1.8680512e-07 8.1485105e-06
9.6975704e-08 0.0022145708 0.0025320079 -0.00032056426 -1.2127203e-09 -8.060821e-09 -2.2004016e-07 2.6218888e-11
-1.6099291e-05 4.2090145e-05 -0.0028405846 8.2951595e-07 -2.0258476e-06 -1.594437e-07 -7.95409e-08 1.3489227e-08
-9.749246e-05 2.2166287e-07 0.0031409618 0.0051259925 -2.6025955e-07 2.3794005e-06 7.541521e-06 -7.537115e-10
3.7737724e-09 4.3113833e-09 0.0008313607 -3.091823e-10 1.9731132e-10 -1.6315932e-06 1.3086e-06 0.0002109567
9.715231e-10 -0.0012877553 -1.0344701e-07 1.9721384e-07 5.954328e-06 0.00044947758 0.000913801 7.1262015e-08
00000000: bf2c cf39 b1fa f731 8a05 d038 0418 2d3a
00000010: 46a9 bfb5 7b6f 8236 8d4e a63a a687 09b7
00000020: a5fb b2bb 8092 8535 3368 c4b1 fa3a 12ba
00000030: 16e3 0037 0447 6633 b821 11b9 f6ce 2d2b
00000040: d565 2ab7 0aa0 ff37 7478 af35 7cbc 6b37
00000050: d7a8 2eb6 697f 08b0 9a94 48b4 96b5 0837
00000060: f540 d033 5522 113b 0bf0 253b 6811 a8b9
00000070: cdac a6b0 de7b 0ab2 2e44 6cb4 b09f e62d
00000080: f70c 87b7 f389 3038 1a29 3abb e7ab 5e35
00000090: ccf3 07b6 8d33 2bb4 12d0 aab3 3fbe 6732
000000a0: de74 ccb8 3a02 6e34 98d8 4d3b f1f7 a73b
000000b0: cdb9 8bb4 caad 1f36 2c0d fd36 bb2d 4fb0
000000c0: 74aa 8131 5423 9431 acef 593a 8af9 a9af
000000d0: 33f2 582f 1efd dab5 27a3 af35 4234 5d39
000000e0: 6e86 8530 e6c9 a8ba 9826 deb3 bac1 5334
000000f0: 4acb c736 dca7 eb39 268c 6f3a b508 9933

module.transformer.blocks.0.norm2.bias f4 [64]
0.00060081575 -6.2860577e-06 0.0036480299 -0.0010392143 2.8335018e-07 -0.0013241494 -0.004605487 5.185867e-05
-0.007192184 -0.003946808 7.839284e-06 -0.0005480165 -0.0040082214 -0.0053178957 -0.001693354 2.9813925e-09
0.00279661 -0.0106162 0.0017965243 -0.005633401 0.005790984 8.345917e-07 -0.0005576735 0.0023568007
1.0347224e-05 -0.002151563 0.0027829506 0.00040940635 -1.917291e-07 3.7500522e-05 -1.6470252e-06 -3.1806962e-08
0.0050845137 -0.0037062357 -0.0013295496 -0.0049546883 -0.008730704 -0.0021522304 4.5402917e-06 -2.632664e-05
-0.0007207854 -0.00046309773 -0.0030174225 0.001376589 0.003073252 -1.2616543e-05 -0.012709606 -3.820984e-06
-3.11348e-06 -2.3968953e-09 -0.005394423 2.854975e-07 -6.168299e-07 -0.0045729005 0.00015594321 -0.005416703
-2.9755176e-08 -0.0014640338 0.00130824 -0.0020035428 -0.007557876 0.0006105681 0.0064496454 6.217338e-08
00000000: 1080 1d3a d3ec d2b6 c913 6f3b 3f36 88ba
00000010: 5a1f 9834 158f adba a0e9 96bb d382 5938
00000020: 6aac ebbb 3a54 81bb 7885 0337 c4a8 0fba
00000030: 6657 83bb be41 aebb 88f3 ddba 36e1 4c31
00000040: 5447 373b 92ef 2dbc 5a79 eb3a 6598 b8bb
00000050: 4bc2 bd3b b408 6035 d630 12ba 8e74 1a3b
00000060: fd98 2d37 3d01 0dbb 2a62 363b 97a5 d639
00000070: 18de 4db4 e149 1d38 5b0f ddb5 209c 08b3
00000080: fe9b a63b 51e4 72bb 4844 aeba f05a a2bb
00000090: 3a0b 0fbc 6f0c 0dbb cf58 9836 07d8 dcb7
000000a0: 17f3 3cba edcb f2b9 f3bf 45bb a96e b43a
000000b0: 9d68 493b a4ab 53b7 f43b 50bc 0136 80b6
000000c0: 2ef1 50b6 a1b6 24b1 b3c3 b0bb 7a46 9934
000000d0: 3a94 25b5 45d8 95bb b084 2339 997e b1bb
000000e0: 5398 ffb2 d3e4 bfba 4079 ab3a df4d 03bb
000000f0: 0fa8 f7bb 880e 203a 8c57 d33b 2d84 8533

module.transformer.blocks.0.mlp.fc1.weight f4 [128, 64]
1.4183446e-08 1.7257924e-10 2.4392634e-07 -2.0138437e-07 6.841147e-11 -6.456594e-08 5.210089e-07 3.74172e-09
3.74984e-07 4.53657e-07 2.6269965e-11 -1.3622873e-07 -3.3362127e-07 -2.6685277e-07 1.14837555e-07 1.6799535e-13
1.3980205e-07 2.5631055e-08 -2.5457394e-08 -4.534872e-07 4.7365907e-07 -9.217967e-11 5.0572126e-08 1.6022554e-07
8.9291735e-10 -6.0528157e-07 5.270683e-07 8.7438224e-08 1.2106414e-11 -1.9782085e-09 -1.0345603e-10 -2.2383714e-12
-3.1723027e-07 -3.1714544e-07 -5.01224e-07 5.526262e-07 8.850174e-07 2.3734972e-09 3.7207074e-10 1.9177888e-09
-2.3643878e-08 2.1673507e-08 -5.774904e-07 -9.5212e-08 2.659767e-07 -7.0418876e-10 5.7490524e-07 1.3899863e-10
3.252984e-10 -9.456719e-14 4.7608918e-07 2.2615796e-11 1.2148732e-11 -2.7915817e-07 7.519159e-09 -9.714316e-08
-1.2907315e-12 -5.968246e-08 -8.020951e-08 2.222903e-07 5.8239885e-07 9.431172e-08 5.628613e-07 1.3214092e-11
4.0432056e-05 -7.1025795e-07 2.2750664e-05 -6.0989572e-05 3.7736484e-07 -2.4955785e-05 0.000148818 2.5001675e-06
0.00035809513 4.623117e-05 7.4553896e-07 -3.0273894e-05 6.535423e-05 -7.433871e-05 -3.1433738e-05 3.391653e-10
3.1076102e-05 0.0003222743 -1.3230873e-05 0.00012757813 -0.00010092579 1.00172244e-07 -1.4054985e-05 1.0297243e-05
6.877174e-07 7.5558695e-05 -9.58004e-05 1.6313648e-05 -2.1773179e-08 3.7116297e-06 -1.6783581e-07 -3.771585e-09
-8.767673e-05 -7.007961e-07 6.4513944e-05 8.895096e-05 0.00023435254 -7.6822806e-05 5.2626467e-07 -2.5481168e-06
-5.143483e-05 -3.3681787e-05 0.00020180695 -3.8904545e-06 -1.2422447e-05 -7.4584204e-07 0.00040447168 -4.110495e-07
-3.36405e-07 -2.9089128e-10 0.00012948939 3.440558e-08 -5.0402843e-08 5.949146e-05 1.3573883e-05 0.00012369789
-3.1160192e-09 2.2704286e-05 1.2587406e-05 -3.2695334e-05 0.00020565582 5.0377028e-05 -0.00018691912 1.2450651e-08
-1.9651927e-06 2.03094e-08 -1.0691169e-05 5.8409587e-06 -1.5038285e-08 3.8405483e-06 3.014611e-06 -1.2567028e-07
2.8186168e-05 1.096009e-05 -2.4613932e-08 -2.130872e-07 6.9628827e-06 9.12001e-06 4.9589767e-06 -8.933506e-12
-8.7011085e-06 2.5122834e-05 -5.1183947e-06 1.1159072e-05 -1.573397e-05 -2.6702494e-09 1.7646657e-06 -6.380474e-06
-2.4774787e-08 2.5155317e-05 -1.03293405e-05 -6.4986097e-07 6.233654e-10 -1.2033823e-07 4.3916017e-09 9.124204e-11
-1.3573897e-05 1.082523e-05 6.3395096e-06 1.3380833e-05 2.1990269e-05 6.429215e-06 -1.1191391e-08 8.490937e-08
2.6437522e-06 1.4721991e-06 9.3435455e-07 -3.4864956e-05 -5.3268914e-06 2.5036575e-08 2.9130268e-05 1.24041835e-08
1.0156481e-08 6.4793834e-12 1.6125829e-05 -6.789599e-10 1.7683566e-09 1.27322955e-05 -4.0770615e-07 1.3972544e-05
8.950114e-11 -7.498391e-07 -3.8102194e-06 6.1348205e-06 1.8931558e-05 -3.3054096e-06 -1.6097474e-05 -3.456456e-10
4.5429488e-08 -4.1262832e-10 1.8549981e-07 -9.322452e-08 3.058942e-10 -6.535368e-08 -5.127144e-07 2.3862279e-09
-7.999149e-07 -3.5058687e-07 4.975257e-10 3.2594574e-08 -1.6794206e-07 -1.064181e-07 -1.18190755e-07 1.6736214e-13
1.5782057e-07 -6.613001e-07 1.4980621e-07 -2.3513545e-07 2.7746077e-07 6.531949e-11 -2.7141866e-08 1.2316751e-07
4.5223517e-10 -4.475245e-07 2.1618683e-07 -1.39749154e-08 -1.3342394e-11 2.505337e-09 -8.670401e-11 -1.6828069e-12
3.205821e-07 -1.7101517e-07 4.2115698e-08 -4.2536593e-07 -7.9681604e-07 -1.3358807e-07 2.1532504e-10 -1.8384155e-09
-5.567901e-08 -3.1039356e-08 1.4327485e-07 1.047395e-06 1.1350041e-07 -6.002538e-10 -8.8591696e-07 -2.5026248e-10
-2.338491e-10 -1.3424205e-13 -4.6158513e-07 1.4095306e-11 -3.9350207e-11 -2.4705636e-07 8.2718765e-09 -2.9302072e-07
-1.6652031e-12 4.3606306e-08 9.230103e-08 -1.7983695e-07 -5.550873e-07 7.03331e-08 2.9412902e-07 4.640486e-12
00000000: 75ab 7332 bdc0 3d2f fbf4 8234 1d3c 58b4
00000010: 3c70 962e 80a7 8ab3 75db 0b35 8490 8031
00000020: 6951 c934 258e f334 b412 e72d 4546 12b4
00000030: 8f1c b3b4 f743 8fb4 9d9c f633 5d25 3d2a
00000040: 7f1c 1634 492b dc32 67ad dab2 ce76 f3b4
00000050: 354b fe34 8ab4 caae a434 5933 760a 2c34
00000060: 7971 7530 a27a 22b5 dc7b 0d35 acc5 bb33
00000070: 71fa 542d 03f1 07b1 9180 e3ae ea82 1dac
00000080: cc4f aab4 2344 aab4 da8b 06b5 2f58 1435
00000090: ef91 6d35 011b 2331 4d8c cc2f 19ca 0331
000000a0: 7019 cbb2 8c2c ba32 d704 1bb5 5a77 ccb3
000000b0: 8fcb 8e34 e190 41b0 3053 1a35 a3d4 182f
000000c0: aed5 b22f 46f2 d4a9 3399 ff34 3fee c62d
000000d0: 06b9 552d 35df 95b4 9c2d 0132 049d d0b3
000000e0: 81a7 b5ab c82a 80b3 a53f acb3 b1ae 6e34
000000f0: 2556 1c35 6b88 ca33 8917 1735 fb76 682d
00000100: 9795 2938 8ea8 3eb5 aed8 be37 0ecf 7fb8
00000110: a198 ca34 2458 d1b7 070c 1c39 8dc8 2736
00000120: b7be bb39 57e8 4138 0c21 4835 b1f4 fdb7
00000130: c90e 8938 4be6 9bb8 b8d7 03b8 4675 ba2f
00000140: b657 0238 edf6 a839 2bfa 5db7 7ec6 0539
00000150: 1fa8 d3b8 461e d733 b3cd 6bb7 52c2 2c37
00000160: 949b 3835 4475 9e38 73e8 c8b8 4bd9 8837
00000170: ba07 bbb2 5015 7936 5b36 34b4 3697 81b1
00000180: 16df b7b8 571e 3cb5 a94b 8738 2f8b ba38
00000190: 88bc 7539 ee1b a1b8 a244 0d35 5000 2bb6
000001a0: babb 57b8 8b45 0db8 249c 5339 c08a 82b6
000001b0: 016a 50b7 e035 48b5 450f d439 37ae dcb4
000001c0: 279b b4b4 4feb 9faf 8bc7 0739 56c5 1333
000001d0: 837a 58b3 7886 7938 62bb 6337 e6b4 0139
000001e0: 9721 56b1 1575 be37 7f2e 5337 5922 09b8
000001f0: 50a5 5739 ec4b 5338 b8ff 43b9 8be6 5532
00000200: c1e1 03b6 d874 ae32 395e 33b7 74fd c336
00000210: 8a2d 81b2 0fde 8036 9f4e 4a36 fcef 06b4
00000220: 5671 ec37 3ae1 3737 9c6e d3b2 f7cc 64b4
00000230: b5a2 e936 2502 1937 4965 a636 ef28 1dad
00000240: fafa 11b7 e0be d237 adbe abb6 d937 3b37
00000250: 71fc 83b7 867f 37b1 74d9 ec35 db17 d6b6
00000260: 55d0 d4b2 a204 d337 2e4c 2db7 1b72 2eb5
00000270: 7159 2b30 5236 01b4 f0e4 9631 b4a4 c82e
00000280: 72bb 63b7 029e 3537 f9b7 d436 3d7e 6037
00000290: be77 b837 89ba d736 4244 40b2 6b57 b633
000002a0: 516b 3136 6098 c535 5bd0 7a35 f63b 12b8
000002b0: a6bd b2b6 0310 d732 c65c f437 2d1a 5532
000002c0: ad7c 2e32 19f9 e32c f445 8737 8ea1 3ab0
000002d0: 840a f330 cb9c 5537 b5e2 dab4 9f6b 6a37
000002e0: aad0 c42e 8d48 49b5 12b3 7fb6 b5d9 cd36
000002f0: 36cf 9e37 81d2 5db6 1009 87b7 4b05 beaf
00000300: 401e 4333 46d8 e2af cd2d 4734 b932 c8b3
00000310: c82a a82f 9158 8cb3 77a1 09b5 f7fa 2331
00000320: bcb9 56b5 4b38 bcb4 42c2 0830 1dfe 0b33
00000330: 9053 34b4 f887 e4b3 0ed0 fdb3 da6e 3c2a
00000340: 6375 2934 3284 31b5 6bda 2034 8a79 7cb4
00000350: ebf5 9434 9ba3 8f2e 9825 e9b2 0740 0434
00000360: 719e f82f 4d43 f0b4 fc20 6834 5416 70b2
00000370: cdb8 6aad 5b2a 2c31 05aa beae 82d5 ecab
00000380: 781c ac34 4ba0 37b4 b3e2 3433 d95d e4b4
00000390: c8e4 55b5 6970 0fb4 9cc0 6c2f 7fab fcb0
000003a0: b823 6fb3 2250 05b3 17d7 1934 3894 8c35
000003b0: 83bd f333 1bff 24b0 c0cf 6db5 5095 89af
000003c0: 568f 80af a324 17aa c7cf f7b4 9df7 772d
000003d0: 6510 2dae 2ba3 84b4 191c 0e32 7650 9db4
000003e0: 445b eaab a449 3b33 0737 c633 3419 41b4
000003f0: 4f01 15b5 080a 9733 c9e8 9d34 c845 a32c

module.transformer.blocks.0.mlp.fc1.bias f4 [128]
1.9593488e-06 -0.004635797 0.000112059104 -3.854425e-06 8.913475e-05 -0.00026013565 2.2505727e-05 -0.0001605557
4.6075154e-05 5.3446813e-05 0.00020420857 0.000121494115 3.5748624e-05 -4.403498e-05 2.8506302e-05 -4.289153e-06
9.295577e-06 2.7013137e-05 -0.00010205061 -9.952364e-06 1.2838719e-05 2.0127938e-05 -1.2345193e-05 2.5415322e-05
0.0006562043 7.508804e-06 -0.00130554 0.0003011316 1.1555697e-06 -0.00070967263 -9.239301e-06 -8.64317e-06
-0.0011547015 -2.6454063e-06 -0.0019528416 1.4550603e-06 0.00049786706 -0.0003526426 5.4924898e-05 -0.00011294598
-2.7218446e-05 0.0017874896 9.785807e-08 0.00029070413 -4.209603e-05 -0.0011892214 -0.000118435004 0.0035833037
-0.0026175824 1.8843248e-05 -1.0965934e-05 -6.5327636e-06 -0.004002706 -0.0012218098 -0.0052175843 -0.00071406463
0.0035672563 -0.0003627998 0.00045323296 -9.946507e-06 -0.0002718397 -2.986183e-05 -1.02948425e-05 -9.4966636e-05
1.9324663e-05 8.504318e-06 0.0032080247 -4.7382695e-05 8.283686e-06 0.0032545987 5.075152e-06 -1.0153439e-05
0.0038316017 -1.1387542e-05 6.718899e-07 -0.0007778975 -4.459325e-05 5.554728e-06 2.6609605e-06 -8.1151275e-06
-5.0954486e-06 1.9697814e-05 0.004173649 2.370167e-08 -1.2849723e-05 -0.00016457845 -0.0008303317 -0.005864749
-0.003490508 -8.1615595e-05 0.00043507016 3.2933576e-06 -8.68469e-05 0.0007598658 0.00089424476 -0.00017635449
-7.6219614e-05 1.7966802e-05 -0.003850969 4.0456118e-05 -2.9463668e-05 3.5264168e-06 -0.002113866 0.00020158161
-2.8980283e-05 -0.0025541077 1.2085489e-05 -1.5759443e-06 -3.271277e-05 1.679515e-05 0.0009779688 0.0013691863
1.0836313e-05 8.282678e-06 1.1635991e-08 -0.0020235516 0.0020718155 7.292455e-05 0.0012840551 -2.8058952e-05
-1.4240805e-05 3.0051997e-05 -0.000119149256 -0.00036263582 0.004761564 -0.00029645613 1.4414124e-05 0.000501406
00000000: 5b7d 0336 e2e7 97bb 4601 eb38 4255 81b6
00000010: dbed ba38 d162 88b9 aeca bc37 d85a 28b9
00000020: d240 4138 142c 6038 d220 5639 a8ca fe38
00000030: cbf0 1538 33b2 38b8 d120 ef37 8beb 8fb6
00000040: 33f4 1b37 459a e237 0104 d6b8 14f9 26b7
00000050: e165 5737 6bd8 a837 331e 4fb7 fd32 d537
00000060: 2005 2c3a 23f4 fb36 a71e abba 33e1 9d39
00000070: 1319 9b35 5309 3aba 7f02 1bb7 2202 11b7
00000080: 5a59 97ba bc87 31b6 7ef6 ffba 7e4b c335
00000090: 4b83 023a e3e2 b8b9 295f 6638 69dd ecb8
000000a0: 2b53 e4b7 334a ea3a 0b26 d233 a669 9839
000000b0: 4590 30b8 a6df 9bba 4f60 f8b8 dcd5 6a3b
000000c0: bf8b 2bbb 9111 9e37 54fa 37b7 0334 dbb6
000000d0: 2229 83bb 2225 a0ba 45f8 aabb 1130 3bba
000000e0: a1c8 693b 2a36 beb9 e69f ed39 ecdf 26b7
000000f0: b585 8eb9 cb7f fab7 03b8 2cb7 d328 c7b8
00000100: 661b a237 c5ad 0e37 b93d 523b c8bc 46b8
00000110: 29fa 0a37 1b4b 553b 394b aa36 b058 2ab7
00000120: 9c1b 7b3b 1f0d 3fb7 ec5b 3435 d1eb 4bba
00000130: a309 3bb8 c062 ba36 f492 3236 3526 08b7
00000140: 92f9 aab6 bc3c a537 1bc3 883b 8698 cb32
00000150: 2495 57b7 b192 2cb9 9eaa 59ba 152d c0bb
00000160: 02c1 64bb 0a29 abb8 211a e439 7403 5d36
00000170: 9321 b6b8 bb31 473a c06b 6a3a cceb 38b9
00000180: 18d8 9fb8 6ab7 9637 8a60 7cbb 6daf 2938
00000190: bf28 f7b7 61a7 6c36 c988 0abb a75f 5339
000001a0: af1a f3b7 d162 27bb c8c2 4a37 0985 d3b5
000001b0: 1235 09b8 4fe3 8c37 302f 803a 4576 b33a
000001c0: 9ccd 3537 d5f5 0a37 a1e7 4732 909d 04bb
000001d0: 4cc7 073b 12ef 9838 bd4d a83a 2460 ebb7
000001e0: cbeb 6eb7 2c18 fc37 c5df f9b8 2820 beb9
000001f0: e506 9c3b ab6d 9bb9 31d4 7137 c970 033a

module.transformer.blocks.0.mlp.fc2.weight f4 [64, 128]
1.8621578e-06 0.0020416344 -7.0336784e-05 2.931205e-06 -3.7598606e-05 0.00015979864 -1.3682478e-05 0.00011039186
-2.4621733e-05 -2.46024e-05 -0.00014605773 -6.391047e-05 -1.5567126e-05 2.31129e-05 -1.4274615e-05 2.4509375e-06
-5.018003e-06 -1.5167763e-05 3.926156e-05 4.4718267e-06 -6.6775156e-06 -8.49505e-06 1.8555902e-05 -1.2117964e-05
-0.00033307218 -3.298451e-06 0.0006656425 -0.0002155206 -1.4104243e-06 0.00043829385 4.091395e-06 -1.2582221e-05
0.00055733946 1.797579e-06 0.0009463421 -8.0887804e-07 -0.00028480255 0.00018741634 -2.9261131e-05 3.1703494e-05
1.6527752e-05 -0.0010326132 3.3392087e-07 -0.00020925656 2.3476907e-05 0.000780514 3.5945122e-05 -0.0019571525
0.0013785651 -8.907493e-06 6.3160765e-06 2.902917e-06 0.0018954973 0.00066582195 0.0021284733 0.0004030601
-0.0014223837 0.00025002877 -0.00032009577 7.796091e-06 0.00016652168 1.6911561e-05 4.644706e-06 4.9256003e-05
-9.7423135e-06 -4.314032e-06 -0.0011832787 2.3497183e-05 -5.7048837e-06 -0.0014071572 -8.528532e-06 6.1316982e-06
-0.0016866986 6.894623e-06 -6.9070603e-07 0.00039338128 -1.0702554e-05 -3.8637745e-06 -2.8116199e-06 5.01893e-06
3.2121543e-06 -9.788663e-06 -0.0020436207 -4.413535e-08 5.964819e-06 0.00010383954 0.00045994692 0.001969666
0.0017102644 5.4911703e-05 -0.00064565707 -1.009214e-06 9.584665e-05 -0.00042536212 -0.0005091009 0.00011826744
6.6410944e-06 -9.013084e-06 0.0019635407 -2.2359558e-05 1.7681981e-05 -1.711109e-06 0.0012145546 -0.00014064526
1.4492607e-05 0.0011560217 -6.1072597e-06 7.876853e-07 1.752753e-05 -9.401009e-06 -0.0005083052 -0.0006857567
-6.3755215e-06 -4.532747e-06 3.8531988e-07 0.00093460944 -0.000916578 -4.130013e-05 -0.00074457814 2.4214358e-05
7.430714e-06 -1.684497e-05 3.399639e-05 0.00016764228 -0.0022157885 0.00019545207 -9.212785e-06 -0.00029366565
1.17297345e-08 0.00022719945 -7.218808e-06 2.3275297e-07 -4.5948227e-06 1.2942506e-05 -1.2307914e-06 9.314307e-06
-2.269739e-06 -2.8056759e-06 -1.0062224e-05 -6.7042824e-06 -1.9592574e-06 2.3065152e-06 -1.539074e-06 2.4010092e-07
-5.1486967e-07 -1.5620722e-06 5.7287543e-06 4.822822e-07 -6.656416e-07 -6.439474e-07 6.2618403e-07 -1.3846626e-06
-4.0013583e-05 -4.126235e-07 7.759587e-05 -1.7835513e-05 -1.089041e-07 4.2851716e-05 5.1080787e-07 4.293462e-07
5.668487e-05 1.4794817e-07 0.000118679935 -7.5142424e-08 -3.056747e-05 1.8923552e-05 -2.8641243e-06 6.7395613e-06
1.6103472e-06 -0.00010163128 -1.2247812e-08 -1.692418e-05 2.2936579e-06 7.000153e-05 6.0676757e-06 -0.00021188124
0.0001490546 -8.9541055e-07 6.100989e-07 1.9909594e-07 0.00022061761 7.627843e-05 0.00028664505 3.908099e-05
-0.00021390221 2.1787877e-05 -2.2955264e-05 6.465531e-07 1.3645058e-05 1.4839299e-06 5.7318044e-07 5.392487e-06
-1.0441283e-06 -4.411043e-07 -0.0001751514 2.0048014e-06 -5.2133544e-07 -0.00019525278 -4.979276e-07 5.9460234e-07
-0.0002215738 6.7707305e-07 -4.9400818e-08 4.10774e-05 5.7453412e-06 -3.2673202e-07 -8.514906e-08 4.649064e-07
2.7744449e-07 -1.0525548e-06 -0.00023768794 -4.6395354e-09 7.091347e-07 8.423443e-06 4.6007237e-05 0.00030482246
0.00017293997 3.579892e-06 -2.7315262e-05 -1.6890573e-07 6.218658e-06 -4.6872807e-05 -3.7327496e-05 1.0564266e-05
3.7422467e-06 -8.563671e-07 0.00022315493 -2.1311146e-06 1.881174e-06 -1.95605e-07 0.00012465402 -1.1271999e-05
1.6597402e-06 0.00015243667 -6.747431e-07 8.856336e-08 1.8475583e-06 -9.863172e-07 -6.0666596e-05 -7.701452e-05
-6.324775e-07 -4.5324128e-07 -6.507537e-09 8.286822e-05 -0.00011156648 -3.5254764e-06 -8.13979e-05 1.9919933e-06
7.788162e-07 -1.4774682e-06 6.165834e-06 2.3458097e-05 -0.00026931785 1.5661688e-05 -8.566339e-07 -2.4582716e-05
00000000: 41ef f935 f1cc 053b c681 93b8 b8b5 4436
00000010: 32b3 1db8 9f8f 2739 cc8d 65b7 2e82 e738
00000020: c58a ceb7 4061 ceb7 1327 19b9 ac07 86b8
00000030: 2696 82b7 93e2 c137 017d 6fb7 c97a 2436
00000040: 5160 a8b6 0c79 7eb7 c7ac 2438 b30c 9636
00000050: 6c0f e0b6 f685 0eb7 7fa8 9b37 424e 4bb7
00000060: 31a0 aeb9 f55a 5db6 837e 2e3a 5ffd 61b9
00000070: cf4d bdb5 ceca e539 d148 8936 3a18 53b7
00000080: 6b1a 123a 5844 f135 f113 783a ad21 59b5
00000090: 8d51 95b9 3185 4439 cd75 f5b7 5ef9 0438
000000a0: 14a5 8a37 c058 87ba bc45 b334 e16b 5bb9
000000b0: 46f0 c437 689b 4c3a c8c3 1638 9243 00bb
000000c0: f8b0 b43a 6471 15b7 afee d336 bccf 4236
000000d0: 5672 f83a 8e8a 2e3a db7d 0b3b d051 d339
000000e0: 476f baba 4b16 8339 87d2 a7b9 f5cb 0237
000000f0: 539c 2e39 4ddd 8d37 b9d9 9b36 3b98 4e38
00000100: eb72 23b7 41c1 90b6 3f18 9bba d11b c537
00000110: 946c bfb6 5c70 b8ba c415 0fb7 e3be cd36
00000120: 3714 ddba 5c58 e736 f568 39b5 be3e ce39
00000130: 1f8f 33b7 92a5 81b6 43af 3cb6 4868 a836
00000140: 6490 5736 fd39 24b7 44ee 05bb 558f 3db3
00000150: 6825 c836 6ec4 d938 0825 f139 8315 013b
00000160: f32a e03a fe50 6638 5041 29ba 5474 87b5
00000170: 4701 c938 2303 dfb9 2f75 05ba 5906 f838
00000180: 91d6 de36 e736 17b7 bfae 003b c990 bbb7
00000190: c453 9437 42a9 e5b5 b131 9f3a 2d7a 13b9
000001a0: 4625 7337 a785 973a f6ec ccb6 5271 5335
000001b0: 1608 9337 07b9 1db7 c93f 05ba 5ac4 33ba
000001c0: 50ed d5b6 0018 98b6 f6dd ce34 9400 753a
000001d0: 8246 70ba ad39 2db8 cb2f 43ba f01f cb37
000001e0: 5955 f936 4c4e 8db7 5997 0e38 22c9 2f39
000001f0: c336 11bb 44f2 4c39 9c90 1ab7 23f7 99b9
00000200: eb83 4932 633c 6e39 1739 f2b6 a6ea 7934
00000210: 3a2d 9ab6 a423 5937 ac31 a5b5 a544 1c37
00000220: d251 18b6 2549 3cb6 ecd0 28b7 59f5 e0b6
00000230: c97b 03b6 a1c9 1a36 2e92 ceb5 38e7 8034
00000240: 9335 0ab5 64a8 d1b5 a039 c036 2e76 0135
00000250: 8bae 32b5 badb 2cb5 0a17 2835 a5d8 b9b5
00000260: 42d4 27b8 8b86 ddb4 f7ba a238 799d 95b7
00000270: aade e9b3 aebb 3338 731e 0935 e480 e634
00000280: eac0 6d38 afdb 1e34 cee3 f838 fc5d a1b3
00000290: 9235 00b8 05be 9e37 4835 40b6 6424 e236
000002a0: 1c23 d835 e122 d5b8 726a 52b2 66f8 8db7
000002b0: beec 1936 c9cd 9238 f098 cb36 702c 5eb9
000002c0: 8a4b 1c39 255c 70b5 adc5 2335 13c7 5534
000002d0: 9755 6739 acf7 9f38 d948 9639 e5ea 2338
000002e0: f04a 60b9 1cc5 b637 0e90 c0b7 ca8e 2d35
000002f0: 14ed 6437 712b c735 a9dc 1935 1cf1 b436
00000300: fa23 8cb5 ead0 ecb4 d9a8 37b9 3a8a 0636
00000310: e6f1 0bb5 c5bc 4cb9 53a9 05b5 c39c 1f35
00000320: 4456 68b9 1bc0 3535 c62c 54b3 864a 2c38
00000330: 1bc8 c036 b569 afb4 31db b6b3 4098 f934
00000340: aef3 9434 8245 8db5 df3b 79b9 c969 9fb1
00000350: 5e5b 3e35 6a52 0d37 e5f7 4038 94d0 9f39
00000360: 3857 3539 143e 7036 1423 e5b7 745c 35b4
00000370: dea9 d036 4b99 44b8 1890 1cb8 2d3d 3137
00000380: 4f23 7b36 19e1 65b5 b2fe 6939 4504 0fb6
00000390: a57c fc35 7e07 52b4 8fb5 0239 de1c 3db7
000003a0: 3dc4 de35 68d7 1f39 fe1f 35b5 3930 be33
000003b0: 9ff9 f735 9a61 84b5 4374 7eb8 db82 a1b8
000003c0: 86c7 29b5 0255 f3b4 e798 dfb1 89c9 ad38
000003d0: ccf8 e9b8 3997 6cb6 2ab4 aab8 2fae 0536
000003e0: d70f 5135 6c4d c6b5 1ce4 ce36 e1c7 c437
000003f0: 3b33 8db9 3861 8337 6ff3 65b5 fb36 ceb7

module.transformer.blocks.0.mlp.fc2.bias f4 [64]
-0.12626018 0.0071199723 -0.053985674 0.0785006 -0.05154815 0.005676994 -0.09946048 0.06665034
0.10744262 0.00064048043 -0.011930465 0.022594508 -0.005075164 0.00022859433 0.005610933 0.005724028
0.00932707 -0.007890907 0.0022738231 0.01230633 0.002028725 -0.00073668675 0.0031672854 -9.401261e-05
0.012747397 0.08991614 -0.13688427 0.004746531 -0.0018424905 -0.009524259 0.019840239 0.0029741644
0.0064490885 0.005891441 0.20189957 0.00035886792 -0.0038785313 0.0004646361 0.00010173584 0.00029299365
-0.0018287596 0.0052260193 0.0065938695 0.1271773 -3.7646198e-05 -0.080278896 0.0044043395 0.010943363
0.011924786 -0.0010246389 0.025159732 -0.037408505 0.0036606414 -0.0026295239 0.0062445486 0.0066409167
-0.008162998 -0.26811683 -0.0002705012 0.00057394005 -0.00547004 0.10933948 0.09535474 -0.014925559
00000000: 594a 01be a84e e93b 1520 5dbd ecc4 a03d
00000010: 2724 53bd 1406 ba3b f0b1 cbbd f97f 883d
00000020: e00a dc3d eae5 273a ff77 43bc 1e18 b93c
00000030: 904d a6bb d3b2 6f39 ebdb b73b a190 bb3b
00000040: 91d0 183c dd48 01bc 6c04 153b 7da0 493c
00000050: 5cf4 043b 361e 41ba 3b92 4f3b a328 c5b8
00000060: 75da 503c f425 b83d 642b 0cbe ca88 9b3b
00000070: b97f f1ba a30b 1cbc ff87 a23c 33ea 423b
00000080: e052 d33b fd0c c13b c3be 4e3e 7026 bc39
00000090: f52e 7ebb 679a f339 035b d538 f19c 9939
000000a0: fdb2 efba 073f ab3b 6311 d83b c43a 023e
000000b0: 4ce6 1db8 4369 a4bd 4752 903b cb4b 333c
000000c0: 2d60 433c 2d4d 86ba c81b ce3c a939 19bd
000000d0: 5fe7 6f3b 1754 2cbb 129f cc3b 0c9c d93b
000000e0: 18be 05bc 9c46 89be 0ed2 8db9 7774 163a
000000f0: 053e b3bb 61ed df3d 5949 c33d 558a 74bc

module.transformer.blocks.1.norm1.weight f4 [64]
-9.812e-42 -9.809e-42 9.853e-42 -9.836e-42 -9.899e-42 -9.875e-42 -9.956e-42 9.89e-42
9.906e-42 -9.945e-42 -9.847e-42 -9.9e-42 -1.2368e-41 -9.916e-42 -9.834e-42 -9.876e-42
9.844e-42 -9.949e-42 9.809e-42 -9.98e-42 9.952e-42 1.0007e-41 -9.913e-42 -9.928e-42
-9.911e-42 9.871e-42 9.855e-42 -9.817e-42 9.896e-42 -9.923e-42 -9.809e-42 9.896e-42
1.0064e-41 -9.906e-42 1.0011e-41 9.837e-42 9.832e-42 9.882e-42 9.917e-42 -9.876e-42
-9.879e-42 -9.948e-42 9.987e-42 1.0371e-41 -9.934e-42 9.82e-42 -9.81e-42 9.889e-42
-9.885e-42 1.0018e-41 -9.97e-42 9.815e-42 -1.07e-41 9.931e-42 9.924e-42 -9.841e-42
1.006e-41 -9.977e-42 9.832e-42 -9.883e-42 -9.944e-42 9.819e-42 -9.817e-42 9.829e-42
00000000: 5a1b 0080 581b 0080 771b 0000 6b1b 0080
00000010: 981b 0080 871b 0080 c11b 0080 921b 0000
00000020: 9d1b 0000 b91b 0080 731b 0080 991b 0080
00000030: 7a22 0080 a41b 0080 6a1b 0080 881b 0080
00000040: 711b 0000 bc1b 0080 581b 0000 d21b 0080
00000050: be1b 0000 e51b 0000 a21b 0080 ad1b 0080
00000060: a11b 0080 841b 0000 791b 0000 5e1b 0080
00000070: 961b 0000 a91b 0080 581b 0080 961b 0000
00000080: 0e1c 0000 9d1b 0080 e81b 0000 6c1b 0000
00000090: 681b 0000 8c1b 0000 a51b 0000 881b 0080
000000a0: 8a1b 0080 bb1b 0080 d71b 0000 e91c 0000
000000b0: b11b 0080 601b 0000 591b 0080 911b 0000
000000c0: 8e1b 0080 ed1b 0000 cb1b 0080 5c1b 0000
000000d0: d41d 0080 af1b 0000 aa1b 0000 6f1b 0080
000000e0: 0b1c 0000 d01b 0080 681b 0000 8d1b 0080
000000f0: b81b 0080 5f1b 0000 5e1b 0080 661b 0000

module.transformer.blocks.1.norm1.bias f4 [64]
9.962e-42 -1.1922e-41 -9.843e-42 9.809e-42 9.969e-42 9.956e-42 9.833e-42 9.861e-42
-9.888e-42 -9.848e-42 -9.868e-42 -1.1076e-41 9.892e-42 9.861e-42 9.942e-42 -9.813e-42
-9.864e-42 -9.855e-42 -9.879e-42 9.906e-42 9.9e-42 9.902e-42 -9.983e-42 9.87e-42
9.84e-42 -9.834e-42 9.889e-42 -9.88e-42 1.0789e-41 -9.896e-42 9.836e-42 -9.815e-42
-9.895e-42 -9.85e-42 9.997e-42 -9.816e-42 9.812e-42 9.879e-42 -9.822e-42 9.921e-42
-9.862e-42 9.829e-42 -9.857e-42 9.813e-42 9.9e-42 -1.0001e-41 -9.903e-42 9.854e-42
-9.9e-42 9.82e-42 -9.895e-42 -9.909e-42 -9.907e-42 -9.817e-42 -9.911e-42 -9.848e-42
9.867e-42 -9.846e-42 -9.882e-42 9.813e-42 -9.875e-42 9.864e-42 9.896e-42 -9.817e-42
00000000: c51b 0000 3c21 0080 701b 0080 581b 0000
00000010: ca1b 0000 c11b 0000 691b 0000 7d1b 0000
00000020: 901b 0080 741b 0080 821b 0080 e01e 0080
00000030: 931b 0000 7d1b 0000 b71b 0000 5b1b 0080
00000040: 7f1b 0080 791b 0080 8a1b 0080 9d1b 0000
00000050: 991b 0000 9a1b 0000 d41b 0080 831b 0000
00000060: 6e1b 0000 6a1b 0080 911b 0000 8b1b 0080
00000070: 131e 0000 961b 0080 6b1b 0000 5c1b 0080
00000080: 951b 0080 751b 0080 de1b 0000 5d1b 0080
00000090: 5a1b 0000 8a1b 0000 611b 0080 a81b 0000
000000a0: 7e1b 0080 661b 0000 7a1b 0080 5b1b 0000
000000b0: 991b 0000 e11b 0080 9b1b 0080 781b 0000
000000c0: 991b 0080 601b 0000 951b 0080 9f1b 0080
000000d0: 9e1b 0080 5e1b 0080 a11b 0080 741b 0080
000000e0: 811b 0000 721b 0080 8c1b 0080 5b1b 0000
000000f0: 871b 0080 7f1b 0000 961b 0000 5e1b 0080
